primitives/ant_low_torque/down.pt (torch, 920169 bytes, 18 tensors)

weight f4 [256, 27]
-0.8619533 -0.31013873 1.2862103 -0.21039313 0.67696005 -0.5794421 -0.9410148 1.9537961
-0.3028668 1.0021813 0.22180353 -0.43499738 0.5425796 0.5029431 0.0584499 -0.6823955
0.32986176 -0.058312517 -0.028524281 0.13576604 -0.116823725 0.17163408 -0.16730678 -0.13510516
-0.049235336 0.02025487 0.18835694 -1.4694673 -0.40351874 0.32867277 -1.7032287 0.35598165
0.41355336 -0.547205 -0.35816824 1.5699046 0.7378597 0.9731124 0.7984658 -1.527232
1.0602878 -0.6218344 0.6539051 -0.70434606 -0.4443143 -0.31485495 -0.15786968 -0.16779898
-0.20608842 0.012384174 0.036006346 0.19632506 -0.15992029 -0.14031035 -0.45 -3.102217
-0.14041229 0.1920982 -0.9331047 -1.468928 -0.8153667 -2.1615272 0.7792598 0.7306264
0.6058239 0.14680947 -0.6637021 1.3572495 -0.454208 0.259491 -0.17970735 -0.0749621
-0.48836178 0.31984854 -0.14877893 -0.2943869 0.5007408 0.22178146 0.091190554 -0.40514588
0.13714902 -0.17415169 0.12967777 0.37650606 -0.091138765 1.3702195 -0.29745245 -0.55688286
0.70786023 0.0021314835 0.8293939 0.82726556 -0.0853066 -1.6469473 0.9600319 -0.083080806
-0.7711351 0.23632519 -0.30031863 -0.2769019 -0.06059406 0.11631916 0.087897554 -0.00929886
-0.052799795 -0.28794405 -0.014303763 0.15218605 0.452237 -0.22714788 -1.7648784 -2.4115582
-0.6563419 0.41089833 -0.63925195 -0.78250366 -1.0623649 -0.28423792 0.7303893 -0.56757814
0.9486135 0.44340155 -0.14506072 -0.14991397 -0.11926556 -0.31333798 -0.21215585 -0.13887961
-0.0997393 0.09841193 -0.12227564 0.070259355 -0.00130842 -0.09274268 0.106567726 0.5773894
0.15646254 -0.6341853 -0.97585 -0.5636504 -2.5032787 -0.64286214 0.3317851 -0.72270375
-0.2526536 0.38259834 0.9481483 0.2467511 -0.0067834095 -0.036891077 0.15392902 -0.02968774
-0.08444381 -0.08534241 -0.5346125 -0.11296894 0.046373617 -0.045581676 -0.10560523 0.11746125
0.22557572 0.014051348 -1.2550977 -1.0162666 0.76530504 -2.0558019 0.856479 -0.49625248
-0.8937989 -0.17239347 1.2841045 0.1784457 1.2618318 0.55119914 -1.2556843 0.18307194
0.05674169 -0.27854872 -0.050412185 -0.06412787 0.73789805 0.36044466 0.1052914 0.08889906
0.17768472 0.28066337 -0.11238376 0.39141098 0.23083316 -0.95146275 1.6740423 -0.9859594
-1.0484346 2.0503802 -0.35076466 -0.37365752 0.33923277 1.3839229 0.28216088 0.30820483
0.3788194 -0.27733377 0.03046169 0.0014895085 -0.15470949 -0.083771065 -0.00802665 0.14645645
0.011319839 -0.03464552 -0.006475336 0.19045906 0.019262062 0.058991857 0.085011244 0.012960971
-1.3863869 -1.276047 0.6221805 -0.3643296 -0.78422874 0.7216383 -1.1967007 0.8288604
0.62648785 -0.47964913 0.9223201 -1.044574 -1.2027531 0.18450095 1.0010211 -0.031527203
-0.23559152 0.09129501 -0.17144127 0.0012295687 -0.10793273 -0.1486438 0.25897437 -0.20284465
0.024261337 0.09618302 0.07241027 2.749268 -0.50647104 -6.2641535 0.2881642 -1.3670298
0.5053353 -0.64270556 0.83004785 -0.32184994 -0.47406092 0.37247068 -1.019105 -0.33498746
00000000: f9a8 5cbf 81ca 9ebe 8aa2 a43f 4c71 57be
00000010: 414d 2d3f 5156 14bf 59e6 70bf fe15 fa3f
00000020: 5b11 9bbe 7a47 803f 7720 633e fab7 debe
00000030: 7fe6 0a3f e1c0 003f 2a69 6f3d 79b1 2ebf
00000040: a4e3 a83e 1bd9 6ebd c1ab e9bc 4106 0b3e
00000050: 4741 efbd d8c0 2f3e 7852 2bbe 0259 0abe
00000060: feaa 49bd 8bed a53c a4e0 403e 8117 bcbf
00000070: 029a cebe cc47 a83e 6603 dabf 3a43 b63e
00000080: 44bd d33e a015 0cbf d461 b7be a2f2 c83f
00000090: 60e4 3c3f e51d 793f 4168 4c3f 577c c3bf
000000a0: 83b7 873f 8a30 1fbf 5366 273f 0650 34bf
000000b0: 2a7d e3be ab34 a1be 97a8 21be 7fd3 2bbe
000000c0: d808 53be fee6 4a3c 647b 133d 7009 493e
000000d0: 25c2 23be 84ad 0fbe 6666 e6be b98a 46c0
000000e0: 3dc8 0fbe 64b5 443e f3df 6ebf d505 bcbf
000000f0: dfbb 50bf 7656 0ac0 927d 473f 550a 3b3f
00000100: 4617 1b3f 3955 163e 61e8 29bf 5aba ad3f
00000110: f38d e8be 01dc 843e 3405 38be bb85 99bd
00000120: 8e0a fabe 30c3 a33e 8159 18be e1b9 96be
00000130: 8d30 003f ae1a 633e 1dc2 ba3d 486f cfbe
00000140: cb70 0c3e d254 32be 40ca 043e 67c5 c03e
00000150: f6a6 babd 5a63 af3f b04b 98be e08f 0ebf
00000160: 5436 353f 5cb0 0b3b 2953 543f adc7 533f
00000170: 3ab5 aebd 2bcf d2bf a7c4 753f 4526 aabd
00000180: 1c69 45bf 3bff 713e 5dc3 99be 16c6 8dbe
00000190: 7a31 78bd bd38 ee3d a203 b43d 3f5a 18bc
000001a0: 9944 58bd 676d 93be 555a 6abc a9d6 1b3e
000001b0: 9c8b e73e 7499 68be 89e7 e1bf f856 1ac0
000001c0: 0606 28bf 4461 d23e 04a6 23bf 2952 48bf
000001d0: 93fb 87bf a287 91be cbfa 3a3f cd4c 11bf
000001e0: 56d8 723f 8705 e33e cc8a 14be 0c83 19be
000001f0: 8041 f4bd d66d a0be 623f 59be 7536 0ebe
00000200: 1e44 ccbd 328c c93d a76b fabd 23e4 8f3d
00000210: 4a7f abba e0ef bdbd 2e40 da3d cbcf 133f
00000220: b737 203e f859 22bf 4ed1 79bf 654b 10bf
00000230: b835 20c0 9d92 24bf bddf a93e 1d03 39bf
00000240: d05b 81be eee3 c33e d9b9 723f 52ac 7c3e
00000250: 5d47 debb 191b 17bd 929f 1d3e b433 f3bc
00000260: e0f0 acbd 00c8 aebd 5ddc 08bf 425c e7bd
00000270: 43f2 3d3d dab3 3abd 8e47 d8bd 868f f03d
00000280: 52fd 663e a037 663c 0ba7 a0bf 0615 82bf
00000290: 08eb 433f 4292 03c0 3542 5b3f ce14 febe
000002a0: 01d0 64bf ea87 30be 895d a43f 78ba 363e
000002b0: b483 a13f 631b 0d3f 43ba a0bf 3677 3b3e
000002c0: f969 683d f09d 8ebe 027d 4ebd 7955 83bd
000002d0: e3e6 3c3f 348c b83e 04a3 d73d b610 b63d
000002e0: fcf2 353e 1cb3 8f3e 7529 e6bd 0567 c83e
000002f0: 875f 6c3e 1093 73bf 0547 d63f d667 7cbf
00000300: 1b33 86bf 6e39 0340 6d97 b3be 0a50 bfbe
00000310: ebaf ad3e 6324 b13f 6477 903e 06cd 9d3e
00000320: 9ef4 c13e b1fe 8dbe cb8a f93c 9d3b c33a
00000330: 2a6c 1ebe 2a90 abbd 3682 03bc aef8 153e
00000340: d976 393c 76e8 0dbd 0e2f d4bb b307 433e
00000350: 79cb 9d3c 72a1 713d 601a ae3d 415a 543c
00000360: 2075 b1bf 8255 a3bf 3947 1f3f 6989 babe
00000370: 37c3 48bf 4abd 383f 7d2d 99bf 3230 543f
00000380: 8261 203f 9294 f5be 2c1d 6c3f 9ab4 85bf
00000390: d0f3 99bf d1ed 3c3e 7621 803f ab22 01bd
000003a0: e73e 71be e1f8 ba3d 4d8e 2fbe 7b29 a13a
000003b0: d60b ddbd 1536 18be 4a98 843e 82b6 4fbe
000003c0: b6bf c63c 9afb c43d d64b 943d 02f4 2f40
000003d0: 16a8 01bf f273 c8c0 428a 933e d5fa aebf
000003e0: a75d 013f 5a88 24bf 047e 543f 84c9 a4be
000003f0: 1db8 f2be 7ab4 be3e 0872 82bf 7a83 abbe

bias f4 [256]
-1.5933555 -1.4586629 -1.5205426 -0.89039844 -0.93615687 -0.7986555 -1.3819635 0.9981113
-1.2592859 -1.1562673 -1.8505613 -1.2127073 -1.0824268 -1.3949827 -0.6521556 -1.1982576
0.2587281 -0.8342932 -1.1911066 -1.157074 -0.44486314 0.17261313 -0.8680739 -0.5723739
-0.31623116 -1.045542 -1.002163 -1.1450925 -0.5969977 -2.3677506 -1.2928004 -1.5132979
-1.0873978 -0.66230994 -1.0059133 -1.6040995 -0.68687105 -1.5478766 -0.110931754 -1.1300163
-0.8395837 -0.89689267 0.23646335 -1.3592792 -1.6129544 -1.4566724 -0.99188805 -1.254056
-1.0338537 -0.004009229 0.45217213 -0.8704904 -1.1016501 -1.74334 -1.6308533 -0.28496057
-1.3484964 -1.2560188 -1.3002441 -1.9397154 -1.4803 -0.84022546 -1.4007388 -1.3133718
-1.0318692 -0.32092747 -1.106873 -1.6688206 -1.9522166 -1.1705786 -1.563712 -1.9673439
-0.93494457 -0.27610123 -0.34990615 -0.9402765 -0.6233413 -1.3422275 -0.77436453 -1.3037264
-1.1160764 -1.8607926 -0.5030232 -0.16193652 -1.7300234 -1.1219554 -1.2113037 -0.9397136
-1.1901296 -0.3347641 -1.4567748 -1.0975671 -1.5100546 -1.2948055 -0.0028380281 -0.951556
-2.1130145 -1.1142503 -1.4210637 -1.0933495 -0.7643183 -1.226711 -0.8646822 -0.9780115
-1.5078455 -1.2356254 -1.3890092 -1.3802774 -0.12726554 -1.4485666 -1.157099 -1.2992734
-0.101067044 -0.03490534 -0.6964585 -1.3170319 -1.3400447 -0.792185 -0.98059565 -0.7485644
-1.2398798 -1.1482973 -1.5547943 -1.8308669 -1.3426902 -0.9928371 0.3117403 -1.9192562
-1.8290876 -0.9666448 0.20921992 -1.4261234 -0.27981183 -1.1472234 0.12135114 -0.9715072
-1.338852 -1.3169842 -0.9377104 -1.4439324 0.07504181 -1.1321034 -0.7342004 0.17452435
-2.2662568 -1.1556237 -0.49676538 0.16648923 -1.9076049 -1.4115473 -1.304925 -0.9223907
-1.2449749 -1.8251349 -1.115261 -1.0901921 -1.5722204 -0.6191835 -2.1869671 -0.8096985
-1.6684755 -1.5495179 -0.75438213 -0.937267 -1.1824311 -0.6991487 -1.7775415 -1.1246535
-1.3928992 -0.9202133 -1.6458812 -1.7483274 -0.2849572 -1.5929008 0.21040493 -1.2566665
-0.9679951 -0.80276775 -1.0900916 -1.5268624 -1.3312119 -1.1881481 -1.2252793 -0.5142441
-1.8598017 -0.6483969 -1.7809994 -0.99049926 -0.7482042 -1.4300107 -1.7221932 -1.0227193
-0.93981826 -1.3520757 -0.40087232 -1.6942425 -1.152379 -1.0459169 -0.17015053 -1.9839653
-0.18736823 -1.293241 -1.2390685 -1.1103035 -0.12624198 -0.606958 -1.1294245 -1.8077302
-0.90132564 -1.7066445 -0.76863134 -0.8993422 -0.8374151 -0.513512 -0.8917738 0.12891221
0.6651395 -1.1276451 -1.3708228 -0.47051203 -0.9525958 0.050451007 -1.6616349 -0.9617027
-0.6936243 -1.0014871 -1.1317819 -0.46156707 -1.1697435 -1.0170275 -0.55121607 -1.358123
-0.7738818 -0.8208582 -1.0009545 -1.2579998 -0.88029534 -0.12600054 0.47579166 -1.789425
-1.4075875 -1.4981164 -1.8372179 -1.7794036 0.31509054 -1.6006526 -0.9787936 -1.5225202
-1.7776166 -0.24647516 -0.5608719 -0.68870604 -0.07261845 -1.6617814 -1.1443343 -1.2995814
00000000: 13f3 cbbf 77b5 babf 24a1 c2bf 27f1 63bf
00000010: faa7 6fbf b074 4cbf 2ee4 b0bf 3984 7f3f
00000020: 4830 a1bf 9100 94bf 31df ecbf fe39 9bbf
00000030: f68c 8abf cb8e b2bf abf3 26bf 8160 99bf
00000040: 0278 843e 3d94 55bf 2e76 98bf 001b 94bf
00000050: 1ac5 e3be 7fc1 303e 173a 5ebf 1987 12bf
00000060: 0de9 a1be 52d4 85bf e146 80bf 6492 92bf
00000070: d7d4 18bf 3a89 17c0 7c7a a5bf bfb3 c1bf
00000080: da2f 8bbf 258d 29bf c4c1 80bf 2253 cdbf
00000090: c8d6 2fbf d220 c6bf 3030 e3bd 60a4 90bf
000000a0: f5ee 56bf c29a 65bf 7323 723e dcfc adbf
000000b0: 4a75 cebf 3e74 babf 60ec 7dbf e884 a0bf
000000c0: 5155 84bf da5f 83bb 1b83 e73e 75d8 5ebf
000000d0: df02 8dbf c425 dfbf cdbf d0bf 5ae6 91be
000000e0: 889b acbf 39c5 a0bf 666e a6bf 9848 f8bf
000000f0: 787a bdbf 0419 57bf 694b b3bf 911c a8bf
00000100: 4a14 84bf 9b50 a4be 04ae 8dbf ea9b d5bf
00000110: 3ce2 f9bf 85d5 95bf b727 c8bf edd1 fbbf
00000120: 8758 6fbf 245d 8dbe e626 b3be f6b5 70bf
00000130: 4c93 1fbf 1cce abbf c13c 46bf 82e0 a6bf
00000140: 97db 8ebf 742e eebf 21c6 00bf b0d2 25be
00000150: 6871 ddbf 3c9c 8fbf 000c 9bbf 1291 70bf
00000160: 2b56 98bf 3366 abbe 9977 babf 147d 8cbf
00000170: 7849 c1bf 30bc a5bf 36fe 39bb 2d99 73bf
00000180: a13b 07c0 c19f 8ebf 6ae5 b5bf e0f2 8bbf
00000190: 5daa 43bf de04 9dbf d05b 5dbf f65e 7abf
000001a0: 1501 c1bf f928 9ebf 0ecb b1bf eeac b0bf
000001b0: e651 02be a16a b9bf d21b 94bf 974e a6bf
000001c0: 3dfc cebd e7f8 0ebd 1b4b 32bf 8094 a8bf
000001d0: 9686 abbf a3cc 4abf 5108 7bbf eba1 3fbf
000001e0: 62b4 9ebf 68fb 92bf 8003 c7bf d959 eabf
000001f0: 46dd abbf 922a 7ebf 6d9c 9f3e 30aa f5bf
00000200: 8b1f eabf 0976 77bf bf3d 563e 368b b6bf
00000210: 7f43 8fbe 37d8 92bf f286 f83d b2b4 78bf
00000220: 815f abbf f092 a8bf ca0d 70bf c7d2 b8bf
00000230: 85af 993d c4e8 90bf 8ff4 3bbf 83b6 323e
00000240: 5a0a 11c0 7aeb 93bf 0858 febe 277c 2a3e
00000250: 662c f4bf 95ad b4bf c807 a7bf cc21 6cbf
00000260: 565b 9fbf 059e e9bf dfc0 8ebf 6a8b 8bbf
00000270: 853e c9bf cf82 1ebf 45f7 0bc0 6748 4fbf
00000280: 9b90 d5bf 9a56 c6bf 301f 41bf bbf0 6fbf
00000290: e759 97bf 69fb 32bf 7b86 e3bf a5f4 8fbf
000002a0: 854a b2bf 1993 6bbf 3cac d2bf 31c9 dfbf
000002b0: e9e5 91be 2ce4 cbbf 6474 573e 73da a0bf
000002c0: 87ce 77bf 3082 4dbf 1f88 8bbf 3a70 c3bf
000002d0: 2765 aabf 3d15 98bf f4d5 9cbf 80a5 03bf
000002e0: fb0d eebf 57fd 25bf caf7 e3bf 5c91 7dbf
000002f0: 4f8a 3fbf 970a b7bf d470 dcbf 77e8 82bf
00000300: ee97 70bf d110 adbf 233f cdbe f0dc d8bf
00000310: 2881 93bf 9be0 85bf f13b 2ebe 93f2 fdbf
00000320: 75dd 3fbe ec88 a5bf cc99 9ebf 6d1e 8ebf
00000330: 9445 01be 9961 1bbf fb90 90bf b463 e7bf
00000340: 47bd 66bf 5473 dabf 06c5 44bf 4a3b 66bf
00000350: d660 56bf 8675 03bf 4a4b 64bf 9001 043e
00000360: 9546 2a3f ad56 90bf 1f77 afbf f4e6 f0be
00000370: 51dd 73bf b7a5 4e3d 74b0 d4bf 2632 76bf
00000380: 5d91 31bf bb30 80bf 3bde 90bf 8552 ecbe
00000390: 28ba 95bf f52d 82bf 7f1c 0dbf f9d6 adbf
000003a0: 1e1d 46bf c323 52bf 471f 80bf 2306 a1bf
000003b0: 095b 61bf 4906 01be f79a f33e e10b e5bf
000003c0: d42b b4bf 47c2 bfbf f529 ebbf 7fc3 e3bf
000003d0: 8c53 a13e 2fe2 ccbf 3892 7abf f1e1 c2bf
000003e0: f188 e3bf fc63 7cbe 4d95 0fbf 0a4f 30bf
000003f0: fbb8 94bd 41b5 d4bf 8c79 92bf af58 a6bf

weight f4 [256, 256]
-0.5080051 -0.33399367 -0.17324902 -0.30478016 -0.1289006 -0.9813305 -0.11835834 -0.3961624
-0.080655515 0.5377586 -0.2426275 -0.39113855 -0.05359248 0.114208184 -0.4936342 0.2614958
-0.57137835 -0.33327684 -0.20872676 -0.2409837 -0.7746283 -0.5487827 -0.5273903 -0.76117206
-0.82289654 0.25227928 -0.12985905 -0.43867514 -0.08196193 -0.3676573 0.01582948 -0.19320938
0.05713997 -0.48349684 -0.04725825 -0.28947458 -0.93212473 0.34596264 -0.13089116 -0.26079434
-0.73137885 -0.5190683 -0.45183077 -0.0956462 0.23927918 0.18959656 -0.6527281 -0.2256161
-0.4435834 -1.5518903 0.056954585 0.12935595 -0.15535127 0.17498465 -0.43400913 -0.24947439
0.06467946 -0.7114289 -1.2559354 -0.09446021 -0.5774568 -0.33894002 0.18908028 0.5128152
-0.16181946 0.09794204 -0.54037434 0.8850617 -0.40486908 -1.2287383 0.3867283 0.10272356
0.45975125 -0.2725513 -0.14755374 -0.36553586 -0.087040015 -0.15066557 -0.3607619 -0.08502866
-1.1035962 -0.043443456 -0.2687602 -1.1467382 -0.66446763 -0.017899325 0.47244257 0.25283018
-0.26248455 0.04966843 -0.07318469 -0.1322331 -0.52823144 -1.0429558 -0.36180604 -0.39310634
0.16428223 0.072187886 -0.1656823 -0.512145 -0.020968284 -0.68747014 -0.7056708 -0.20670368
-0.79719996 -0.5436779 -0.5542389 -0.32588086 -1.1692164 -0.2354577 -0.5440773 -0.12062161
-1.2559885 -0.5911814 -1.0119672 -0.36526453 -0.20922695 -0.6295926 -0.047795266 -0.3875202
-0.23429872 -0.6885743 -0.04752551 -0.60116017 0.5365551 0.033686616 -0.5042044 -0.11862134
-0.6861392 -0.19083788 -0.3263058 -0.048349783 -0.2663315 -0.17255707 -0.53053814 -0.508732
0.37397444 -0.11333115 -0.9507185 -0.1624466 -0.2605477 -0.33346766 -1.5071111 -0.44277304
0.098126285 -0.44724664 -1.2375917 -0.89855474 -0.40303522 -0.34397158 -0.018443858 -0.0673078
0.12152794 -0.16726552 -0.29680553 -0.85766095 -0.021440327 0.20300107 0.05095955 -0.67797905
-0.31709933 -0.09552877 -0.15631178 -0.018459974 -0.6502318 -0.17253728 -0.8270603 0.15411924
-0.6512131 -1.0860634 0.00991536 0.030206257 -0.01011273 -0.27371216 -0.25594947 -0.080863394
-0.35436493 -0.2975433 -0.72578543 -0.21842648 0.024189182 -0.29881003 -0.13645037 -0.3564692
0.1297155 -0.5545179 -0.23401973 -0.14967051 0.02500716 -0.07734712 -0.007323672 0.1587654
0.11567601 0.018271852 0.10475508 -0.040688895 -0.16706014 -0.11749038 0.36759806 0.30855078
0.021473153 -0.28491482 0.4040024 0.007971463 -0.26491392 -0.1584414 -0.21895231 -0.5397935
0.29511657 0.12582348 -0.672857 -0.26400167 -1.1279266 0.017979296 -0.20483729 -0.37318367
0.10629993 -1.9640467 -0.15037282 -0.7845734 -1.3979175 -0.7774222 -0.18369238 -1.2757312
-0.2779424 -0.6407817 -0.21324843 0.24471624 -0.017697796 -0.62194955 -0.17281632 -0.060113855
-0.30584908 -0.24327756 -0.24986358 0.18255422 -0.019725032 -0.31682867 -0.24456966 -0.0037560419
-0.16033714 0.445965 -0.23361951 0.20076004 -0.5708178 -1.6584835 -0.44217148 -0.25333756
-0.94149286 -0.3808371 -0.04578871 -0.24358277 -0.8886657 -0.75119513 -0.1443213 0.2187939
00000000: 9f0c 02bf 3801 abbe 3168 31be 250c 9cbe
00000010: 85fe 03be 7a38 7bbf db65 f2bd ccd5 cabe
00000020: b82e a5bd 8caa 093f 5873 78be 5043 c8be
00000030: ca83 5bbd fbe5 e93d 9fbd fcbe c7e2 853e
00000040: da45 12bf 43a3 aabe 78bc 55be 6ec4 76be
00000050: 0a4e 46bf 067d 0cbf 0d03 07bf 2cdc 42bf
00000060: 59a9 52bf c02a 813e c5f9 04be 079a e0be
00000070: a8db a7bd 943d bcbe d3ac 813c aed8 45be
00000080: 9a0b 6a3d e68c f7be de91 41bd 0336 94be
00000090: ba9f 6ebf 0422 b13e 5508 06be d686 85be
000000a0: a53b 3bbf a9e1 04bf 5d56 e7be 28e2 c3bd
000000b0: 9a05 753e 9a25 423e 3019 27bf e807 67be
000000c0: 5d1d e3be 57a4 c6bf 3649 693d e375 043e
000000d0: 6714 1fbe 2d2f 333e 7236 debe 3776 7fbe
000000e0: aa76 843d 3420 36bf 7ec2 a0bf 5b74 c1bd
000000f0: 35d4 13bf 8c89 adbe 439e 413e db47 033f
00000100: 00b4 25be d695 c83d f955 0abf 6793 623f
00000110: 004b cfbe 4c47 9dbf 4001 c63e bb60 d23d
00000120: 8464 eb3e d88b 8bbe 5418 17be 8427 bbbe
00000130: 0942 b2bd 1348 1abe c9b5 b8be 8223 aebd
00000140: a442 8dbf c4f1 31bd f09a 89be 51c8 92bf
00000150: 8d1a 2abf 9ba1 92bc fee3 f13e f572 813e
00000160: 6064 86be 2071 4b3d dbe1 95bd 1d68 07be
00000170: 2d3a 07bf 937f 85bf a43e b9be 3c45 c9be
00000180: 9a39 283e 3ed7 933d 9fa8 29be ef1b 03bf
00000190: aec5 abbc 0bfe 2fbf d7a6 34bf 21aa 53be
000001a0: 4c15 4cbf 7a2e 0bbf 9ae2 0dbf dbd9 a6be
000001b0: e2a8 95bf d31b 71be a648 0bbf 7608 f7bd
000001c0: 3bc4 a0bf aa57 17bf 2488 81bf f403 bbbe
000001d0: 973f 56be fb2c 21bf f8c4 43bd 0c69 c6be
000001e0: 01ec 6fbe 6846 30bf 1caa 42bd a2e5 19bf
000001f0: ad5b 093f fafa 093d 8a13 01bf bfef f2bd
00000200: d2a6 2fbf 016b 43be 8e11 a7be 6c0a 46bd
00000210: 9a5c 88be cdb2 30be 59d1 07bf 433c 02bf
00000220: 9479 bf3e 291a e8bd 4a62 73bf 6758 26be
00000230: 8266 85be 46bc aabe 04e9 c0bf 26b3 e2be
00000240: 6ff6 c83d 83fd e4be 6869 9ebf af07 66bf
00000250: a25a cebe 0b1d b0be 9317 97bc acd8 89bd
00000260: a4e3 f83d a747 2bbe e5f6 97be ab8f 5bbf
00000270: a0a3 afbc 83df 4f3e f6ba 503d 0990 2dbf
00000280: d85a a2be 96a4 c3bd 3210 20be 5f39 97bc
00000290: 9775 26bf 9dad 30be 39ba 53bf 6fd1 1d3e
000002a0: e7b5 26bf 2004 8bbf 0974 223c 1d73 f73c
000002b0: ddaf 25bc 0024 8cbe cf0b 83be b59b a5bd
000002c0: 526f b5be 9857 98be 13cd 39bf 31ab 5fbe
000002d0: 6428 c63c a1fd 98be a5b9 0bbe 2283 b6be
000002e0: 24d4 043e e3f4 0dbf dea2 6fbe 3a43 19be
000002f0: d1db cc3c 2b68 9ebd 6afb efbb 6693 223e
00000300: 8be7 ec3d daae 953c d589 d63d 66a9 26bd
00000310: d011 2bbe cc9e f0bd d035 bc3e 5efa 9d3e
00000320: 77e8 af3c 5be0 91be 67d9 ce3e bd9a 023c
00000330: cca2 87be 763e 22be 0935 60be e82f 0abf
00000340: 8519 973e dfd7 003e 5b40 2cbf 3a2b 87be
00000350: e65f 90bf 5149 933c dec0 51be ee11 bfbe
00000360: c7b3 d93d e265 fbbf 55fb 19be cdd9 48bf
00000370: f6ee b2bf 2405 47bf db19 3cbe 294b a3bf
00000380: 774e 8ebe 450a 24bf cc5d 5abe e596 7a3e
00000390: f8fa 90bc 1638 1fbf c3f6 30be f239 76bd
000003a0: 4098 9cbe c11d 79be 3ddc 7fbe 7eef 3a3e
000003b0: 6496 a1bc 5e37 a2be 7870 7abe ed27 76bb
000003c0: 6b2f 24be 8655 e43e f439 6fbe 0a94 4d3e
000003d0: 1e21 12bf 3049 d4bf 4d64 e2be 76b5 81be
000003e0: ad05 71bf 15fd c2be f18c 3bbd c36d 79be
000003f0: 987f 63bf 534e 40bf f6c8 13be 820b 603e

bias f4 [256]
-1.7998221 -0.12104581 0.0028922586 0.05754358 -0.10068524 -0.0451842 -0.86983263 1.3778826
-0.18448336 -0.14293532 -0.07223569 -0.66045225 0.39200962 -0.09701006 -0.5264725 -0.17342827
-1.3994726 -0.11886066 -1.2054888 -0.58038765 -0.34978387 -0.3067187 -0.9812847 -0.844415
-1.2512587 -0.82524383 -0.08156136 1.1027426 0.12826854 -0.0791917 0.4004513 -0.09911523
-0.06031917 -0.21028337 0.87601626 -0.01566463 0.11440105 -0.22078067 -0.0974779 -0.082258105
-0.11503239 -1.1631255 -1.2296877 -1.1522106 -0.054623388 0.42824137 -0.98033655 -0.7377632
-0.07410656 -0.13050123 -0.8692296 -0.05821095 -2.0087538 -0.071830995 -1.1010126 -0.070353344
0.53476346 -1.09588 -2.1143262 -0.073262535 -1.9238094 -0.122299 -0.9021933 -0.089457974
-0.122992575 -0.70143247 -0.85484385 -0.15811364 -0.58257467 -0.8912075 -0.07844056 -0.15854414
-0.092482075 -0.105582155 -0.41708547 -0.45945132 0.08919334 -1.8765668 -0.049747955 0.05003046
-0.35709593 -0.9544522 -0.1288495 -0.1668198 -1.1020709 -0.13768248 -2.1539114 -0.9979578
-0.07954684 -0.15925887 -1.1549377 0.9322257 -1.5001479 -1.3117669 -0.3280349 -1.6346438
-0.13112804 -1.1269518 -0.10958497 -0.08374374 0.88614464 -0.11737156 -0.5418242 -0.40442508
-0.41349658 -1.7834295 -0.42612684 -0.30418053 -0.09567659 0.14759424 -1.5129685 -0.03445033
-0.7715238 0.508087 0.22565109 -0.1169818 -0.052506417 -1.8230842 0.5255958 -0.8132976
0.12770422 -1.0193958 -0.7851083 -0.6406665 -0.7339241 -0.48473832 -0.76462656 -0.14040451
-0.79197025 0.893442 -1.2904131 0.5064307 -0.9881295 -0.107990116 -0.38080496 -0.47634062
-1.0871117 -0.9850209 -1.2094643 -0.30671588 -0.6010572 -0.033297323 -0.99990714 -0.86708665
0.5673994 -0.19780567 -0.11127726 -0.1032065 -0.13076445 -1.186546 -0.28546095 -0.50469255
-1.1915923 -0.14210306 -1.5611117 -1.2344285 -1.0574404 -0.10312754 -0.08839035 -0.13048686
-0.08197028 -0.10906892 -0.08618117 -1.3341823 -0.80931884 -0.22264427 -0.16315635 1.2214755
0.41320834 -0.1475946 0.52156985 -0.8405283 0.26490834 -0.70770305 -0.2985597 -1.2959316
-1.054839 -0.8772469 -1.0599631 -1.166821 -0.36758873 -2.1900268 -0.12017944 0.42568016
-0.16856347 -0.067843854 -1.4416729 -1.5601475 -0.78551674 0.54322684 -0.94818485 1.3152053
-0.90426904 -0.024227338 -0.15175924 -1.479607 -1.1667951 0.39300546 -0.24050558 -0.88237315
-0.06262737 -1.2220943 -0.15362817 -0.06758464 -0.027260963 -1.2312813 -0.8810849 0.04117588
0.5578442 -0.12782897 -0.6770293 -1.0625043 -0.13895234 -0.118174724 -0.017737234 -1.1212811
-0.9002045 -1.2815762 -0.61530954 -0.9057006 -0.26179385 -0.056626577 -0.07596802 -0.7627151
-0.17711811 -0.06771496 0.4942269 -0.08728286 -0.023521796 0.82248604 -0.38323116 -0.9639669
-0.94855267 -0.031417064 -0.27409908 0.488755 0.24647743 -0.60589904 -0.28550872 -0.73989254
-1.5022465 0.56926215 -1.7497327 -0.16568941 -1.2360866 0.44710264 -0.25305253 0.03893983
-1.3294498 -0.12112124 0.3094254 1.1442897 -0.12741603 -0.2344808 -0.8045269 0.6449358
00000000: 9260 e6bf dee6 f7bd 0c8c 3d3b d1b2 6b3d
00000010: 1034 cebd 1113 39bd 5aad 5ebf 755e b03f
00000020: 35e9 3cbe a35d 12be 4ef0 93bd 6613 29bf
00000030: 7cb5 c83e 36ad c6bd e7c6 06bf 2e97 31be
00000040: eb21 b3bf 386d f3bd 754d 9abf 4994 14bf
00000050: df16 b3be 3c0a 9dbe 7935 7bbf 952b 58bf
00000060: 3f29 a0bf 2e43 53bf a409 a7bd ab26 8d3f
00000070: d458 033e 422f a2bd f407 cd3e edfc cabd
00000080: 3c11 77bd 8654 57be 9a42 603f 1c53 80bc
00000090: 194b ea3d 5414 62be 7ea2 c7bd f076 a8bd
000000a0: 1a96 ebbd 4ce1 94bf 6866 9dbf a37b 93bf
000000b0: c6bc 5fbd 7442 db3e 56f7 7abf 0dde 3cbf
000000c0: 2ec5 97bd 1da2 05be d585 5ebf 9b6e 6ebd
000000d0: 6c8f 00c0 211c 93bd fbed 8cbf 6a15 90bd
000000e0: 42e6 083f cc45 8cbf 1f51 07c0 ab0a 96bd
000000f0: 633f f6bf e677 fabd 24f6 66bf be35 b7bd
00000100: 88e3 fbbd 1491 33bf 0cd7 5abf 8be8 21be
00000110: 9d23 15bf 2d26 64bf 72a5 a0bd 6559 22be
00000120: 3e67 bdbd 753b d8bd 3a8c d5be 343d ebbe
00000130: ffaa b63d 5733 f0bf 83c4 4bbd bdec 4c3d
00000140: 47d5 b6be fb56 74bf 20f1 03be cfd2 2abe
00000150: a910 8dbf a3fc 0cbe afd9 09c0 2a7a 7fbf
00000160: 74e9 a2bd c214 23be 00d5 93bf 58a6 6e3f
00000170: d904 c0bf fae7 a7bf 31f4 a7be 023c d1bf
00000180: 6e46 06be f53f 90bf 166e e0bd d781 abbd
00000190: 60da 623f 8060 f0bd feb4 0abf ce10 cfbe
000001a0: d3b5 d3be 6b47 e4bf 4c2d dabe 8dbd 9bbe
000001b0: 17f2 c3bd f222 173e f4a8 c1bf ca1b 0dbd
000001c0: 9582 45bf fd11 023f 1411 673e 2794 efbd
000001d0: f810 57bd d35a e9bf 728d 063f 4634 50bf
000001e0: e5c4 023e 907b 82bf dcfc 48bf b802 24bf
000001f0: 73e2 3bbf 9f2f f8be 91be 43bf 33c6 0fbe
00000200: 90be 4abf 9db8 643f 422c a5bf 71a5 013f
00000210: 0ef6 7cbf ec29 ddbd def8 c2be ebe2 f3be
00000220: 7a26 8bbf 542a 7cbf bacf 9abf dd09 9dbe
00000230: e2de 19bf c662 08bd eaf9 7fbf 64f9 5dbf
00000240: 1641 113f 928d 4abe 55e5 e3bd ee5d d3bd
00000250: 1ee7 05be bde0 97bf f027 92be 8833 01bf
00000260: 1986 98bf 7783 11be 82d2 c7bf c101 9ebf
00000270: 355a 87bf 8834 d3bd 0006 b5bd 599e 05be
00000280: 09e0 a7bd 875f dfbd c17f b0bd 7cc6 aabf
00000290: 852f 4fbf dcfc 63be 7512 27be 4f59 9c3f
000002a0: 0b90 d33e 0a23 17be 9a85 053f dd2c 57bf
000002b0: 11a2 873e 072c 35bf d1dc 98be 16e1 a5bf
000002c0: f704 87bf 4193 60bf dfac 87bf 645a 95bf
000002d0: 9734 bcbe 6629 0cc0 a320 f6bd c0f2 d93e
000002e0: e79b 2cbe b8f1 8abd bd88 b8bf eab2 c7bf
000002f0: a017 49bf ea10 0b3f 3ebc 72bf a658 a83f
00000300: 2d7e 67bf 6978 c6bc c666 1bbe c363 bdbf
00000310: 8b59 95bf 0338 c93e 1847 76be 35e3 61bf
00000320: c742 80bd 966d 9cbf b450 1dbe d169 8abd
00000330: 6252 dfbc a09a 9dbf c88e 61bf 0aa8 283d
00000340: e1ce 0e3f 99e5 02be cb51 2dbf 2400 88bf
00000350: 8649 0ebe 9705 f2bd ad4d 91bc 2486 8fbf
00000360: cd73 66bf b00a a4bf ed84 1dbf ffdb 67bf
00000370: d809 86be 45f1 67bd 1f95 9bbd 4c41 43bf
00000380: 735e 35be 24ae 8abd 4f0b fd3e 5bc1 b2bd
00000390: c8b0 c0bc 728e 523f e036 c4be 89c6 76bf
000003a0: 59d4 72bf 2eaf 00bd b756 8cbe 183e fa3e
000003b0: 9464 7c3e 331c 1bbf 332e 92be 9969 3dbf
000003c0: 9d49 c0bf 2abb 113f 3ef7 dfbf 7caa 29be
000003d0: 1638 9ebf a3ea e43e 1a90 81be 5f7f 1f3d
000003e0: 692b aabf 6a0e f8bd 026d 9e3e 1678 923f
000003f0: 5979 02be bc1b 70be 7af5 4dbf 831a 253f

weight f4 [8, 256]
-0.4529664 -0.034120258 0.0009299369 0.044742245 -0.05300932 -0.018557841 -0.12188664 0.08288407
0.036943138 -0.07619618 0.03895855 0.34810004 -0.009423723 -0.036989707 0.046800833 0.08251796
-0.06674179 0.051915944 0.18060909 -0.039252512 0.013095721 0.015576824 0.19807284 -0.12689014
0.14615929 0.16139685 -0.14639658 -0.103270516 0.08769588 -0.031761665 -0.023188822 0.016678419
-0.021003447 0.046740763 -0.106839284 -0.020179639 -0.006214265 0.01503394 0.03493043 -0.008600231
-0.04544418 -0.33387166 -0.1979589 -0.09405635 0.03030172 0.38161293 -0.028618595 0.14891429
0.02801253 -0.016136326 -0.101007454 0.077904545 -0.027472762 0.05890259 -0.19280797 0.036766294
-0.006235418 0.00557512 0.04479217 -0.052179787 -0.21194835 -0.03957258 -0.1343696 -0.03275365
-0.03924979 -0.2220783 0.07124894 -0.00898236 -0.15470685 -0.012647609 0.026616896 0.06724846
0.0027565039 -0.031849753 -0.004803084 -0.12766576 0.0025331154 0.08378593 1.2033126e-05 -0.013571883
0.24890344 -0.20305508 -0.028163513 -0.074659646 0.35687694 -0.06645268 -0.04993393 0.093326695
-0.09453214 0.06381491 -0.08754297 -0.05459589 0.004367248 -0.106840596 0.21124168 -0.22389917
-0.002731964 -0.11935682 0.03194153 -0.07973884 0.17807722 0.022582902 0.104563065 0.11365279
0.25499275 0.15180881 0.16239831 -0.008942807 0.017392289 0.22320093 -0.02205305 0.014012516
-0.17641243 0.015942447 -0.12746873 -0.04982478 -0.0087119695 0.13089357 0.055757213 0.05392647
0.023689844 -0.12129133 -0.004548789 0.017544685 -0.00024144437 0.22186507 0.05341223 0.027766861
-0.03187508 0.0060327495 0.06745258 -0.016281893 0.008021983 0.085479654 0.018922128 -0.13124236
-0.20797008 0.32121032 -0.18336758 -0.02553747 0.108536616 -0.0064880215 0.1779067 0.00093345885
-0.0066723973 0.10446274 0.030295454 -0.08883103 0.03887678 0.4542651 0.17204008 -0.033502176
0.24014637 -0.036632452 0.06850108 0.048089117 -0.21929221 0.005218273 0.05384845 0.04862493
-0.00076335284 0.00061999034 0.011829694 -0.065002985 0.3217616 0.035759434 -0.23279391 -0.03544391
-0.06429743 -0.08469647 0.0024227104 0.14926031 -0.022355795 0.2598803 -0.13941206 0.022166966
-0.012017199 0.23160854 -0.19051139 -0.1692592 0.08439333 0.15615256 0.024140585 0.12753746
0.03917161 0.058435235 -0.036332067 -0.5151364 0.13039936 -0.026290061 0.23228179 0.0713739
0.24401872 -0.015315637 -0.16408299 -0.00048733698 0.11941934 -0.011451937 0.052899014 -0.40636936
0.004037314 -0.044211008 -0.034198944 -0.0045908373 -0.002157472 -0.08045194 0.015434126 -0.32387674
0.040395275 -0.1195877 0.00010159196 -0.1259338 0.061133925 -0.064973526 0.015401766 0.06277939
0.0065087914 0.07075492 -0.14179322 0.042169563 -0.09797187 0.05127444 -0.02158847 0.035579678
0.0038338 0.051346496 -0.17383999 -0.0024942195 0.07306271 0.044700965 -0.06672547 -0.13376623
0.10851508 -0.017983517 0.022660779 0.015021069 0.04091912 -0.09645367 -0.20444722 0.012633793
0.06228907 -0.031224728 -0.36050287 0.059630934 -0.2640221 -0.08833767 -0.27686188 0.01084915
0.05336012 0.16073373 -0.038652472 0.20585983 0.0885426 0.046153896 -0.08934076 -0.07363941
00000000: 36eb e7be afc1 0bbd 02c7 733a a543 373d
00000010: 4d20 59bd 9d06 98bc b49f f9bd 20bf a93d
00000020: b051 173d be0c 9cbd 0093 1f3d 2b3a b23e
00000030: f665 1abc 8582 17bd 3bb2 3f3d 2dff a83d
00000040: ebaf 88bd d0a5 543d 97f1 383e 3ec7 20bd
00000050: 6f8f 563c ef35 7f3c 9bd3 4a3e 7def 01be
00000060: c8aa 153e 3745 253e fce8 15be 7e7f d3bd
00000070: e699 b33d 8518 02bd 7cf6 bdbc 2ea1 883c
00000080: 6c0f acbc 3e73 3f3d 8ece dabd c54f a5bc
00000090: 08a1 cbbb ea50 763c 3613 0f3d fce7 0cbc
000000a0: ad23 3abd 3af1 aabe bdb5 4abe 9ea0 c0bd
000000b0: 503b f83c c562 c33e 8b71 eabc fd7c 183e
000000c0: 897a e53c 5430 84bc ffdc cebd 6b8c 9f3d
000000d0: 8f0e e1bc d843 713d 746f 45be 4198 163d
000000e0: 7a52 ccbb 7faf b63b ff77 373d 79ba 55bd
000000f0: fd08 59be dc16 22bd 2f98 09be b128 06bd
00000100: 63c4 20bd 7e68 63be f7ea 913d c02a 13bc
00000110: 796b 1ebe eb37 4fbc ad0b da3c 90b9 893d
00000120: 76a6 343b e374 02bd 3063 9dbb d0ba 02be
00000130: a002 263b f597 ab3d e2e1 4937 9a5c 5ebc
00000140: 8be0 7e3e aced 4fbe 2bb7 e6bc 28e7 98bd
00000150: 93b8 b63e 5818 88bd 8587 4cbd 1122 bf3d
00000160: 119a c1bd 64b1 823d bb49 b3bd f19f 5fbd
00000170: 221b 8f3b 3ecf dabd bd4f 583e d345 65be
00000180: c00a 33bb 5971 f4bd 1fd5 023d 1e4e a3bd
00000190: e059 363e c7ff b83c 2925 d63d cbc2 e83d
000001a0: 698e 823e c573 1b3e be4b 263e da84 12bc
000001b0: 467a 8e3c c98e 643e 99a8 b4bc c094 653c
000001c0: 76a5 34be bc99 823c 2a87 02be 1215 4cbd
000001d0: a6bc 0ebc f708 063e ad61 643d 01e2 5c3d
000001e0: 3411 c23c 9767 f8bd 020e 95bb dfb9 8f3c
000001f0: 3b2c 7db9 9930 633e c8c6 5a3d 5477 e33c
00000200: 728f 02bd 5fae c53b 9424 8a3d 9b61 85bc
00000210: a36e 033c f50f af3d 9402 9b3c 6664 06be
00000220: 1cf6 54be ae75 a43e b6c4 3bbe f533 d1bc
00000230: 7248 de3d 7899 d4bb 2d2d 363e 5db3 743a
00000240: 20a4 dabb 90f0 d53d 2c2e f83c 0bed b5bd
00000250: 423d 1f3d 6f95 e83e 462b 303e 9439 09bd
00000260: eee8 753e e90b 16bd 4b4a 8c3d 18f9 443d
00000270: 238e 60be 0cfe aa3b 3190 5c3d ef2a 473d
00000280: be1b 48ba d986 223a 55d1 413c 4920 85bd
00000290: f0bd a43e 7c78 123d 8761 6ebe a22d 11bd
000002a0: 5fae 83bd 5875 adbd 56c6 1e3b b2d7 183e
000002b0: 8023 b7bc 080f 853e 09c2 0ebe 7f97 b53c
000002c0: c9e3 44bc ca2a 6d3e 6b15 43be 4952 2dbe
000002d0: 69d6 ac3d 75e6 1f3e 7ac2 c53c 2e99 023e
000002e0: 6972 203d c959 6f3d efd0 14bd fbdf 03bf
000002f0: 6987 053e 415e d7bc 47db 6d3e 7b2c 923d
00000300: 0be0 793e 70ee 7abc 5f05 28be 4381 ffb9
00000310: 2092 f43d e8a0 3bbc a3ac 583d a50f d0be
00000320: 724b 843b 9a16 35bd 3114 0cbd bc6e 96bb
00000330: 6064 0dbb fdc3 a4bd 6bdf 7c3c 2cd3 a5be
00000340: 8475 253d 65ea f4bd c50d d538 caf4 00be
00000350: 9167 7a3d d710 85bd b057 7c3c 7b92 803d
00000360: b347 d53b f5e7 903d 3e32 11be feb9 2c3d
00000370: 7aa5 c8bd 2605 523d 4eda b0bc ffbb 113d
00000380: 7e40 7b3b b450 523d 1c03 32be 0f76 23bb
00000390: e7a1 953d 5c18 373d 5da7 88bd 04fa 08be
000003a0: 273d de3d 2b52 93bc 19a3 b93c ee1a 763c
000003b0: cf9a 273d 8089 c5bd 9d5a 51be f8fd 4e3c
000003c0: d322 7f3d 00cb ffbc d593 b8be 913f 743d
000003d0: e82d 87be 61ea b4bd d7c0 8dbe a2c0 313c
000003e0: 2490 5a3d 6297 243e 0e52 1ebd ebcc 523e
000003f0: d355 b53d de0b 3d3d 4af8 b6bd 42d0 96bd

bias f4 [8]
-0.054887325 -0.132349 0.12515296 -0.19893454 -0.065209374 -0.01606142 -0.050704166 0.04857169
00000000: 88d1 60bd 7f86 07be 1928 003e 7fb5 4bbe
00000010: 7e8c 85bd 3d93 83bc 2caf 4fbd 1cf3 463d

weight f4 [8, 256]
0.1942963 0.0015062543 0.015930107 -0.011534638 0.028239796 -0.031550694 0.11624931 -0.06917246
-0.044688594 -0.05493301 0.015658071 0.23877306 0.1460508 -0.07659057 0.16761275 -0.064700186
0.22972988 0.007316982 0.07442466 -0.16159777 0.007535794 -0.02112554 0.2802774 0.07053423
0.24332646 0.051518977 0.34285712 0.022649782 -0.006273957 0.022562092 -0.007902536 -0.05310339
0.020776426 0.0004010178 -0.019488176 0.07552601 0.00014487247 -0.009069783 0.029352637 0.027512955
0.051764853 0.4895375 0.1099374 0.31913722 0.013531655 0.047448047 0.023202542 0.0075685144
-0.013356567 -0.09687738 0.3646846 0.0012285142 -0.074673556 -0.025918005 0.37520763 0.032162216
0.004545533 0.37666932 0.1624196 0.10111776 0.041611694 -0.017802002 -0.017760409 0.07338943
0.09361368 0.2762641 0.11993785 0.070099 -0.0036606034 -0.055898294 -0.04104062 0.039157942
-0.025321249 0.021646908 0.019882038 0.3884082 0.02089253 -0.017049266 0.0066394927 -0.10981124
0.031924836 0.030252501 0.018914178 -0.014095988 0.48980293 -0.04136798 0.101808876 -0.05917051
0.010123915 0.04704722 0.17075731 -0.0039737066 0.00032811606 0.13424943 0.4897828 0.0865745
0.069719516 0.2683195 -0.025893295 0.06306348 0.022768471 0.041272894 0.15281847 0.4905505
0.007925386 0.017450096 -0.021308241 0.025004877 0.023112223 0.11594109 0.10020229 -0.0045072795
0.129174 0.007969368 0.16133247 0.023933457 0.037420057 0.10632164 0.025712581 -0.030849304
-0.005387578 0.06976711 0.0576897 0.14204502 0.3050883 0.19045325 0.506384 0.10157036
0.19724308 -0.02704115 0.0003869325 0.0914803 0.088537306 0.021016834 -0.08991515 -0.013455235
0.35302222 0.19891974 -0.056270827 0.3113757 -0.031671334 0.040177427 -0.04099312 0.107152626
0.016744444 0.12908714 -0.056179646 -0.06321456 0.049437657 0.3555103 0.04637696 0.040087964
0.29257286 -0.0057194643 0.34646845 -0.014880228 0.47760183 0.014494029 0.13571355 -0.010122635
0.045710556 0.10547213 0.0294168 0.19343561 0.0052517573 -0.024022972 0.091217704 -0.033801794
0.049421206 0.068936266 -0.085506156 0.29478496 -0.00096138474 0.07068927 0.107837394 0.40820107
-0.066986255 0.22955288 0.026396768 0.21123913 0.09773128 0.02110301 0.021039821 0.5280758
-0.06373404 0.03507331 0.06453659 0.4330616 0.14502478 -0.0028092838 0.092806816 -0.02190138
0.100985184 0.018776512 0.13440268 -0.0107002305 0.17289045 -0.044358604 0.008448138 0.345393
0.027776634 0.15889637 0.03786835 0.0759725 -0.033344116 0.13183814 0.070939675 0.11931138
0.012180677 0.08365645 -0.026798738 0.19058755 0.04215537 0.11133102 0.008391019 0.018252615
0.035511244 0.1446494 -0.017582674 -0.00093879155 0.06392837 0.024138507 0.014086958 0.3097208
-0.04280902 0.0381751 0.024292346 0.00276523 0.0040065236 -0.044847824 0.10053972 -0.074337415
0.20521954 -0.014251707 0.02086988 0.014989751 -0.018050117 0.036375593 0.30363244 0.15296674
-0.017336946 0.011058057 0.7366381 0.031435758 0.35447252 -0.0364797 0.22425425 0.02711079
0.025021136 0.19744407 -0.007045662 -0.18012123 0.09110711 0.019934962 -0.15811959 -0.015307505
00000000: 9cf5 463e 826d c53a db7f 823c c7fb 3cbc
00000010: 2557 e73c 4d3b 01bd 1e14 ee3d 4aaa 8dbd
00000020: 630b 37bd 7001 61bd 5b45 803c ed80 743e
00000030: 578e 153e 84db 9cbd ada2 2b3e 8881 84bd
00000040: 4f3e 6b3e 4bc3 ef3b f56b 983d e379 25be
00000050: d2ee f63b 780f adbc 8580 8f3e 4074 903d
00000060: 922a 793e 9005 533d f88a af3e 098c b93c
00000070: c495 cdbb 23d4 b83c a379 01bc f182 59bd
00000080: 5333 aa3c b33f d239 aba5 9fbc 61ad 9a3d
00000090: e8e8 1739 6d99 14bc f174 f03c d962 e13c
000000a0: 6207 543d a9a4 fa3e dc26 e13d f465 a33e
000000b0: e0b3 5d3c e258 423d 4213 be3c 4d01 f83b
000000c0: 81d5 5abc a667 c6bd f1b7 ba3e 1906 a13a
000000d0: 73ee 98bd ff51 d4bc 371b c03e 87bc 033d
000000e0: b2f2 943b cdda c03e 5351 263e d416 cf3d
000000f0: 0671 2a3d 81d5 91bc 477e 91bc 334d 963d
00000100: 87b8 bf3d 7d72 8d3e faa1 f53d 1190 8f3d
00000110: bce6 6fbb 9cf5 64bd 361a 28bd 1464 203d
00000120: 826e cfbc db54 b13c a8df a23c 71dd c63e
00000130: d026 ab3c e7aa 8bbc 1a90 d93b b7e4 e0bd
00000140: 9ec3 023d 18d4 f73c e8f1 9a3c dcf2 66bc
00000150: 73c7 fa3e 7971 29bd 2c81 d03d c75c 72bd
00000160: c7de 253c 96b4 403d 01db 2e3e de35 82bb
00000170: fe06 ac39 af78 093e d0c4 fa3e f94d b13d
00000180: 1bc9 8e3d 2c61 893e 2d1e d4bc 6d27 813d
00000190: f284 ba3c c40d 293d 727c 1c3e 6f29 fb3e
000001a0: 7ad9 013c 81f3 8e3c 9f8e aebc 07d7 cc3c
000001b0: d855 bd3c 8672 ed3d dc36 cd3d cdb1 93bb
000001c0: 3046 043e f491 023c 5734 253e 1910 c43c
000001d0: c645 193d 29bf d93d 31a3 d23c aeb7 fcbc
000001e0: 488a b0bb 0fe2 8e3d 094c 6c3d 4074 113e
000001f0: 8934 9c3e 2d06 433e 62a2 013f 1f04 d03d
00000200: 17fa 493e 6785 ddbc 33dd ca39 065a bb3d
00000210: 0c53 b53d 7f2b ac3c 6f25 b8bd 5973 5cbc
00000220: 54bf b43e 9eb1 4b3e 3d7c 66bd a36c 9f3e
00000230: cdb9 01bd 1691 243d 67e8 27bd d672 db3d
00000240: a52b 893c 6b2f 043e a11c 66bd a376 81bd
00000250: 247f 4a3d 7205 b63e c4f5 3d3d 4733 243d
00000260: 1ccc 953e 586a bbbb 5064 b13e 33cc 73bc
00000270: 3a88 f43e 5d78 6d3c 7ef8 0a3e 69d9 25bc
00000280: fe3a 3b3d c601 d83d 80fb f03c fc13 463e
00000290: ef16 ac3b d3cb c4bc 59d0 ba3d c073 0abd
000002a0: e46d 4a3d 752e 8d3d da1d afbd 0eee 963e
000002b0: 7005 7cba 89c5 903d dad9 dc3d bbff d03e
000002c0: 1730 89bd e90f 6b3e 093e d83c 124f 583e
000002d0: 5627 c83d 38e0 ac3c b45b ac3c fa2f 073f
000002e0: fe86 82bd 08a9 0f3d c22b 843d 40ba dd3e
000002f0: 6081 143e f61b 38bb 8011 be3d 866a b3bc
00000300: 52d1 ce3d 33d1 993c dba0 093e 0550 2fbc
00000310: 320a 313e 5eb1 35bd 0f6a 0a3c 5ad7 b03e
00000320: d38b e33c bbb5 223e d81b 1b3d 7897 9b3d
00000330: d793 08bd 9400 073e d248 913d 8659 f43d
00000340: 7691 473c 1354 ab3d 0789 dbbc 6229 433e
00000350: 1cab 2c3d 8501 e43d 7c7a 093c 8286 953c
00000360: 3d74 113d f91e 143e 8a09 90bc 3c19 76ba
00000370: e1ec 823d 1ebe c53c fccc 663c ba93 9e3e
00000380: 8358 2fbd 7e5d 1c3d be00 c73c dc38 353b
00000390: 2849 833b 5ab2 37bd c5e7 cd3d 373e 98bd
000003a0: 1225 523e fe7f 69bc 50f7 aa3c 9397 753c
000003b0: d7dd 93bc 93fe 143d b675 9b3e 50a3 1c3e
000003c0: 3606 8ebc da2c 353c 5194 3c3f c8c2 003d
000003d0: 6c7d b53e bd6b 15bd e8a2 653e 7317 de3c
000003e0: 20f9 cc3c c72e 4a3e 4cdf e6bb b371 38be
000003f0: 5d96 ba3d a54e a33c 1aea 21be 54cc 7abc

bias f4 [8]
-0.8334484 -0.9011501 -0.9724852 -1.0812107 -0.9031282 -0.9356098 -0.8887435 -1.0001328
00000000: e05c 55bf c6b1 66bf caf4 78bf 1d65 8abf
00000010: 6933 67bf 2084 6fbf b284 63bf 5a04 80bf

weight f4 [256, 35]
-0.51761514 1.0995662 0.5175912 1.2789456 -0.027738146 0.0433126 0.97030485 -0.20656258
1.1414973 -0.5378106 0.05337366 0.6761198 -0.8701104 0.40745258 0.16121887 -0.096994154
0.0736548 0.024499329 0.16375594 -0.12436066 0.08637725 0.16307965 0.30573067 0.09468127
-0.14218172 0.04356899 -0.17892736 -0.11912925 -0.30220807 -0.49236447 0.1871648 0.34219754
0.6140435 0.3682336 -0.43602934 0.38652527 -4.3808107 0.13097051 -0.6462026 -1.8975279
0.8128702 0.41039932 -0.21332057 -0.5881415 0.2564971 0.5324859 0.15337795 0.47248265
0.24992938 -0.011172432 0.24493869 -0.122564554 0.13701573 0.15546773 0.054961644 0.11725669
-0.10277428 0.18374874 0.12164351 0.05886702 0.08969592 0.019725814 0.09022373 -0.101920664
-0.18835138 0.09539391 -0.06765077 0.28489673 -0.06247275 0.05169183 -1.7541872 -1.6979147
-1.1488755 -0.79380107 0.93548495 -0.006006824 -1.1402432 -0.30822346 -0.078882545 -0.48886627
1.2820601 -0.14162493 -1.441954 0.6265306 -0.00824569 -1.5908271 -0.9359711 -0.099554546
0.807899 0.2361564 0.603951 0.30268037 0.36424533 -0.39696366 0.13113952 0.073840626
0.48134777 0.58441204 0.44354293 -0.08847802 -0.48994887 1.373566 -0.010617196 0.2709136
0.005219563 1.1721644 -0.35026926 -4.1829 5.576276 0.1319486 0.28849635 -0.6888334
-0.8888214 0.00095475954 -0.30758095 1.1831684 0.52443653 0.63122433 -0.19747436 -0.03959659
1.2514881 0.0955005 0.23808403 -0.36154976 0.0042617163 -0.08383769 0.08719707 0.24692014
-0.11836737 0.17346478 -0.096665785 -0.06986154 -0.1465835 -0.218125 -0.02219628 -0.24285337
0.18610828 0.33493185 0.019250445 0.07534902 0.9496781 0.19496551 -1.9695177 2.4728673
1.369635 0.35058677 -0.05709 0.0143852495 -0.2962385 2.4468303 0.687841 0.33550763
0.22896624 -0.3291366 -0.19715297 -0.116973 -0.16533212 0.03283529 0.2412667 0.061754894
-0.005427974 -0.024258114 -0.03263739 0.43993816 0.08505891 0.015820866 -0.014295998 -0.021958021
-0.07294939 -0.062458348 0.03708773 -0.029194698 -0.037918746 1.0184559 0.0478568 -0.6826225
-0.070888475 0.7923828 1.2886475 1.1471016 0.14712037 0.34122032 -0.112163536 -0.29626113
-0.10635153 0.43559548 0.019819127 1.6317276 -0.22422576 -0.1207074 -0.13048327 0.029985787
0.06573113 0.087128036 0.04047873 -0.06370185 0.050588656 -0.035928328 0.010903077 0.06367834
-0.039728723 0.46915382 -0.02630334 1.2264755 0.013637704 -0.10580343 0.0052177752 -0.09490909
-0.009787639 0.11709207 0.38807365 -1.2290218 1.085716 -0.1441287 3.0073316 0.27523068
0.21506065 2.373758 -0.9763156 -0.71963733 -0.12819287 0.32870483 0.18467285 -0.4705788
-0.10723267 -0.0691139 0.09126179 -0.14012694 0.31329465 0.045500267 -0.035770882 0.2624701
-0.041959383 -0.019728428 0.031112589 0.024025466 -0.023441523 -0.14492844 -0.10803005 -0.055607248
-0.048908066 0.41600436 0.028920203 -0.10670202 0.043028016 -0.5534013 -0.5822363 0.5903465
-1.4521788 -0.43284515 -3.1987293 -0.82249886 -0.30447155 0.05704642 -0.9809862 0.78161675
00000000: 6d82 04bf 96be 8c3f db80 043f 7db4 a33f
00000010: 1c3b e3bc 8e68 313d e665 783f 2485 53be
00000020: 951c 923f f5ad 09bf 579e 5a3d 3016 2d3f
00000030: 8ebf 5ebf a09d d03e 8f16 253e dfa4 c6bd
00000040: 54d8 963d d1b2 c83c a3af 273e cdb0 febd
00000050: 8ee6 b03d 5afe 263e bb88 9c3e 41e8 c13d
00000060: 1698 11be 6675 323d bc38 37be 09fa f3bd
00000070: 04bb 9abe 3217 fcbe 21a8 3f3e 8434 af3e
00000080: f431 1d3f 1d89 bc3e 3d3f dfbe a4e6 c53e
00000090: 9a2f 8cc0 221d 063e 896d 25bf 32e2 f2bf
000000a0: 4318 503f dc1f d23e b570 5abe 7190 16bf
000000b0: 9753 833e ff50 083f 1c0f 1d3e 3fe9 f13e
000000c0: 7ded 7f3e 940c 37bc 35d1 7a3e 2003 fbbd
000000d0: da4d 0c3e ef32 1f3e 761f 613d 4724 f03d
000000e0: 527b d2bd a128 3c3e 3c20 f93d 8b1e 713d
000000f0: 7fb2 b73d 0898 a13c 38c7 b83d c8bb d0bd
00000100: 2fdf 40be e25d c33d 7d8c 8abd fcdd 913e
00000110: 6de3 7fbd d0ba 533d 3589 e0bf 4555 d9bf
00000120: 5a0e 93bf 8c36 4bbf f17b 6f3f e4d4 c4bb
00000130: 7df3 91bf 77cf 9dbe 2c8d a1bd ae4c fabe
00000140: 8c1a a43f 2006 11be f391 b8bf 4f64 203f
00000150: ee18 07bc 39a0 cbbf cd9b 6fbf 41e3 cbbd
00000160: 78d2 4e3f fcd2 713e 889c 1a3f ecf8 9a3e
00000170: 5d7e ba3e d23e cbbe 7049 063e c139 973d
00000180: 3773 f63e 079c 153f 0f18 e33e f733 b5bd
00000190: 94da fabe 03d1 af3f bff3 2dbc 30b5 8a3e
000001a0: de08 ab3b 7c09 963f 7e56 b3be 51da 85c0
000001b0: da70 b240 891d 073e cbb5 933e 6357 30bf
000001c0: cd89 63bf d448 7a3a 407b 9dbe 1072 973f
000001d0: 7941 063f eb97 213f b836 4abe 0930 22bd
000001e0: c330 a03f c495 c33d 4dcc 733e 0d1d b9be
000001f0: dea5 8b3b 18b3 abbd 6194 b23d a2d8 7c3e
00000200: 976a f2bd c0a0 313e b6f8 c5bd 9113 8fbd
00000210: fc19 16be 295c 5fbe f9d4 b5bc 8eae 78be
00000220: 2b93 3e3e 307c ab3e 1cb3 9d3c 9650 9a3d
00000230: 1b1e 733f 0aa5 473e 2819 fcbf 7543 1e40
00000240: 3350 af3f 1c80 b33e 34d7 69bd 1cb0 6b3c
00000250: 93ac 97be de98 1c40 5916 303f a8c7 ab3e
00000260: 2076 6a3e 9884 a8be 78e2 49be 8a8f efbd
00000270: d34c 29be 4c7e 063d 9e0e 773e b3f2 7c3d
00000280: 25dd b1bb f4b8 c6bc c9ae 05bd 933f e13e
00000290: 5e33 ae3d c39a 813c c339 6abc 4fe1 b3bc
000002a0: 7d66 95bd 53d4 7fbd 4ee9 173d b829 efbc
000002b0: b050 1bbd c35c 823f 7e05 443d 59c0 2ebf
000002c0: fa2d 91bd 99d9 4a3f 67f2 a43f 3ad4 923f
000002d0: b9a6 163e 6eb4 ae3e ffb5 e5bd 8aaf 97be
000002e0: d5ce d9bd 5f06 df3e b95b a23c 73dc d03f
000002f0: 709b 65be 7135 f7bd 689d 05be c1a4 f53c
00000300: 0b9e 863d 2f70 b23d 06cd 253d 1e76 82bd
00000310: 0d36 4f3d 9529 13bd d2a2 323c ca69 823d
00000320: 96ba 22bd ee34 f03e 1a7a d7bc 26fd 9c3f
00000330: ad70 5f3c 78af d8bd dff9 aa3b b25f c2bd
00000340: 555c 20bc f8cd ef3d 97b1 c63e 9650 9dbf
00000350: bef8 8a3f 7996 13be 1f78 4040 09eb 8c3e
00000360: dc38 5c3e a7eb 1740 d2ef 79bf 273a 38bf
00000370: fe44 03be 004c a83e e11a 3d3e b4ef f0be
00000380: cd9c dbbd 978b 8dbd 76e7 ba3d 707d 0fbe
00000390: 2868 a03e 7d5e 3a3d 7d84 12bd 7b62 863e
000003a0: 9add 2bbd 839d a1bc d4df fe3c 0ed1 c43c
000003b0: 7008 c0bc 1f68 14be dc3e ddbd 6dc4 63bd
000003c0: d353 48bd 86fe d43e 10ea ec3c 9786 dabd
000003d0: 253e 303d b5ab 0dbf 700d 15bf f320 173f
000003e0: ffe0 b9bf e19d ddbe fbb7 4cc0 498f 52bf
000003f0: b2e3 9bbe 82a9 693d e921 7bbf 0918 483f

bias f4 [256]
0.76614755 1.9874264 -0.98037416 -1.5912063 -0.6567018 -1.2380661 -0.6481333 -0.8207785
-1.1399858 -1.2379721 -1.4944329 -1.5293304 -1.2390572 -2.1092393 -1.3444878 -1.1585315
-1.1238534 -0.57928616 -0.4592049 -1.3592831 0.035889015 -0.6834172 -1.0980208 0.43745816
-1.7928325 -1.7382951 -0.20896783 -0.49022302 -0.69569504 0.2421633 -0.65764457 -1.5807425
0.089040644 1.5856295 -2.8036475 -0.6428632 -0.06425453 -1.2432486 1.6190476 -0.16510123
-0.7519479 -0.62807834 2.2816155 -1.1495453 -1.1327224 -1.0632199 -1.7162249 0.061414156
0.2910043 0.10109819 -2.5143898 -1.7861904 -1.3151692 -1.2415483 1.3211704 0.09575916
1.246913 0.38192046 -2.0077064 -1.1923162 -0.5342195 -1.6532474 0.5406496 -1.5379221
-0.15998746 0.30017835 1.0520995 0.08829454 -1.4878556 -0.4634781 -1.4202807 0.7444993
-1.3852589 -0.9943384 -2.2534094 -0.009761975 -2.1035407 -2.1111994 -2.1277075 -1.6668137
-1.1914953 -0.51545155 -0.7049743 -0.1213174 1.0553309 -1.3910434 -0.78268945 -0.030907257
-1.3929201 -0.4526701 -0.7561013 -1.1985232 -1.5618166 -0.18012735 -1.8195586 0.9231178
0.50049686 -1.7653964 -1.1337237 1.8979641 2.2974663 -0.6292923 -1.7173576 -1.1780014
-1.2706015 -0.83083326 0.23784855 -2.0389485 1.7055931 -1.2575746 0.78743076 -1.3245641
-1.6111867 0.84373474 0.14945203 -1.8028569 -1.548198 -1.588757 -1.6025764 0.69053364
-0.83210087 -1.3480277 -1.3515818 2.3576403 -0.6650101 -0.21757965 0.799497 -0.5735952
-1.5051402 0.19400793 -1.3531159 -0.41001323 -1.9672679 -1.6297342 2.2400866 -1.5156657
-1.1837312 0.16493289 0.6279536 -0.48197952 -1.3643014 0.91515625 1.1967947 0.7404745
0.038919106 0.8929798 -0.3293936 -1.1810817 2.1033318 -2.2762249 0.5468371 -1.7881294
0.5346875 -1.6403278 0.9415796 -1.2113398 1.1490388 -0.15804271 1.0451376 -0.49148485
-1.6749371 -1.1902782 -0.3434939 -1.4062605 -1.4360396 1.5854034 -0.48148033 2.0392048
-1.0005087 -1.8004897 0.24854746 1.2339643 -1.6662515 -1.2175248 -0.9819294 -1.2634494
-1.6222988 -1.9339775 -0.35452256 -1.0570185 -1.5803956 2.1975882 -0.21126726 -0.0156117445
2.3283179 0.6135414 2.1085901 -0.95657027 -2.019431 0.53819174 0.106097616 -1.2707597
-1.4002616 -0.8517258 -1.3909508 -1.4287415 0.91234434 -1.1190085 -1.5144076 -0.54727614
1.6976727 1.697602 -2.6711714 -1.2314582 -1.4360589 -0.71759385 0.2096833 -0.49967995
-1.8060405 0.43515036 -2.4962351 -2.6679728 -1.825914 -1.5370595 -0.9019603 1.7514384
1.2922746 -1.4569978 -0.5325857 -0.18141367 0.66956127 1.9048859 -1.2764096 -1.6926864
-0.5137871 -1.1672193 -1.689088 -1.279507 -1.2689809 -1.0436575 -0.6184018 1.417824
-1.2502798 -1.0697937 0.24211083 0.26987958 -2.7388506 -0.55938214 1.2281675 -1.6786518
-1.8522313 0.026122814 2.201184 -1.5676241 -0.7077532 0.5309227 -1.793667 -1.6794629
-0.19873065 -1.2819324 -1.8017809 -0.51675373 -0.93961394 0.5737473 -1.258422 0.6184172
00000000: 3f22 443f fd63 fe3f cdf9 7abf a6ac cbbf
00000010: 9c1d 28bf f378 9ebf 10ec 25bf 8a1e 52bf
00000020: 0eeb 91bf df75 9ebf 9449 bfbf 19c1 c3bf
00000030: 6d99 9ebf c7fd 06c0 2d18 acbf c34a 94bf
00000040: 6eda 8fbf 194c 14bf e81c ebbe fdfc adbf
00000050: 5c00 133d 6ef4 2ebf f28b 8cbf 84fa df3e
00000060: 897b e5bf 7480 debf aafb 55be 83fe fabe
00000070: 1219 32bf a8f9 773e 655b 28bf c555 cabf
00000080: f15a b63d e8f5 ca3f f66e 33c0 af92 24bf
00000090: e197 83bd c522 9fbf f43c cf3f 4c10 29be
000000a0: a87f 40bf bec9 20bf fd05 1240 4d24 93bf
000000b0: 0cfd 90bf 9717 88bf 42ad dbbf 698d 7b3d
000000c0: 84fe 943e 910c cf3d c3eb 20c0 e3a1 e4bf
000000d0: 7757 a8bf 0eeb 9ebf 1d1c a93f 611d c43d
000000e0: d89a 9f3f 148b c33e 437e 00c0 d19d 98bf
000000f0: 9cc2 08bf 9c9d d3bf 0368 0a3f a2da c4bf
00000100: c1d3 23be fab0 993e 32ab 863f c5d3 b43d
00000110: 0d72 bebf 004d edbe c2cb b5bf 8297 3e3f
00000120: 2a50 b1bf f68c 7ebf dc37 10c0 b1f0 1fbc
00000130: 69a0 06c0 e41d 07c0 5c2c 08c0 275a d5bf
00000140: eb82 98bf a2f4 03bf 3279 34bf 4275 f8bd
00000150: 1515 873f b60d b2bf 565e 48bf 3731 fdbc
00000160: 354b b2bf 60c4 e7be db8f 41bf 3569 99bf
00000170: 9be9 c7bf 4e73 38be 4ce7 e8bf 7351 6c3f
00000180: 9020 003f 82f8 e1bf dc1d 91bf 7df0 f23f
00000190: b009 1340 4d19 21bf 60d2 dbbf c0c8 96bf
000001a0: 12a3 a2bf 7db1 54bf 928e 733e 227e 02c0
000001b0: e050 da3f 34f8 a0bf 1095 493f 518b a9bf
000001c0: 5e3b cebf 00ff 573f f409 193e 04c4 e6bf
000001d0: 5a2b c6bf 645c cbbf 3921 cdbf d0c6 303f
000001e0: 9004 55bf 2c8c acbf a200 adbf 94e3 1640
000001f0: 1a3e 2abf 33cd 5ebe d6ab 4c3f 23d7 12bf
00000200: 6fa8 c0bf 04aa 463e e732 adbf 41ed d1be
00000210: 6fcf fbbf 219b d0bf 945d 0f40 5501 c2bf
00000220: 8184 97bf 2be4 283e 91c1 203f 05c6 f6be
00000230: 6ea1 aebf ae47 6a3f 9230 993f bd8f 3d3f
00000240: a469 1f3d 539a 643f 47a6 a8be af2d 97bf
00000250: fd9c 0640 abad 11c0 84fd 0b3f 6de1 e4bf
00000260: 48e1 083f 43f6 d1bf 5c0b 713f 2f0d 9bbf
00000270: b413 933f f3d5 21be 12c7 853f e7a3 fbbe
00000280: 5764 d6bf 095b 98bf 6fde afbe 5800 b4bf
00000290: 25d0 b7bf 80ee ca3f 9784 f6be 5582 0240
000002a0: ab10 80bf 7276 e6bf 3a83 7e3e 8bf2 9d3f
000002b0: bb47 d5bf dad7 9bbf ba5f 7bbf b6b8 a1bf
000002c0: 7da7 cfbf 938c f7bf fb83 b5be 624c 87bf
000002d0: 674a cabf 49a5 0c40 7256 58be 67c8 7fbc
000002e0: 2903 1540 0d11 1d3f 24f3 0640 cae1 74bf
000002f0: 5c3e 01c0 efc6 093f b549 d93d 41a8 a2bf
00000300: c63b b3bf b40a 5abf ad0a b2bf 00e1 b6bf
00000310: 668f 693f ac3b 8fbf 1cd8 c1bf 4a1a 0cbf
00000320: 574d d93f 064b d93f 79f4 2ac0 6ca0 9dbf
00000330: c7d0 b7bf 3bb4 37bf 38b7 563e 0dd6 ffbe
00000340: 562c e7bf 07cc de3e 51c2 1fc0 11c0 2ac0
00000350: 8db7 e9bf 5ebe c4bf dfe6 66bf 222f e03f
00000360: 4169 a53f e77e babf 8957 08bf 81c4 39be
00000370: 5e68 2b3f 4dd3 f33f 6461 a3bf f3a9 d8bf
00000380: 8d87 03bf 7167 95bf 0934 d8bf e3c6 a3bf
00000390: f76d a2bf 9296 85bf 954f 1ebf 427b b53f
000003a0: 2b09 a0bf 00ef 88bf e7eb 773e a82d 8a3e
000003b0: 5449 2fc0 ab33 0fbf 9834 9d3f 10de d6bf
000003c0: ea15 edbf 83ff d53c 33e0 0c40 e8a7 c8bf
000003d0: 502f 35bf 8dea 073f e196 e5bf a4f8 d6bf
000003e0: 0c80 4bbe 5c16 a4bf c2a0 e6bf f949 04bf
000003f0: 8a8a 70bf 1ae1 123f f913 a1bf 9750 1e3f
