primitives/ant_low_torque/left.pt (torch, 920169 bytes, 18 tensors)

weight f4 [256, 27]
0	0xbd9014c1	-0.070352085
1	0xbf1f38ff	-0.62196344
2	0xc013417f	-2.3008726
3	0x3f9a635d	1.2061573
4	0xbda73a79	-0.0816545
5	0xbfb7a411	-1.4346944
6	0x3e44bff9	0.19213857
7	0xbe9faf72	-0.31188542
8	0xbe01a0a5	-0.12658937
9	0x3e28b4e7	0.16475259
10	0x3ef4cdeb	0.47813353
11	0x401abe58	2.4178677
12	0x3e22984c	0.15878409
13	0x3d842f8a	0.0645438
14	0x3ad4e84a	0.0016243544
15	0x3d198f30	0.03749007
16	0xbc977adb	-0.0184912
17	0xbd5db6b1	-0.054129306
18	0xbce151ae	-0.027504768
19	0x3c443d8e	0.011977566
20	0x3ce6228a	0.028092641
21	0x3d138e74	0.036024526
22	0xbd2805a1	-0.041020993
23	0x3cc1d18c	0.02365949
24	0x3c2bf00f	0.010494246
25	0x3f16f4fa	0.58967555
26	0x3cc15500	0.023600101
27	0x3b45fb30	0.0030209534
28	0xbf168c80	-0.58808136
29	0xbe0ef433	-0.13960342
30	0xbf4ef080	-0.80835724
31	0x3f1672cc	0.58768916
32	0xc021c420	-2.5275955
33	0xbe056dc0	-0.13030148
34	0xc002f1fc	-2.0460196
35	0x3f1e4bac	0.61834216
36	0x3dc097fe	0.0940399
37	0x3e0bd229	0.13654388
38	0x3f263ec1	0.64939505
39	0xbe72ad54	-0.23698932
40	0x3b8ebef0	0.0043562576
41	0xbd83be6b	-0.06432804
42	0x3e838488	0.2568705
43	0xbc578833	-0.013155031
44	0xbdd9d128	-0.106355965
45	0xbba07b3e	-0.004897504
46	0xbd87481a	-0.06605549
47	0xbddd9c50	-0.1082083
48	0xbe7887c9	-0.24270548
49	0x3d8d3c76	0.06896298
50	0xbc2b984b	-0.010473321
51	0x3daea1da	0.085269645
52	0xbd16c2c8	-0.03680685
53	0x3ca9497c	0.020664923
54	0xbf7d5aba	-0.9896656
55	0xbf0dac9e	-0.5534152
56	0xc0254ed8	-2.5829372
57	0xbeb5ac30	-0.3548293
58	0x3e58a537	0.21156774
59	0x3d324efe	0.043532364
60	0xbfa6f766	-1.304425
61	0x3f013067	0.5046448
62	0x3f5523e3	0.83257884
63	0xbdfe320f	-0.12411892
64	0x3ef0aa53	0.47004947
65	0x3e299cfe	0.16563794
66	0xbf529f4a	-0.82274306
67	0xbf26ac03	-0.6510622
68	0xbf9c2c97	-1.2201108
69	0x3dd875a4	0.10569313
70	0xbe839e60	-0.25706768
71	0xbdbd2eaf	-0.0923742
72	0xbea956c6	-0.33074015
73	0x3da720b3	0.08160534
74	0xbe34ea00	-0.17667389
75	0xbcc63faa	-0.02420028
76	0xbd84df77	-0.06487935
77	0x3e2fb13f	0.17157458
78	0xbe2995bf	-0.1656103
79	0xbdb68792	-0.08912577
80	0xbde6fd03	-0.11278727
81	0xbf2af99f	-0.6678714
82	0x3ef067a9	0.46954086
83	0xc00bb6d3	-2.1830337
84	0x3de2864a	0.1106077
85	0xbf21b828	-0.63171625
86	0xbe607ec5	-0.21923359
87	0xbf12bd88	-0.5732045
88	0x3f1b1af7	0.6058802
89	0xbe70e242	-0.2352381
90	0x3e0c8ea0	0.13726282
91	0xbf1110b2	-0.566661
92	0xbf56d9a0	-0.8392582
93	0xbefd3652	-0.49455506
94	0xbd8367cd	-0.06416283
95	0xbf385b07	-0.72013897
96	0x3d6d54f1	0.057942335
97	0x3e6aca48	0.22928727
98	0x3da444bc	0.080209225
99	0xbe949b70	-0.2902484
100	0xbd39a931	-0.04532737
101	0x3ea30fda	0.3184803
102	0xbd28832f	-0.04114073
103	0xba552fd0	-0.000813243
104	0xbdf17aac	-0.11790976
105	0xbc1ded96	-0.009639164
106	0x3dd3c397	0.1034004
107	0x3d512f0b	0.051070254
108	0xbf7363ab	-0.95073956
109	0xc0005fdf	-2.0058515
110	0x3f1afa24	0.60537934
111	0xbedb0075	-0.42773786
112	0xbfa33be8	-1.2752657
113	0xbc143e02	-0.009047987
114	0xbec3cc10	-0.38241625
115	0x3f94f4bd	1.1637188
116	0x3f806b8b	1.003282
117	0xbf28244b	-0.6568038
118	0x3f8ddef2	1.1083663
119	0x3ee84079	0.4536169
120	0xbf822288	-1.0166788
121	0x3f529bb9	0.82268864
122	0xbf6aad79	-0.9167095
123	0x3f13c637	0.57724327
124	0x3f1390a8	0.576426
125	0xbea1a316	-0.31569737
126	0xbf0c3569	-0.54769
127	0x3d8a0aa3	0.0674031
128	0xbdfc8e75	-0.12331859
129	0xbe405d73	-0.18785648
130	0xbcf44572	-0.02981827
131	0xbe8061bc	-0.25074565
132	0xbe2d116e	-0.1690118
133	0x3cdb35a7	0.026758982
134	0xbf21fea6	-0.6327919
135	0xbf865466	-1.0494506
136	0xbf012dbe	-0.5046042
137	0xbf952d40	-1.1654434
138	0x3e18c56f	0.14919065
139	0xbe630999	-0.2217163
140	0x3f12f4d9	0.5740486
141	0xbf7b88cd	-0.98255616
142	0x3ed96397	0.42458794
143	0x3f6f32d9	0.9343696
144	0xbe941a95	-0.2892653
145	0x3f4cdd4f	0.8002519
146	0x3eb00650	0.34379816
147	0xbf4ab862	-0.79187596
148	0xbf349a14	-0.70547605
149	0xbf4a1e45	-0.7895244
150	0x3ea4812b	0.32129797
151	0xbe8176c9	-0.25285938
152	0xbeae4a98	-0.34041286
153	0xbe11a2bf	-0.14222239
154	0xba5bd00c	-0.00083851884
155	0xbeb23929	-0.34809235
156	0x3e3fc11c	0.18726009
157	0xbe4bb6ec	-0.19893998
158	0x3d003f69	0.031310473
159	0xbe7970a6	-0.24359378
160	0xbcee38a4	-0.029079743
161	0xbdc37366	-0.09543495
162	0xbf6f039f	-0.933649
163	0xbf68b129	-0.90895325
164	0xbf9d2dfd	-1.227966
165	0x3e4bfa88	0.19919789
166	0x3f0630f2	0.52418435
167	0x3de2cd14	0.11074272
168	0xbf7099c8	-0.9398465
169	0xbf47708a	-0.77906096
170	0x3efbe6ae	0.49199432
171	0xbe01c0d4	-0.12671214
172	0x3f91c1f8	1.138732
173	0xbf16e2c2	-0.58939755
174	0xbf536b63	-0.82585734
175	0xbb50214a	-0.0031758123
176	0xbf604386	-0.8760303
177	0x3e5bdde8	0.2147137
178	0x3dffaa74	0.12483683
179	0xbe8a85af	-0.27055117
180	0xbf1041b5	-0.5635026
181	0xbe8e40a3	-0.2778369
182	0x3cf4fdfb	0.029906264
183	0x3d087342	0.033313043
184	0x3db984b5	0.09058515
185	0x3e120750	0.14260602
186	0xbd6e30d5	-0.05815204
187	0xbe6eb60b	-0.23311631
188	0x3ab79acf	0.0014007929
189	0xbf2d0325	-0.67582923
190	0x3fcae218	1.5850248
191	0x400ad3b4	2.1691713
192	0x3faf400c	1.369142
193	0xbfc97bef	-1.5740947
194	0x3f2a31da	0.6648232
195	0xbf1b6ebb	-0.60715836
196	0x3e105127	0.14093457
197	0x3f1e9963	0.619528
198	0xbf560c2a	-0.8361231
199	0xbd60c35b	-0.054873805
200	0x3f47ae70	0.78000546
201	0xbfa12d38	-1.2591925
202	0xbd9a7cb0	-0.075433135
203	0xbf500b0f	-0.81266874
204	0x3ec126a4	0.37724793
205	0x3c9659a3	0.018353289
206	0x3daa4959	0.08314771
207	0x3d81ede4	0.06344202
208	0xbe177981	-0.14792444
209	0xbe8fcd34	-0.28086245
210	0xbcced861	-0.025249662
211	0x3d9bc293	0.076054715
212	0x3d9b3efe	0.07580374
213	0x3e125624	0.14290673
214	0x3d2da3e9	0.042392645
215	0xbe0a38a1	-0.13498165
216	0x40061187	2.0948198
217	0xbfa19912	-1.2624838
218	0x3ede135a	0.4337414
219	0x40ad76d0	5.4207535
220	0x3f4943b0	0.7861891
221	0x3f003dd8	0.50094366
222	0x3f399ffd	0.7250975
223	0xbdac16e4	-0.084028035
224	0x3ece9d1f	0.4035425
225	0xbefc2eae	-0.49254364
226	0x3ebbcb38	0.3667848
227	0x3f0c2487	0.54743236
228	0x3ea6049d	0.32425395
229	0x3f0e251c	0.55525374
230	0x3e0663bf	0.13123988
231	0x3fb2d47f	1.3971099
232	0xbdc1f3ac	-0.09470305
233	0x3f2bd7d7	0.6712622
234	0xbc47c6f3	-0.012193429
235	0x3d9091e9	0.0705908
236	0xbd7482a5	-0.059694905
237	0xbd182e3c	-0.037153468
238	0x3d891147	0.066927485
239	0xbcb4c119	-0.022064732
240	0x3dc97cfb	0.09838291
241	0xbc0d760f	-0.008634104
242	0x3d328792	0.04358632
243	0xc02988a0	-2.648964
244	0x3f452e20	0.77023506
245	0xbf2506e6	-0.6446365
246	0xc03b02c9	-2.922045
247	0xbfcc4e95	-1.5961481
248	0x3f2ed302	0.6829072
249	0x3f9b041b	1.2110628
250	0xbf1215e9	-0.5706468
251	0xbd2bab2c	-0.04191129
252	0x3e5f3f39	0.21801461
253	0xbf091168	-0.53542185
254	0x3e0acf62	0.13555673
255	0xbf4e2452	-0.8052417

bias f4 [256]
0	0xc0002c0f	-2.0026891
1	0xbfc7aa81	-1.5598909
2	0xbfb90abc	-1.4456401
3	0xbee9dbb6	-0.4567544
4	0xbfc22dc2	-1.5170214
5	0xbf9ce735	-1.2258059
6	0xbf5de2e2	-0.8667432
7	0x3ec90f3f	0.39269444
8	0xc0398084	-2.898469
9	0xbf2de5bb	-0.67928666
10	0xbf964be5	-1.1741911
11	0xbf96b5fb	-1.1774286
12	0xbec6c22f	-0.38820025
13	0xbfaeb21d	-1.3648106
14	0xc011637f	-2.2716978
15	0xbd6c2762	-0.057654746
16	0xbfac85f8	-1.3478384
17	0xbff0c9e4	-1.8811612
18	0xbe5c524d	-0.2151577
19	0xbfd9afd0	-1.7006779
20	0xbe1ebf94	-0.15502769
21	0xbf8f8f4c	-1.1215606
22	0xbf7cb86d	-0.9871891
23	0xbfe897a1	-1.8171273
24	0xbff5ea19	-1.9212066
25	0x3f0d2e62	0.551489
26	0xbf84139b	-1.0318483
27	0xbf7d45d8	-0.989347
28	0xbfbbf048	-1.4682703
29	0xbf9b86bd	-1.2150494
30	0xbfb556f3	-1.416716
31	0xc0099968	-2.1499882
32	0x3dc0e93b	0.09419485
33	0xbfa328da	-1.2746842
34	0xbf025f66	-0.50926816
35	0xbf9c44a0	-1.2208443
36	0xbf8a76f0	-1.0817547
37	0x3dff12eb	0.1245478
38	0xbf85ffc8	-1.0468683
39	0xbfa61b61	-1.2977105
40	0xc0028a26	-2.039682
41	0x3f1f4d67	0.6222748
42	0xbfb08bfb	-1.3792719
43	0xbf900983	-1.1252903
44	0xbf97d8f8	-1.1863089
45	0xbeee22e2	-0.46510988
46	0xbf941c22	-1.1571085
47	0x3f1a59c0	0.602932
48	0xbfa79fb0	-1.3095608
49	0xbf706574	-0.93904805
50	0xbf29a2b7	-0.6626391
51	0xbf0ad902	-0.5423738
52	0xbf843247	-1.0327843
53	0xbf6163e1	-0.8804303
54	0xbfbff0f3	-1.4995407
55	0xbf867b60	-1.0506401
56	0xbfa6c6b8	-1.3029394
57	0x3e8b6d63	0.27231893
58	0xbeabb0ca	-0.33533317
59	0xbfae2efa	-1.3608086
60	0xbf9a9775	-1.2077471
61	0xbfcbeea6	-1.5932205
62	0xbfd7da29	-1.6863452
63	0xbfd4f5ae	-1.6637475
64	0xbfae83fd	-1.363403
65	0xbf8274f8	-1.0191946
66	0x3e93b8b1	0.28851846
67	0xbf96276f	-1.1730784
68	0xbf31173a	-0.69176066
69	0xbfa89fd6	-1.3173778
70	0xbf8b7ec4	-1.0898061
71	0xbf885df6	-1.0653675
72	0xbf176c32	-0.5914947
73	0xbfb4385b	-1.4079698
74	0xbd9cecd8	-0.07662362
75	0x3e09673d	0.13418289
76	0xbf4d1757	-0.8011374
77	0x3d9dee72	0.077114955
78	0xbfe97278	-1.8238058
79	0xbf4acde1	-0.79220396
80	0xbf947a24	-1.1599774
81	0xbfb5e070	-1.4209118
82	0xbfcdcd62	-1.6078303
83	0xbf896569	-1.0734073
84	0x3f705d24	0.9389212
85	0xbfad2b43	-1.3528827
86	0xbf993781	-1.1970063
87	0xbfa5f120	-1.296421
88	0xbf9239ce	-1.142389
89	0xc0036762	-2.053185
90	0xbfa42e7e	-1.2826688
91	0xbfa01b66	-1.2508361
92	0xbfb12fd1	-1.3842717
93	0xbf989f58	-1.1923628
94	0xbfd82b13	-1.6888145
95	0xbfcf0a23	-1.6174968
96	0xbfba2a6d	-1.4544197
97	0xbf806512	-1.0030844
98	0xbfb7e5c0	-1.4366989
99	0xbef3ae20	-0.47593784
100	0xbf99a549	-1.2003566
101	0xbf5a319b	-0.8523194
102	0xbfb76b01	-1.432953
103	0xbfc33087	-1.5249184
104	0xbfc20f62	-1.5160944
105	0xbfb8b24a	-1.442941
106	0xbf5e8c22	-0.86932576
107	0xbfa89b2f	-1.3172358
108	0xbf891dab	-1.0712179
109	0xbf807914	-1.003695
110	0xbf5a7a81	-0.85343176
111	0xbf8da22c	-1.1065116
112	0xbfe2e9f8	-1.7727652
113	0xbf222e19	-0.6335159
114	0xbf76cf14	-0.96409726
115	0xbf846d45	-1.0345846
116	0xbf43c5c8	-0.76473665
117	0xbf89837c	-1.0743251
118	0xbf9f771f	-1.2458228
119	0xbfc34d58	-1.5257978
120	0xbf697f41	-0.912098
121	0x3eb3df25	0.35131183
122	0xbf1c7a8f	-0.6112451
123	0xbf94eede	-1.1635396
124	0xbf1bce87	-0.6086201
125	0xbf892437	-1.0714177
126	0xbe8accda	-0.27109414
127	0xbfa03e80	-1.2519073
128	0xbf34e8a4	-0.7066748
129	0xbf137596	-0.57601297
130	0x3e92cff1	0.28674272
131	0xbf3504e5	-0.70710593
132	0x3f6faa09	0.9361883
133	0xbfce1dc1	-1.610283
134	0x3f251c8e	0.64496696
135	0xbfb5fdfb	-1.4218134
136	0xbf98a434	-1.1925111
137	0xbfa86019	-1.3154327
138	0xbf563e3d	-0.8368872
139	0xbf8b0b51	-1.0862828
140	0xbde94f12	-0.113920346
141	0xbff181b9	-1.8867713
142	0xbf83809a	-1.0273621
143	0xbfe220c6	-1.7666252
144	0xbfd379ae	-1.6521509
145	0xbf934a0a	-1.150697
146	0xbef0ff2d	-0.47069684
147	0xbfd06d56	-1.6283367
148	0xbea4bacd	-0.32173768
149	0xbfadef12	-1.3588583
150	0xbfa56cfe	-1.2923887
151	0xbf8f5e5c	-1.1200671
152	0xbfae4443	-1.3614582
153	0xbfb03a92	-1.3767874
154	0xbf8d3f77	-1.1034993
155	0xbfa9c550	-1.326334
156	0xbf4e0271	-0.80472475
157	0x3f0d5b9e	0.5521792
158	0xbf2f6cfe	-0.68525684
159	0xbec1abff	-0.37826535
160	0xbfb888eb	-1.4416784
161	0xbfb5100e	-1.4145525
162	0xbf8b1668	-1.0866213
163	0xbff45221	-1.9087564
164	0xbfcce73f	-1.6008071
165	0xbf1baf77	-0.60814613
166	0xbec47ecd	-0.3837799
167	0xbfd9c29a	-1.7012513
168	0xbfba384c	-1.454843
169	0xbf9b1be7	-1.211789
170	0xbfa3e6b3	-1.2804779
171	0xbfe6b1ce	-1.8023012
172	0xbf594463	-0.84869975
173	0xbf6df324	-0.9294913
174	0xbf9cf997	-1.2263669
175	0xbf833917	-1.0251797
176	0xbf9bde18	-1.2177153
177	0x3e87304f	0.26404044
178	0xbfc5d8af	-1.5456752
179	0xbf0f00a2	-0.5586034
180	0xbf5a10ae	-0.851817
181	0xbfa9e3b9	-1.327262
182	0xbf4d0b76	-0.80095613
183	0xbf8d5376	-1.1041095
184	0x3e19a2db	0.1500353
185	0xbfe35489	-1.7760173
186	0xbe39c021	-0.18139698
187	0xbfac5369	-1.3462955
188	0xbede35f6	-0.43400544
189	0xbfa7f547	-1.3121728
190	0x3ebc959a	0.36832887
191	0x3f4ce4a7	0.80036396
192	0xbf90c8a3	-1.131123
193	0xbf7ccf94	-0.9875424
194	0xbf79a0cf	-0.97511
195	0xbf039d7c	-0.5141218
196	0xbf9010fa	-1.1255181
197	0xbfc79a8f	-1.5594043
198	0xbfa6d7e2	-1.3034632
199	0xbf93723d	-1.1519238
200	0xbf82e732	-1.0226805
201	0xbfa4e051	-1.2880956
202	0xbe541c63	-0.20713954
203	0xbfa6f59f	-1.3043708
204	0xbf53b7b8	-0.8270221
205	0xbfbe59ad	-1.4871117
206	0xbf82a161	-1.0205499
207	0xbfa4630e	-1.2842729
208	0xbf5d5820	-0.86462593
209	0xbfa2523c	-1.2681346
210	0xbfc815b6	-1.5631626
211	0xbf01b260	-0.50662804
212	0xbf04997a	-0.51796687
213	0xbf8aba7e	-1.0838163
214	0xbee3ee4c	-0.44517744
215	0xbf3cfb0b	-0.7382056
216	0xbec9adf0	-0.39390516
217	0xbfd16496	-1.6358821
218	0x3ee2acab	0.4427236
219	0xbfa30529	-1.273595
220	0xbf9f688d	-1.2453781
221	0xbfa96f62	-1.3237116
222	0xbf89a582	-1.0753634
223	0xbfc3467d	-1.5255886
224	0xc01a724d	-2.4132264
225	0xbfcdfa5a	-1.6092026
226	0xbf40a3a6	-0.7524971
227	0xbf35c5f1	-0.7100516
228	0x3e926152	0.28589875
229	0xbfce0dc8	-1.6097956
230	0xbee4fe19	-0.4472511
231	0xbf8696d5	-1.051478
232	0xbf926b88	-1.1439066
233	0xbf958d2a	-1.1683705
234	0xbf7f2a44	-0.9967387
235	0xbf8c2f77	-1.0951985
236	0xbea63755	-0.3246409
237	0xbeb9bd20	-0.36277103
238	0xbf20d714	-0.62828183
239	0xbf48ec13	-0.7848522
240	0xbfa1df63	-1.2646297
241	0xc0020338	-2.0314465
242	0xbf98acaf	-1.1927699
243	0xbf8b99c0	-1.0906296
244	0xbf196741	-0.5992318
245	0xbfd45265	-1.6587645
246	0xbf33f987	-0.70302624
247	0xbf8f5e2b	-1.1200613
248	0xbfb70f86	-1.4301612
249	0xbe7bc219	-0.24585761
250	0xbfc55621	-1.541691
251	0x3daa8ce3	0.08327653
252	0xbf490693	-0.78525656
253	0xbf7f466d	-0.99716836
254	0xbf58562b	-0.8450648
255	0xc00ec62e	-2.230846

weight f4 [256, 256]
0	0x3ee46f2a	0.4461606
1	0xbe01573c	-0.12630934
2	0x3e399393	0.18122701
3	0xbe59c1b9	-0.21265306
4	0xbe695aab	-0.22788493
5	0xbeb89fed	-0.36059514
6	0xbd66db0e	-0.05636125
7	0xbf4c4ab5	-0.79801494
8	0xbe803482	-0.2504006
9	0x3e8188bd	0.25299636
10	0xbe4d942f	-0.20076059
11	0xbf00def8	-0.50340223
12	0xbf4a8e38	-0.7912326
13	0xbd29f563	-0.041493785
14	0x3e7126ea	0.23550001
15	0xbe388952	-0.18021134
16	0xbe46625a	-0.19373456
17	0xbf177631	-0.5916472
18	0xbd8cfff6	-0.06884758
19	0xbe33a07f	-0.17541693
20	0xbec13f4b	-0.377436
21	0x3e73f858	0.23825204
22	0xbe169be2	-0.14707902
23	0xbf3f6d48	-0.74776125
24	0x3e35a300	0.17737961
25	0x3dcac2ba	0.099004224
26	0xbdc7a69b	-0.09748574
27	0x3d98731f	0.074438326
28	0xbdabb53c	-0.08384177
29	0x3e9d85f9	0.30766276
30	0xbcdf9ba9	-0.027295904
31	0xbf0748a9	-0.52845246
32	0x3dfe6f7e	0.12423609
33	0x3c0e7872	0.008695709
34	0xbf07b1f4	-0.5300591
35	0x3ea47238	0.32118392
36	0xbded6dc6	-0.11593203
37	0x3e966e94	0.2938124
38	0xbd73dea2	-0.05953849
39	0xbd6529ca	-0.055948056
40	0xbee84d9f	-0.4537172
41	0x3c9dade2	0.019247953
42	0xbe2fd616	-0.17171511
43	0xbf12c12c	-0.57326007
44	0x3ce7f006	0.028312694
45	0xbeaee2f5	-0.3415753
46	0xbdee3d45	-0.1163278
47	0xbeb464ec	-0.35233247
48	0xbf28ebcb	-0.6598479
49	0xbd48ff20	-0.04907143
50	0xbde1b039	-0.1101994
51	0xbe3cd1b9	-0.18439378
52	0x3e6be8fa	0.23038092
53	0xbea8e856	-0.32989758
54	0xbe8e03a6	-0.2773716
55	0xbf1e0a77	-0.6173472
56	0xbf0b1825	-0.54333717
57	0xbec6b048	-0.38806367
58	0x3d8ebb68	0.06969339
59	0xbf06e119	-0.5268722
60	0xbe02ebbd	-0.1278524
61	0xbf50730b	-0.8142554
62	0xbe0d2417	-0.13783298
63	0x3dd3798f	0.1032592
64	0x3d8fa776	0.070143625
65	0x3d10ee9d	0.03538381
66	0xbf1c298a	-0.61000884
67	0xbf21eed2	-0.63255036
68	0xbdf319be	-0.11870144
69	0xbee13a5c	-0.43989837
70	0xbd3adbd3	-0.045619797
71	0x3d1ad97b	0.03780506
72	0x3d7a55a2	0.061116822
73	0xbe8d12f0	-0.2755351
74	0xbf8129e1	-1.0090905
75	0xbecaf978	-0.39643455
76	0xbe8cec8e	-0.27524227
77	0xbe97b04f	-0.296267
78	0xbf00756c	-0.5017917
79	0xbe9d4f84	-0.30724728
80	0xbe5f623a	-0.21814814
81	0xbd2c27fc	-0.04203032
82	0xbe1302f2	-0.14356592
83	0xbe1353e1	-0.14387466
84	0xbf0fd1b5	-0.5617936
85	0xbedf738b	-0.4364284
86	0xbe5169cb	-0.20450513
87	0x3f37f374	0.71855855
88	0xbf2a90d6	-0.6662725
89	0x3e177df3	0.1479414
90	0x3daa6833	0.08320656
91	0xbd352aae	-0.044230156
92	0xbedef7c7	-0.43548414
93	0x3e4e6a0f	0.20157646
94	0xbed2232a	-0.41042453
95	0x3ef4b2b3	0.47792587
96	0xbe9b1cb5	-0.3029534
97	0xbf33ed6b	-0.70284146
98	0xbe838336	-0.25686044
99	0xbdeed2ea	-0.116613224
100	0x3e009a4c	0.1255886
101	0x3d260a2f	0.040537056
102	0xbf85a82f	-1.044195
103	0xbe9d4a1a	-0.30720598
104	0xbe36c4c6	-0.178485
105	0x3c83a09e	0.0160678
106	0xbed31e57	-0.41234085
107	0xbedb19fb	-0.4279326
108	0xbf666576	-0.8999857
109	0xbde29d34	-0.1106514
110	0x3ec325db	0.3811482
111	0x3da9feea	0.08300574
112	0xbf141286	-0.57840765
113	0xbf1b15d0	-0.6058016
114	0xbcc5e52a	-0.024157126
115	0x3da4cfef	0.08047473
116	0xbeaa88a7	-0.33307382
117	0x3e8736a6	0.2640888
118	0xbf11b00a	-0.5690924
119	0xbea4204f	-0.320559
120	0xbe126bb1	-0.14298894
121	0xbb852d9a	-0.004064274
122	0x3e3524e0	0.17689848
123	0xbd701e7f	-0.058622833
124	0x3e8e7e87	0.27830908
125	0x3d7a8421	0.061161164
126	0x3c3e5252	0.011616306
127	0x3c468244	0.012116019
128	0xbea376ef	-0.31926677
129	0x3e3b6b6c	0.18302697
130	0x3d1c9442	0.038227327
131	0x3e464399	0.19361724
132	0xbe92b675	-0.2865483
133	0xbefa4e75	-0.48887983
134	0x3e3d9d31	0.18516995
135	0xbeb5f566	-0.35538787
136	0xbeefd75d	-0.46843997
137	0xbe391080	-0.180727
138	0xbeccf39c	-0.4002961
139	0x3e3d9c1c	0.18516582
140	0x3de993a9	0.11405117
141	0x3e033a08	0.12815106
142	0x3eb4ea15	0.3533484
143	0xbe97031a	-0.29494554
144	0x3e2a7f17	0.16650043
145	0xbe33ed4f	-0.17570995
146	0xbe69e9d0	-0.22843099
147	0x3c50a4de	0.01273462
148	0xbd2a1021	-0.041519288
149	0xbe6efedd	-0.2333941
150	0xbcf9b9ad	-0.030484045
151	0xbe6abedd	-0.22924371
152	0xbc952f97	-0.01821117
153	0xbddb95d5	-0.107219376
154	0x3e4da6e6	0.20083198
155	0x3d20d353	0.039264034
156	0x3e28d5dc	0.16487831
157	0xbe932f22	-0.28746897
158	0xbec2a084	-0.3801309
159	0xbe80aad5	-0.25130334
160	0x3f306d3f	0.68916696
161	0xbf2e9f89	-0.6821218
162	0x3c3c07df	0.011476486
163	0x3e42c221	0.19019367
164	0xbe9fb3b7	-0.311918
165	0x3ce31489	0.027719753
166	0xbdd1fce3	-0.102533124
167	0x3ecc7f4c	0.3994087
168	0x3e010d20	0.12602663
169	0xbe1c8738	-0.15285957
170	0xbf47405c	-0.7783258
171	0x3d6dfd98	0.058103174
172	0xbece1983	-0.4025384
173	0x3cd43f49	0.025909083
174	0xbdffb8f1	-0.12486447
175	0xbe1f6ada	-0.15568104
176	0xbd9ed6bd	-0.07755802
177	0xbec2001a	-0.37890702
178	0x3df2a4fc	0.118478745
179	0xbe02f7f0	-0.12789893
180	0xbf6fbe38	-0.93649626
181	0xbee5e617	-0.44902107
182	0xbee916b7	-0.45525143
183	0xbf08c205	-0.5342105
184	0xbe19b51c	-0.15010494
185	0xbedcd0af	-0.43127963
186	0xbeb379c9	-0.35053852
187	0x3e57e86e	0.21084759
188	0xbeca6168	-0.3952744
189	0xbe6869bb	-0.22696583
190	0xbb426bd4	-0.0029666321
191	0xbeddf444	-0.43350422
192	0x3e7418d0	0.2383759
193	0xbdf223aa	-0.11823209
194	0xbe86a5cb	-0.26298365
195	0xbe8443ee	-0.25833076
196	0xbdec1703	-0.11527827
197	0xbe6f5449	-0.23371996
198	0xbe92ccfe	-0.28672022
199	0xbf45e904	-0.7730868
200	0xbec4d2e4	-0.38442147
201	0xbe4d39c2	-0.20041564
202	0xbe6f8c01	-0.23393251
203	0xbe3a5937	-0.18198095
204	0xbd45c5d7	-0.048284378
205	0xbee971ac	-0.45594537
206	0x3dd9c34f	0.10632955
207	0xbd9df9cc	-0.077136606
208	0xbe30298c	-0.17203349
209	0x3e14ed14	0.14543563
210	0xbe00db7c	-0.12583727
211	0xbf6bfa96	-0.9217924
212	0xbece81ab	-0.40333304
213	0xbf055367	-0.52080387
214	0xbe61f217	-0.22065006
215	0xbf2ad6e4	-0.6673415
216	0xbe9e5758	-0.30926013
217	0xbe401aec	-0.1876027
218	0xbe64146f	-0.2227342
219	0x3e253777	0.1613444
220	0x3ea3e02c	0.32006967
221	0xbe95e453	-0.2927576
222	0xbf182797	-0.5943541
223	0x3ea33f80	0.31884384
224	0xbeb0af4d	-0.34508744
225	0x3e2b5891	0.16733004
226	0x3de216ca	0.11039503
227	0xbbea1bd1	-0.0071444293
228	0xbf6696df	-0.9007396
229	0xbdda25cc	-0.106517404
230	0xbeafa7ce	-0.34307712
231	0x397d6511	0.0002416561
232	0xbee8a37e	-0.45437235
233	0xbe933be0	-0.28756618
234	0x3da5ee28	0.08102065
235	0xbe817484	-0.25284207
236	0xbecbbff7	-0.39794895
237	0x3d355015	0.044265825
238	0xbe91b882	-0.2846108
239	0x3e97f778	0.2968099
240	0xbcb0332d	-0.021508778
241	0xbe77a3f9	-0.24183644
242	0x3de0ffde	0.10986303
243	0x3eced851	0.4039941
244	0xbf200fb8	-0.62523985
245	0x3d31a957	0.043374386
246	0x3d1cf370	0.038318098
247	0xbd531d04	-0.051541343
248	0xbeefe196	-0.46851796
249	0x3dfadd2d	0.12249217
250	0x3ea38eb0	0.319448
251	0xbeef981a	-0.46795732
252	0x3cbbedd8	0.022940561
253	0xbe508317	-0.20362507
254	0xbefd00a5	-0.49414554
255	0x3d15bcec	0.036557123

bias f4 [256]
0	0xbf293faa	-0.6611277
1	0xbdf84cf3	-0.12124052
2	0xbff940f8	-1.9472952
3	0x3f7170ad	0.94312555
4	0xbfb1d6ce	-1.3893678
5	0xbf906080	-1.127945
6	0xbfabbbcc	-1.3416686
7	0x3ef9ebeb	0.48812804
8	0xbdb81f58	-0.08990353
9	0xbe35789a	-0.17721787
10	0xbddddddb	-0.10833331
11	0xbef7533c	-0.4830569
12	0xbde7b2d4	-0.11313406
13	0x3f07ce21	0.530489
14	0xbe214ee2	-0.15752748
15	0xbe2039cf	-0.15647052
16	0xbf61a45d	-0.88141423
17	0xbe0f4915	-0.13992722
18	0xbd7c7522	-0.061635144
19	0xbee9f40e	-0.4569401
20	0xbf89129d	-1.0708805
21	0xbdf28177	-0.118411
22	0xbfd2f6e1	-1.6481591
23	0xbddd20ca	-0.1079727
24	0xbf82d354	-1.0220742
25	0xbfdb29f0	-1.7122173
26	0xbe969329	-0.2940915
27	0xbf076ff8	-0.52905226
28	0xbea388b2	-0.31940228
29	0xbf04d050	-0.5188036
30	0xbdf00208	-0.117191374
31	0xbf2f5059	-0.68481976
32	0xbf29540a	-0.6614386
33	0xbe6eccab	-0.23320262
34	0xbda9efa2	-0.082976595
35	0xbe3970b5	-0.181094
36	0xbd6b8f8e	-0.05750995
37	0x3f935724	1.1510968
38	0xbfbe796a	-1.4880803
39	0x3eed3310	0.4632802
40	0xbd9d92fd	-0.076940514
41	0x3f197097	0.59937423
42	0xbf338147	-0.70119137
43	0x3ec3bcb7	0.38229915
44	0xbe17ea67	-0.14835511
45	0xbe8a02c9	-0.2695525
46	0x3f751560	0.9573574
47	0xbf93a99b	-1.1536134
48	0xbf95f16c	-1.1714301
49	0xbfa82d9b	-1.3138918
50	0xbf2d6380	-0.6772995
51	0x3f96e3a6	1.1788223
52	0xbe097b4f	-0.13425945
53	0x3ef0e755	0.47051492
54	0xbfb494bc	-1.410789
55	0xbe05e2a1	-0.13074733
56	0xbfae593a	-1.362098
57	0xbf5f76f3	-0.8729088
58	0xbeb8c8e7	-0.36090776
59	0xbdbb4d8c	-0.0914565
60	0xbd8ddf6c	-0.0692738
61	0xbf8b7b84	-1.0897069
62	0xbf687db3	-0.908168
63	0xbefe67c6	-0.49688548
64	0xbddf0638	-0.10889858
65	0xbe2d4e5b	-0.16924421
66	0x3e074628	0.13210356
67	0xbf641325	-0.8909171
68	0x3e8ee5e4	0.27909768
69	0x3f7f1c69	0.99652725
70	0xbe21c718	-0.15798604
71	0xbf505f4c	-0.8139541
72	0xbd8f8eb2	-0.07009639
73	0x3ea6b0e5	0.32556835
74	0x3ecc78e0	0.3993597
75	0xbf8e385d	-1.1110951
76	0xbe1618b2	-0.14657858
77	0xbf6494e9	-0.8928972
78	0xbd5ca616	-0.05386933
79	0x3e3469f3	0.17618541
80	0xbe08e22e	-0.1336753
81	0xbe24e621	-0.16103412
82	0xbe12c2d9	-0.14332141
83	0xbe4e0945	-0.20120724
84	0x3ed9967f	0.42497632
85	0xbf0dde37	-0.554172
86	0xbf6e7cb1	-0.93159014
87	0xbdc706c8	-0.0971809
88	0x3ea2c76d	0.31792775
89	0x3dc002a0	0.09375501
90	0xbf8ad6ee	-1.0846841
91	0x3f130d10	0.57441807
92	0x3d29d723	0.041464936
93	0xbf4f6648	-0.81015444
94	0xbe0b75e3	-0.13619189
95	0xbf01d6e8	-0.50718546
96	0xbf68021c	-0.9062822
97	0xbee896ee	-0.4542765
98	0xbd96b39f	-0.07358479
99	0xbd91e15a	-0.071230605
100	0xbed05dac	-0.40696466
101	0xbe125e00	-0.1429367
102	0xbcb08f67	-0.021552755
103	0xbd5b46f5	-0.053534467
104	0x3f2c2667	0.672461
105	0xbf469e24	-0.77585053
106	0xbde75dec	-0.11297211
107	0xbe5f9544	-0.21834284
108	0xbf34ab1c	-0.7057359
109	0xbe34fd9a	-0.17674866
110	0xbd2baf2a	-0.041915096
111	0xbda90571	-0.08252991
112	0xbf4faf78	-0.8112712
113	0xbda8f171	-0.08249176
114	0xbe2db87a	-0.16964903
115	0xbe0dd385	-0.1385022
116	0xbf62912d	-0.8850277
117	0xbe54b5e3	-0.2077251
118	0xbd83dcde	-0.064386114
119	0xbda6de0b	-0.0814782
120	0x3f0f5bf9	0.55999714
121	0x3f8ce18c	1.1006331
122	0xbf940fda	-1.1567338
123	0xbe14edcc	-0.14543837
124	0xbf9815aa	-1.1881611
125	0xbd09cbd4	-0.03364165
126	0x3dc8ec38	0.0981068
127	0xbeb0f115	-0.3455893
128	0xbd9bd27b	-0.07608505
129	0x3edbb135	0.42908636
130	0xbfb62177	-1.4228963
131	0xbe408f42	-0.18804649
132	0xbf8b196d	-1.0867134
133	0xbea9875e	-0.3311109
134	0xbf66157a	-0.8987652
135	0x3f181c0f	0.59417814
136	0xbf23bd51	-0.6396075
137	0xbf24de8c	-0.6440208
138	0xbed75fd7	-0.42065307
139	0xbe893d70	-0.26804686
140	0x3f3c2447	0.73492855
141	0xbd93b309	-0.072118826
142	0xbdb6223a	-0.08893247
143	0x3ec3c768	0.38238072
144	0xbfbcf5b4	-1.4762483
145	0xbe15de9b	-0.14635698
146	0xbf5343a9	-0.82525116
147	0xbdce0cbb	-0.10061022
148	0xbe0f5a3f	-0.1399927
149	0xbd90ed67	-0.07076531
150	0xbfa04d00	-1.2523499
151	0xbdd82e20	-0.10555673
152	0xbe20c13f	-0.15698718
153	0xbd2f9a28	-0.042871624
154	0xbf8ee0a1	-1.1162301
155	0xbf984d29	-1.1898547
156	0xbdd50efb	-0.10403248
157	0xbe64d8b6	-0.22348294
158	0x3ece1018	0.40246654
159	0xbeb70c99	-0.357518
160	0xbf7e7e7d	-0.99411756
161	0xbf54683b	-0.82971543
162	0xbd98ac57	-0.07454746
163	0xbfaeca00	-1.3655396
164	0x3ea49922	0.3214808
165	0xbda09b8c	-0.07842168
166	0xbf96a100	-1.1767883
167	0xbefdd045	-0.4957296
168	0xbf9871f0	-1.1909771
169	0xbf9657a4	-1.1745496
170	0xbfcb508d	-1.5883957
171	0xbe80839d	-0.25100413
172	0xbf88a977	-1.0676717
173	0xbec2fa72	-0.380817
174	0xbf292906	-0.6607822
175	0xbf5846d1	-0.8448306
176	0xbf8eb7ac	-1.1149802
177	0xbf1486ee	-0.58018386
178	0xbd85c0e9	-0.06530935
179	0x3f40e8cd	0.75355226
180	0xbf5f450f	-0.8721475
181	0xbf0ee68b	-0.5582053
182	0xbf5f0d99	-0.87130123
183	0x3fb5f508	1.4215403
184	0xbdf38523	-0.11890628
185	0xbd74c6b6	-0.059759818
186	0xbd4269d7	-0.047464218
187	0xbf053913	-0.52040213
188	0xbee7da4a	-0.4528373
189	0xbe39d509	-0.18147673
190	0xbfa46e24	-1.2846112
191	0xbdf8392c	-0.1212028
192	0xbd9da512	-0.076975
193	0xbe04a592	-0.12953785
194	0xbfe7cda9	-1.8109637
195	0xbfbd062f	-1.4767512
196	0xbe1fc091	-0.15600802
197	0xbd829f83	-0.06378081
198	0xbed97fa8	-0.42480206
199	0x3e456e44	0.19280344
200	0x3eec054e	0.46097797
201	0xbea94da2	-0.33067042
202	0xbe55f805	-0.20895393
203	0xbdec0cca	-0.11525877
204	0x3e49d784	0.19711119
205	0xbdef0b05	-0.11672024
206	0xbf2b4750	-0.6690569
207	0x3f06f755	0.5272115
208	0x3d948040	0.07251024
209	0xbe80cf0d	-0.25157967
210	0xbf550417	-0.83209366
211	0xbf74d868	-0.9564271
212	0xbd7e36f3	-0.062064122
213	0xbf571429	-0.84015137
214	0x3f844a6f	1.0335215
215	0xbf88322f	-1.0640315
216	0x3ea1401c	0.31494224
217	0xbfb3c6bf	-1.4045027
218	0x3f2af48c	0.667794
219	0xbf636481	-0.8882523
220	0xbf9b1890	-1.2116871
221	0x3f97832a	1.1836903
222	0xbdfc6382	-0.12323667
223	0xbf57f565	-0.8435882
224	0xbe3a9b97	-0.18223415
225	0xbf03c905	-0.51478606
226	0x3f00cc58	0.50311804
227	0xbda7128a	-0.08157833
228	0xbfa2f226	-1.2730148
229	0xbf7089aa	-0.9396006
230	0xbd88f20c	-0.06686792
231	0xbd8e7ad1	-0.06957019
232	0xbe9d228b	-0.30690417
233	0xbdd594cf	-0.104287736
234	0xbf86667a	-1.0500023
235	0xbf70e30f	-0.94096464
236	0xbe297c85	-0.16551407
237	0x3e4dde2e	0.20104286
238	0xbfc0b8f3	-1.5056442
239	0xbe02a008	-0.1275636
240	0xbe26f953	-0.16306047
241	0xbdcf22c3	-0.10114052
242	0xbdbec264	-0.09314421
243	0xbddb87ac	-0.10719237
244	0xbfb6b3e0	-1.4273643
245	0x3d8454dd	0.06461499
246	0xbdeb5fde	-0.114928946
247	0xbf11801e	-0.56836116
248	0xbdd8d10c	-0.105867475
249	0x3bc94532	0.006142282
250	0xbf2cfcb0	-0.6757307
251	0xbdd2c4f2	-0.102914706
252	0xbe06b351	-0.13154341
253	0xbe5bce77	-0.21465479
254	0xbf4b07b6	-0.7930864
255	0x3f002275	0.5005258

weight f4 [8, 256]
0	0x3dedab86	0.11604981
1	0xbdcf7c39	-0.101311155
2	0x3d6ec687	0.0582948
3	0x3d7e7bd0	0.062129796
4	0xbe72ab78	-0.23698223
5	0xbc1e6122	-0.009666713
6	0x3cc41044	0.023933537
7	0xbd1ae46f	-0.037815508
8	0xbdd1ce7f	-0.10244464
9	0xbca15ddd	-0.019698078
10	0x3c6237c3	0.01380724
11	0xbd16a7c0	-0.036781073
12	0xbb41d0a5	-0.0029573825
13	0x3d9ec6be	0.07752751
14	0x3e86e8f7	0.26349613
15	0x3d35cf7c	0.044387326
16	0xbdfd08ca	-0.12355192
17	0x3c59e905	0.013300185
18	0x3b75d899	0.0037513135
19	0x3def0052	0.11669983
20	0x3e1a0493	0.15040807
21	0x3bcfa632	0.0063369507
22	0xbd811985	-0.063036956
23	0xbd897f5d	-0.06713746
24	0xbcd909c8	-0.026493922
25	0x3d256c39	0.040386412
26	0xbd124e15	-0.035718996
27	0xbbfb3d8e	-0.00766725
28	0xbe224086	-0.15844926
29	0xbe8c9c66	-0.27463073
30	0xbca70db9	-0.020392286
31	0x3b266ac4	0.0025393227
32	0x3e1ba9f4	0.1520155
33	0x3d9f4d03	0.07778361
34	0xbc848ee7	-0.016181422
35	0x3d2a5d0d	0.041592646
36	0x3d054f85	0.03254654
37	0xbe0680f4	-0.13135129
38	0xbe029a35	-0.12754138
39	0x3ed95ae5	0.4245216
40	0xbc3e5031	-0.011615799
41	0x3d7365a8	0.05942312
42	0xbe770cfe	-0.2412605
43	0xbd9d95dd	-0.076946
44	0x3c946526	0.018114638
45	0x3d1cbe7a	0.03826759
46	0xbeafc8ea	-0.34332973
47	0x3cc0b156	0.02352206
48	0xbdd9e834	-0.10639992
49	0xbede0535	-0.43363348
50	0x3f06990c	0.5257728
51	0xbd83bd0b	-0.064325415
52	0x3c3d11a3	0.011539849
53	0xbe5d2110	-0.21594644
54	0xbdf31b2b	-0.11870416
55	0x3d3a23e9	0.045444403
56	0x3e40ac38	0.18815696
57	0x3dae00bf	0.08496236
58	0x3ce0a0cc	0.027420424
59	0x3da4df04	0.08050349
60	0xbca7abd2	-0.020467672
61	0x3d16d5c5	0.03682496
62	0x3e21e4b4	0.158099
63	0xbd161a75	-0.036646325
64	0x3dc30a2c	0.095234245
65	0xbb9aafb5	-0.004720653
66	0xbbe1f68d	-0.006895846
67	0x3c562ea0	0.01307264
68	0x3c29943e	0.010350285
69	0xbe30506c	-0.17218179
70	0x3d9091b3	0.0705904
71	0xbea1336c	-0.31484544
72	0xbd8083f2	-0.062751666
73	0xbbeed3bc	-0.0072884243
74	0x3d088305	0.033328075
75	0x3dbc2958	0.09187573
76	0xbea6e4b9	-0.32596377
77	0x3e1f4723	0.1555448
78	0x3e69461d	0.22780652
79	0xbda001b2	-0.07812823
80	0x3d10632b	0.035250824
81	0xbd6384cd	-0.05554657
82	0xbd3a93ee	-0.045551233
83	0x3d85b44f	0.06528532
84	0xbbf062fb	-0.007336018
85	0xbb52e4ac	-0.0032179756
86	0xbe843ea6	-0.25829047
87	0xbbf3be4c	-0.0074384566
88	0xbc3f3f4f	-0.011672809
89	0x3d5c343a	0.053760745
90	0xbb8d3bdd	-0.004310115
91	0x3da8a6f8	0.08234972
92	0xbd7c52f5	-0.06160255
93	0x3ea8502e	0.32873672
94	0xbcee785e	-0.02911013
95	0xbe1a01bb	-0.15039723
96	0xbd8a26c8	-0.06745678
97	0x3c14873e	0.009065447
98	0x3e4993de	0.19685313
99	0x3bbab84e	0.0056982404
100	0x3ccf4d8b	0.02530553
101	0xbd016125	-0.031586785
102	0x3cc8ce6d	0.024512494
103	0x3d45fa32	0.048334308
104	0x3dc30e0e	0.09524165
105	0x3e033bc0	0.12815762
106	0x3ceec2d2	0.029145632
107	0xbce1fedb	-0.027587345
108	0x3db04601	0.08607102
109	0x3dda40c7	0.106568865
110	0xbb8d6b34	-0.004315758
111	0x3cce1147	0.025154723
112	0xbde70e00	-0.11281967
113	0xbd1dbe2f	-0.03851145
114	0x3da05e68	0.078305066
115	0xbc92a502	-0.017900947
116	0x3e8e0ece	0.2774567
117	0xbde6d91e	-0.112718806
118	0xbd8f88fa	-0.07008548
119	0xbdf6dc82	-0.12053777
120	0xbea5c242	-0.3237477
121	0xbe910ef1	-0.28331712
122	0x3de9a93e	0.114092335
123	0x3a149972	0.0005668617
124	0x3dc16d44	0.09444669
125	0xbcb22b6a	-0.021749217
126	0x3c7b596d	0.015341145
127	0xbca2b723	-0.019862717
128	0x3d910256	0.07080524
129	0x3d0d36b3	0.034475993
130	0x3de23659	0.11045522
131	0xbd7f1ed9	-0.062285278
132	0x3dc31de3	0.09527185
133	0xbdfd5858	-0.12370366
134	0x3db1e29a	0.08685799
135	0xbd919c74	-0.07109919
136	0x3e6b946c	0.23005837
137	0x3e0ef293	0.13959722
138	0xbd971635	-0.073772825
139	0x3c32f68a	0.010923037
140	0x3db73010	0.08944714
141	0x3d9a078d	0.075209714
142	0x3d607675	0.05480047
143	0x3bcdcf5a	0.0062808217
144	0xbe0adccd	-0.13560791
145	0xbd67eb8a	-0.056621112
146	0x3e281721	0.16415073
147	0x3c4ec5ab	0.01262037
148	0xbcb8ab38	-0.022542581
149	0x3c371efe	0.011176823
150	0xbe5d1622	-0.21590474
151	0x3df9b353	0.121924065
152	0x3df1b243	0.11801579
153	0xbe47ac4c	-0.1949932
154	0x3d6480b1	0.055786792
155	0xbdcd6db3	-0.10030689
156	0xbd4a5d74	-0.04940553
157	0x3d0acd52	0.033887215
158	0xbd1d79b5	-0.038446147
159	0x3a924446	0.0011159263
160	0x3da85b94	0.08220592
161	0xbd2f34b3	-0.042774867
162	0x3d9557df	0.07292151
163	0x3d1afb6f	0.037837442
164	0xbe285c30	-0.16441417
165	0x3d8edfa2	0.06976248
166	0x3df7aba3	0.12093284
167	0x3e04c7bc	0.12966818
168	0xbbd82ea6	-0.006597358
169	0xbe0b1679	-0.13582791
170	0x3e418bd8	0.18901002
171	0xbce27715	-0.027644673
172	0xbd02fba9	-0.031978283
173	0x3e6d5b8b	0.23179452
174	0xbdc0841a	-0.094001964
175	0x3de7a566	0.11310844
176	0x3d0d9de0	0.03457439
177	0x3e15ec70	0.14640975
178	0x3c4e7f14	0.01260354
179	0xbe0b0d8d	-0.13579388
180	0x3d22588d	0.03963523
181	0x3d9898c1	0.074510105
182	0xbc8dbc37	-0.017301662
183	0x3e20dedb	0.15710013
184	0xbd8ee5e9	-0.06977446
185	0xbd88fca0	-0.066888094
186	0xbd00914a	-0.03138856
187	0x3cc2e895	0.023792544
188	0x3e870374	0.26369822
189	0xbd2cb6a0	-0.042166352
190	0xbe09df8a	-0.1346418
191	0xbdf80a3f	-0.12111329
192	0xbd7f6b44	-0.062358156
193	0x3d36346d	0.04448359
194	0x3d922883	0.07136633
195	0x3dc530ae	0.096284255
196	0xbd4d797a	-0.050164677
197	0xbd4ff6df	-0.050772544
198	0x3e2ee5a2	0.17079785
199	0xbc489acc	-0.012243938
200	0x3b0e52ac	0.0021716757
201	0xbae5aed5	-0.0017523417
202	0x3c176e46	0.0092426
203	0xbd6b41e4	-0.057435885
204	0xbd19ef5a	-0.03758178
205	0x3c8bd96b	0.017071446
206	0xbd07bae9	-0.033137236
207	0xbc3f879a	-0.011690045
208	0x3d6502c7	0.05591085
209	0x3d055cb6	0.03255912
210	0xbd95f548	-0.07322174
211	0x3dda01f5	0.106449045
212	0xbbe64872	-0.007027679
213	0x3d5c3db4	0.053769782
214	0x3e0d5ef9	0.1380576
215	0x3c26852d	0.0101635875
216	0xbd342fc5	-0.04399087
217	0x3db3f2bf	0.087865345
218	0x3ceea5bf	0.029131768
219	0x3ef2f2df	0.4745092
220	0x3d86cafd	0.06581686
221	0x3d992165	0.074770726
222	0x3c477652	0.012174206
223	0x3df100a6	0.11767702
224	0xbcb8a7bd	-0.022540921
225	0xbc9eab92	-0.01936892
226	0xbd8ddfd3	-0.06927457
227	0xbd0a2500	-0.033726692
228	0x3e9b9312	0.30385643
229	0x3d7d4450	0.061832726
230	0x3e298628	0.16555083
231	0xbcd80ef0	-0.02637431
232	0x3d2767a7	0.040870335
233	0xbc095794	-0.008382697
234	0xbf0c546d	-0.54816324
235	0x3c8b7e22	0.017027918
236	0x3da25bb4	0.07927647
237	0xbddea994	-0.10872188
238	0x3e1e0a1c	0.15433544
239	0xbc95d883	-0.018291717
240	0xbd72f39e	-0.059314363
241	0xbd8eec64	-0.06978682
242	0xbb9ea86a	-0.004841854
243	0xbbd2af17	-0.0064295637
244	0x3e56ee7e	0.20989415
245	0x3e347aa2	0.17624906
246	0xbd7dbe1a	-0.061948873
247	0x3de2d1b1	0.11075152
248	0xbc8783a4	-0.016542263
249	0xbdcefe1a	-0.1010706
250	0xbe26a24b	-0.16272847
251	0x3baf8344	0.0053562243
252	0xbcbf8368	-0.02337809
253	0xbc87b9d7	-0.016568108
254	0x3b480886	0.0030522658
255	0x3e1fe0e3	0.15613131

bias f4 [8]
0	0xbbed02b2	-0.0072329873
1	0xbe0cf22a	-0.13764253
2	0xbc1fdaf3	-0.009756791
3	0xbdbca960	-0.09211993
4	0x3d5ec77e	0.05438947
5	0xbd7a2e74	-0.061079457
6	0xbdbb1ea4	-0.091367036
7	0x3deb6bcf	0.11495172

weight f4 [8, 256]
0	0x3e633cba	0.22191134
1	0x3cc7e2e2	0.024400178
2	0x3dbc466d	0.0919312
3	0xbcbd5962	-0.02311391
4	0x3d65863c	0.05603622
5	0x3e7b6ca5	0.24553163
6	0x3eefdd55	0.4684855
7	0x3c6ab2ba	0.014324838
8	0x3d0fb277	0.035082307
9	0xbb595d28	-0.0033167098
10	0xbd997013	-0.074920796
11	0x3db3d9e9	0.087817974
12	0x3d9970a4	0.074921876
13	0x3d5962df	0.053072806
14	0x3d012529	0.03152958
15	0x3d56f2d8	0.052477688
16	0x3f1fe301	0.62455755
17	0x3cf6d6f3	0.030131793
18	0xbc9bc0ea	-0.019012887
19	0xbd8945b6	-0.067027494
20	0x3da9669a	0.08271523
21	0x3cbd74ea	0.023127038
22	0x3d15fb53	0.036616635
23	0x3d890ab8	0.066914976
24	0x3d6bda56	0.05758127
25	0x3e20a097	0.1568626
26	0x3c057dea	0.008147696
27	0x3c6b7711	0.014371649
28	0x3d9f8b76	0.07790272
29	0x3e5e7b8a	0.21726814
30	0x3df2cc31	0.11855353
31	0x3e4496c8	0.19198143
32	0x3d1e258b	0.038610023
33	0x3dde6e9e	0.10860942
34	0x3cae0519	0.021242665
35	0x3d58136f	0.05275291
36	0x3c87936e	0.016549792
37	0x3c4d094e	0.012514425
38	0x3d619411	0.055072848
39	0x3dbcea42	0.09224369
40	0x3c65a991	0.014017479
41	0x3c111aa4	0.008856449
42	0x3df8a5c3	0.121409915
43	0xbb5dfe8c	-0.0033873646
44	0x3c82c18e	0.015961435
45	0x3ddd09f4	0.10792914
46	0x3d1ec70c	0.038764045
47	0xbb8e01de	-0.0043337187
48	0x3ea66e9a	0.32506257
49	0x3e14d73a	0.14535227
50	0x3edf11a1	0.43568137
51	0xbcf6ebc4	-0.030141719
52	0x3d03fb53	0.032222103
53	0x3da21cc6	0.07915644
54	0x3e762b62	0.24039987
55	0x3d955b24	0.07292774
56	0x3c4322a0	0.011910111
57	0x3e8a114f	0.2696633
58	0x3c2c9fd9	0.0105361575
59	0xbbaf955e	-0.005358382
60	0xbd114cd5	-0.035473663
61	0x3cc849c2	0.024449233
62	0x3e236f85	0.1596051
63	0xbcc86bae	-0.024465408
64	0x3d4d561b	0.050130945
65	0x3cc8a04b	0.024490496
66	0xbc16f9d6	-0.009214839
67	0x3a9c3de5	0.0011920301
68	0xbd893899	-0.06700248
69	0xbd2eca7f	-0.042673584
70	0xbc7213c5	-0.014775221
71	0x3d9733d1	0.0738293
72	0x3cf31e6a	0.029677588
73	0x3b2de75f	0.0026535613
74	0xbd00a15d	-0.031403888
75	0x3e150b4f	0.14555095
76	0x3e345cd3	0.17613535
77	0x3e5c5a38	0.2151879
78	0xbeae622e	-0.3405928
79	0xbd01a650	-0.03165275
80	0xbd978731	-0.073988326
81	0x3de6481c	0.112442225
82	0xbca21795	-0.019786635
83	0x3df96629	0.12177689
84	0x3bdfbafe	0.006827711
85	0xbd82834f	-0.063727014
86	0x3eaf729e	0.34267133
87	0x3a958814	0.0011408352
88	0x3e13a563	0.14418559
89	0x3c126b3b	0.008936699
90	0x3ee70263	0.45119008
91	0x3a292814	0.00064528105
92	0xbbacd196	-0.005274008
93	0x3e198c91	0.14995028
94	0xbc8299fb	-0.015942564
95	0x3cad00ba	0.02111851
96	0x3e63267d	0.22182651
97	0xbb81222b	-0.0039408407
98	0x3ba3db8c	0.0050005373
99	0x3d08bd44	0.033383623
100	0x3c96d39e	0.018411454
101	0x3d20a6f9	0.039221738
102	0x3c3a00d3	0.011352736
103	0x3d51ff3d	0.051268805
104	0x3d568967	0.05237713
105	0x3e6c9503	0.23103718
106	0xbb2bdb98	-0.0026223417
107	0xbd5ad4ab	-0.053425472
108	0x3e94a39f	0.29031083
109	0x3d8ab003	0.06771853
110	0x3cac2ed8	0.02101843
111	0x3c4ccb45	0.012499635
112	0xbce6c737	-0.028171165
113	0x3d46adf5	0.048505742
114	0x3df59b58	0.1199252
115	0xbdb12ec8	-0.08651501
116	0x3df21285	0.118199386
117	0x3d39d940	0.0453732
118	0x3b1b8b00	0.0023733974
119	0x3dcd54fc	0.10025975
120	0xbbea7523	-0.007155077
121	0x3ce49c02	0.027906422
122	0xbd811580	-0.06302929
123	0x3e1f9cce	0.1558716
124	0x3e18ed6f	0.14934324
125	0xbd4133d6	-0.047168575
126	0xbd787d18	-0.060666174
127	0x3d3f43eb	0.04669563
128	0x3dae887f	0.08522128
129	0x3c288216	0.010284921
130	0x3c031b24	0.008002076
131	0x3e5da3dd	0.2164454
132	0xbc91ade3	-0.017783111
133	0x3d8e86e2	0.069593206
134	0x3e28b865	0.16476591
135	0xbd3a76d3	-0.045523476
136	0x3c4abbf7	0.012373916
137	0x3ea7403b	0.3266619
138	0x3e3d8002	0.18505862
139	0x3da3704c	0.07980403
140	0x3c4e6c72	0.012599098
141	0x3cc10fa6	0.023567032
142	0xbcd055ed	-0.025431598
143	0x3c8fc5ef	0.017550437
144	0x3e91457e	0.2837333
145	0x3dbc42e2	0.091924444
146	0x3e9167a0	0.28399372
147	0xbd9390ab	-0.072053276
148	0xbdab0ef2	-0.0835246
149	0x3c6c6231	0.0144277075
150	0x3d842239	0.0645184
151	0x3dac269b	0.08405801
152	0xbc504d27	-0.012713707
153	0x3e3edcf9	0.18638982
154	0x3d708cec	0.058728144
155	0x3ea188ac	0.31549585
156	0x3d01d2a5	0.031695027
157	0x3e698575	0.22804816
158	0x3c8ba5f1	0.0170469
159	0x3c501989	0.012701401
160	0x3e68be50	0.22728848
161	0x3f08d9f6	0.5345758
162	0xbc396350	-0.011315182
163	0x3f1a19e1	0.6019574
164	0x3d9bf0e6	0.07614307
165	0xbc5d7aed	-0.013518077
166	0x3e7f0f24	0.2490812
167	0xbcc0b101	-0.023521902
168	0x3ed4b775	0.41546217
169	0x3db55fa1	0.088561304
170	0xbc9139a7	-0.017727686
171	0x3e9d15af	0.30680606
172	0xbc880a29	-0.016606407
173	0xbcb61c90	-0.022230417
174	0xbcc37ded	-0.023863757
175	0x3e85ec59	0.2615688
176	0x3dbc428e	0.09192382
177	0x3eac828f	0.33693358
178	0x3d9bb607	0.07603078
179	0xbd53adbc	-0.051679358
180	0x3dbb21d2	0.0913731
181	0x3dee004b	0.1162115
182	0x3d6d4035	0.05792256
183	0xbbfb7385	-0.007673683
184	0x3cf1e265	0.029526899
185	0x3ae9f15a	0.0017848418
186	0xbc0893fe	-0.008336065
187	0x3ca9aab0	0.020711273
188	0x3e385b28	0.18003523
189	0x3be81868	0.0070829876
190	0x3ec332a0	0.3812456
191	0x3e0bf201	0.13666536
192	0x3c68d9d0	0.014212087
193	0x3dab14f0	0.08353603
194	0x3d51aae4	0.051188365
195	0x3e298ad3	0.16556863
196	0xbb242ca8	-0.0025051031
197	0xbd1d1e43	-0.038358938
198	0x3e920cd3	0.2852541
199	0x3cb90c63	0.022588914
200	0x3d06054b	0.03271989
201	0x3ca2648d	0.019823337
202	0x3d277a70	0.04088825
203	0x3c8e0a75	0.01733897
204	0x3d936cef	0.07198512
205	0x3d00b23d	0.03141998
206	0x3d61f06e	0.055160932
207	0xbce03a73	-0.02737162
208	0x3b2692fe	0.0025417204
209	0x3e076c52	0.13224915
210	0x3ecca157	0.39966843
211	0x3eaa67f2	0.3328243
212	0x3d72dd90	0.05929333
213	0x3ee31b62	0.4435683
214	0xbd0a702b	-0.033798378
215	0x3e93be41	0.2885609
216	0x3c08b2af	0.008343383
217	0x3e019048	0.12652695
218	0x3ccc998d	0.024975562
219	0x3ecd2935	0.400705
220	0x3ca9d899	0.020733165
221	0x3d7cbae8	0.061701685
222	0x3e020bad	0.12699766
223	0x3e8525c0	0.26005363
224	0x3d8f7688	0.0700503
225	0x3e4b1093	0.19830541
226	0xbe5f8716	-0.21828875
227	0xbbbd2e5b	-0.0057733483
228	0x3eeae345	0.45876518
229	0x3e0007b7	0.12502943
230	0x3e0dd451	0.13850524
231	0x3d8f918a	0.07010181
232	0xbd759726	-0.0599586
233	0x3c9cd136	0.019142728
234	0x3eb7279e	0.35772413
235	0x3e3fedb6	0.18743023
236	0xbb74d2d2	-0.0037357104
237	0xbcd18712	-0.025577102
238	0x3e3d9ce4	0.1851688
239	0xbc483737	-0.0122201955
240	0xbd9745cb	-0.07386359
241	0x3d584671	0.052801553
242	0x3c727298	0.014797829
243	0x3bbc1cc1	0.0057407324
244	0x3da67b7f	0.08129024
245	0x3dd81047	0.1054998
246	0x3b8737ab	0.004126509
247	0x3d9e49bb	0.07728907
248	0xbbe9beec	-0.0071333554
249	0xbc82a75d	-0.015948946
250	0x3e987c90	0.29782534
251	0x3d1da37c	0.03848599
252	0x3c949301	0.018136503
253	0x3d3202a5	0.043459553
254	0xbcc0a29a	-0.023515034
255	0x3d80ce4f	0.0628935

bias f4 [8]
0	0xbf680851	-0.9063769
1	0xbf82f2cc	-1.0230346
2	0xbf74436e	-0.9541539
3	0xbf82a1e9	-1.0205661
4	0xbf4dbaad	-0.8036297
5	0xbf6af558	-0.91780615
6	0xbf7084be	-0.9395255
7	0xbf6bd535	-0.92122203

weight f4 [256, 35]
0	0xbd6948bb	-0.056954127
1	0x3f085ac7	0.53263515
2	0xbf26dac5	-0.65177566
3	0xc01b175f	-2.4233015
4	0x3f4bc9fc	0.7960508
5	0x3e693f80	0.2277813
6	0xbda364db	-0.07978221
7	0x3eaf81ae	0.34278625
8	0xbe139f4a	-0.14416233
9	0x3e7a1086	0.24420366
10	0xbe8078d1	-0.25092176
11	0x3e11dcec	0.14244431
12	0xbe978f22	-0.2960139
13	0x3d3f2ee4	0.046675578
14	0xbe01a949	-0.12662233
15	0x3e0c2d19	0.13689078
16	0xbdc61a48	-0.096729815
17	0xbd765996	-0.06014403
18	0xbd9ad27f	-0.0755968
19	0xbd86af8c	-0.06576452
20	0xbcd50261	-0.02600211
21	0x3d4eeaa3	0.050516736
22	0xbd660625	-0.056158204
23	0xbd120c35	-0.035656173
24	0x3c22b97a	0.009931916
25	0xbd48152d	-0.04884832
26	0xbd4a05a1	-0.049321774
27	0x3ed78d01	0.42099765
28	0xbde74cb7	-0.11293929
29	0xc010e3c0	-2.2639008
30	0xbec61861	-0.38690475
31	0x3f16d1d1	0.58913904
32	0xbeec6a71	-0.46174958
33	0x3e3e8f91	0.18609454
34	0xbdb83647	-0.089947276
35	0x3e2ba09a	0.16760483
36	0xbe9835e7	-0.29728624
37	0xc0419b0b	-3.025088
38	0xbffb9c49	-1.965707
39	0xc031cff7	-2.7783182
40	0xbe68084f	-0.2265942
41	0xbe7377e4	-0.23776203
42	0xbfcc0e78	-1.5941916
43	0xc0081e01	-2.1268313
44	0xbe94c07d	-0.29053107
45	0x3e61cf62	0.22051767
46	0xbe9b0cf0	-0.30283308
47	0xbd8a6374	-0.067572504
48	0xbeab3ea8	-0.3344624
49	0x3f003316	0.5007795
50	0xbe506a3d	-0.20353027
51	0xbd574a1a	-0.052560903
52	0xbde9e3a7	-0.11420374
53	0xbeb2d7d9	-0.34930304
54	0xbc562e20	-0.0130725205
55	0xbcf1ed2a	-0.029532034
56	0xbdcdae12	-0.10042967
57	0xbd22c19b	-0.039735418
58	0xbca7055e	-0.020388301
59	0x3c88f8de	0.016720232
60	0xbd1777f5	-0.036979634
61	0xbc33da96	-0.010977408
62	0x38a5d2de	7.90709e-05
63	0x3d515514	0.051106527
64	0xbe08c308	-0.13355649
65	0xbd5019bc	-0.050805792
66	0xbd3bfca9	-0.045895252
67	0x3ddf30cf	0.108979814
68	0x3dacfb21	0.084463365
69	0x3db8eb6f	0.090292804
70	0x3f49dbe8	0.78851175
71	0xbef5040f	-0.4785466
72	0x3fb7d466	1.4361694
73	0xc06a84c5	-3.6643536
74	0xbf9d21b8	-1.2275915
75	0x3eda96fc	0.42693317
76	0x3e80ad93	0.25132427
77	0x3ee09db1	0.4387031
78	0xbe56a225	-0.2096029
79	0xbecc646c	-0.39920366
80	0xbec94a65	-0.3931457
81	0x3febb62c	1.841497
82	0xbe86c294	-0.26320326
83	0x3da7b7c1	0.08189345
84	0xbdcc2a38	-0.0996899
85	0x3e0c2698	0.13686597
86	0x3dc6430a	0.096807554
87	0x3c418d06	0.011813408
88	0xbd27fd4e	-0.041013055
89	0x3d6cd860	0.05782354
90	0x3b8ee608	0.004360918
91	0x3da20a7d	0.07912157
92	0xbce41ae0	-0.027844846
93	0xbca4d6f2	-0.020122025
94	0xbcc6871a	-0.024234343
95	0x3f17e895	0.59339267
96	0xbd54d2d1	-0.051958863
97	0x3fbd6f63	1.4799618
98	0xbdd78a47	-0.10524421
99	0x3d8fb5a1	0.07017065
100	0x3e0eaee2	0.139339
101	0x3e43f52b	0.19136493
102	0xbdd7c434	-0.1053547
103	0xbe13feaa	-0.14452615
104	0xbe065f97	-0.13122402
105	0x3ffafd0c	1.9608474
106	0x3e44e26a	0.19226995
107	0x40833c9a	4.1011477
108	0xbef8545c	-0.4850186
109	0xbfb16355	-1.3858439
110	0xbf8ab86a	-1.0837529
111	0xc0194088	-2.3945637
112	0x3ca68d34	0.020331003
113	0xbeab8df1	-0.3350673
114	0x3e1f63ab	0.15565364
115	0x3ec3be99	0.38231352
116	0xbe098619	-0.1343006
117	0x3f3a8ef2	0.7287437
118	0xbe9170c4	-0.28406346
119	0xbf4fafb0	-0.8112745
120	0x3ee8b245	0.4544851
121	0x3ebda2ce	0.37038273
122	0xbcda027f	-0.026612518
123	0xbec2c2dc	-0.3803929
124	0xbeb5b8aa	-0.3549245
125	0x3bb7e8ba	0.00561246
126	0xbcd2e38d	-0.02574327
127	0xbcfe7d1c	-0.031065516
128	0x3d037cd4	0.032101467
129	0xbde33ad9	-0.11095209
130	0x3c76f90a	0.015074024
131	0x3e3f4402	0.18678287
132	0x3e6780ae	0.22607681
133	0x3e8a7e14	0.27049315
134	0xbf1aa341	-0.60405356
135	0x3e8c536e	0.27407402
136	0x3ce9c4f3	0.028536296
137	0xbe263747	-0.16232024
138	0x3e23943a	0.15974513
139	0xbe18bb6f	-0.1491525
140	0xbece96aa	-0.40349323
141	0xbe57d93f	-0.21078967
142	0xbfd765d3	-1.6827949
143	0xbf4e85a0	-0.80672646
144	0x4007822a	2.1173196
145	0x4021ec21	2.5300372
146	0x3f7f84e6	0.9981216
147	0xc00af9fa	-2.1715074
148	0xbe21e837	-0.15811239
149	0x3ce95442	0.02848256
150	0xbedb32d7	-0.42812225
151	0xbf0293cf	-0.5100679
152	0xbf09a939	-0.5377384
153	0x3d42f8a0	0.04760039
154	0xbe9ec317	-0.31008217
155	0xbe401a86	-0.18760118
156	0xbd85d29e	-0.06534313
157	0xbcd18a3f	-0.025578616
158	0x3e07a3e1	0.13246109
159	0x3df9d1c9	0.121982165
160	0x3d44ef43	0.04807974
161	0xbea3e4d5	-0.32010522
162	0x3ba08d73	0.0048996746
163	0xbceb203b	-0.028701892
164	0xbd6d9d5b	-0.058011394
165	0xbd476976	-0.04868456
166	0xbc83d151	-0.01609102
167	0xbc03e8d3	-0.008051115
168	0xbd7a167f	-0.06105661
169	0x3e1459b8	0.1448735
170	0xbc0099af	-0.007849141
171	0xbf50f49d	-0.8162325
172	0x3cfd5d6e	0.03092834
173	0xbe1fc651	-0.15602995
174	0xbded8a6c	-0.115986675
175	0xbf689c9f	-0.90863985
176	0x3f2bbe17	0.6708693
177	0xc08ea0ce	-4.4571295
178	0xc049b977	-3.1519449
179	0xbfeaf229	-1.8355151
180	0xbebb1633	-0.36540374
181	0xbf3eea1c	-0.7457597
182	0x3ec4718f	0.38367888
183	0x3f884feb	1.0649389
184	0x3f447185	0.7673572
185	0x3da77afd	0.08177755
186	0x3f489dbd	0.7836569
187	0xbf2d21d5	-0.6762975
188	0x3f997b66	1.1990783
189	0xbea856ac	-0.32878625
190	0x3f33f880	0.70301056
191	0x3e7feaf9	0.24991979
192	0xbf33364f	-0.70004743
193	0x3f9f1aa6	1.2430007
194	0x3d268e27	0.04066291
195	0x3ddefdbf	0.10888242
196	0x3d0a0301	0.03369427
197	0xbe619e28	-0.22032988
198	0x3d618f1a	0.055068113
199	0x3e851790	0.2599454
200	0x3ea0ea30	0.3142867
201	0xbd38d402	-0.04512406
202	0x3ef154b0	0.47134924
203	0x3d786ae5	0.060648818
204	0xbe9142b2	-0.28371197
205	0x3eebab1f	0.46028993
206	0xbea777bb	-0.32708535
207	0xbdf3c07c	-0.11901948
208	0xbe974a0f	-0.2954869
209	0x3eb0d68e	0.34538692
210	0x3c36c199	0.011154556
211	0xbf886e7a	-1.0658715
212	0xbe9eb58e	-0.3099789
213	0xc0a51b4b	-5.1595817
214	0x3f380cee	0.7189473
215	0x3f6669f2	0.9000541
216	0xbf5b514f	-0.8567094
217	0xc01690af	-2.3525808
218	0x3f363ed1	0.711896
219	0x40278310	2.6173744
220	0x3f48fefb	0.7851407
221	0xbf3808fe	-0.7188872
222	0x3e9f5691	0.31120732
223	0x3ecb1cfd	0.39670554
224	0xbf60d50b	-0.8782508
225	0x3ef63d09	0.4809344
226	0xbed9ec05	-0.4256288
227	0xbf25c5fe	-0.6475524
228	0xbed4d91e	-0.41571897
229	0xbdcd91b0	-0.10037553
230	0x3db7a6a7	0.08967333
231	0x3e9c9f85	0.30590454
232	0x3e9b7bde	0.3036794
233	0x3dd2a01d	0.102844454
234	0x3e57a4f9	0.21059026
235	0xbe0683bd	-0.13136192
236	0xbd531245	-0.051531095
237	0xbd9607e1	-0.073257215
238	0x3e17d0e5	0.1482578
239	0xbe090223	-0.13379721
240	0x3f57ab40	0.8424568
241	0x3f920a3f	1.1409377
242	0x3f7db83a	0.9910923
243	0x3d8b7cc8	0.068109095
244	0x3e0a905c	0.13531631
245	0x3f93a7d3	1.1535591
246	0xbe53f4fc	-0.20698923
247	0xc0d2ee7b	-6.5916114
248	0x4099137a	4.7836275
249	0x3ffa2b36	1.9544437
250	0xbf36d482	-0.7141801
251	0x3fa36f2d	1.2768303
252	0x3fb87746	1.4411399
253	0x3f69b074	0.9128487
254	0x3d6de355	0.05807813
255	0xbe319ad8	-0.17344224
