primitives/ant_low_torque/right.pt (torch, 920169 bytes, 18 tensors)

weight f4 [256, 27]
00000000: f376 773e fac7 60bd 263f 6340 34e9 0340
00000010: a6d8 c5bf cffe 573d 6d6a 4a3f 30bc d4bd
00000020: a1a6 e03e 1c68 ed3f e6b3 153f cebe 773f
00000030: 7e09 7abf 822b 61be ca23 af3f 8d56 86bd
00000040: fa6d 0a3f 9618 763e bfe4 823e 1b36 f93d
00000050: e170 abbd f4ae 40bd da95 433e b963 f4bd
00000060: d127 673d f30b 003e 86d2 71bd b138 b13f
00000070: 870d 01be 4a1d 5dbf 798c e83f a768 e13f
00000080: b5e2 8f3e 85bd e1be 01bd 213f cced c6be
00000090: 61bd cf3f 49d9 713f 6020 91be 548f 4c3e
000000a0: 7330 ad3d 36aa 233e f127 693d 337b 63bc
000000b0: dc23 873d e7cf e03d 69e2 473d b8c6 3fbd
000000c0: 45e1 46bd f98d e2bc 39ef c83e ce1e aa3d
000000d0: be0c b43c 271d 783d c358 67bf 3a2b 8bbf
000000e0: 7892 3ebf 2041 e8be 17fa 05c0 f647 bcbe
000000f0: 2cd1 25bf 5ea9 7e3f 8f11 b43f 8a25 03be
00000100: c3db 863f 21ae 73bf bfda 93bf 930d 49bd
00000110: c851 803f 8c6f 6f3f d23d fc3e 56d9 84be
00000120: 91b0 b33e 085c 053f a1a9 333e 6165 ec3c
00000130: aba0 ff3e e50a 253d f7b5 8bbd 5d75 97bc
00000140: 2425 00bf 2851 783e 30ae 8abe 71f1 b3be
00000150: 9d81 3ec0 60a9 a9bf fe5a a43f c145 c4be
00000160: 0e41 bfbf 1b56 3d3f 205e e33f 4f7b ef3e
00000170: e378 eb3e 24be 503e 79d4 7f3e cd94 e93d
00000180: c347 c8be 3b3a ddbd 0471 b13d d981 ad3d
00000190: e995 943e 76e4 ad3d 599e db3d 2041 4fbd
000001a0: 9775 08bd ab52 563d 2df1 f83b f2ee 4fbc
000001b0: 5125 5fbf 4cf8 60bf 55d1 f9bf 28c6 8ebf
000001c0: 3162 f9bf 14eb 83bf 0ce5 89bf f1d6 c1bf
000001d0: 8201 0040 a136 febe fa86 393f 17b3 d33e
000001e0: a19e afbf c1f6 963f 3682 883f 44c7 75bf
000001f0: 32c3 81bf bb37 e5bd 6589 953f 559b 563e
00000200: fe7f 903e 0628 abbc 0123 d73e 4cff ca3e
00000210: a34a 893d c97b bb3d e9ba 0ebf 3c95 32bf
00000220: aa0f 9a3e 4aec 2e40 ff77 4340 7d1e 603f
00000230: 98e8 c93f 2da2 11bf 7f37 41bf bb79 5dbe
00000240: 1dfa 4fbf 2205 5cbf b681 7f3f a1ad 57bf
00000250: 0ef0 aa3e 10ca 423e 248c 343e 7fc0 903e
00000260: 39e6 dd3e 22a2 633e 5e6b c33d ac8f 403d
00000270: 0b18 d83d c655 ac3d 1550 ddbd bf62 ccbd
00000280: f866 05be 4d77 19bd e2ce 41bf 76ff 0fbf
00000290: 10de 7e3d 1ccb 36bf 64ee 25be 4060 033f
000002a0: 9996 2ebf 2b17 883f 5f39 d93e 7f05 7e3d
000002b0: 123f 283f 00b8 303e b6a3 49bf 426b 523e
000002c0: 4a2f 3f3e fd27 49bd 1ac4 66be be1e 53bd
000002d0: 3c2b 28be abf2 d7bd e3c2 a53e 960c 48bd
000002e0: becd b8bc 5589 f7bd 4bcf cf3d 73b0 713c
000002f0: e5ca 57be 313b c53e 7caf 3f3f 55cb e6be
00000300: 58d7 28c0 fcd5 5cbf ad70 8ebe d246 12c0
00000310: 9b0b 47bf 4ebf b2bf 11a0 ea3e 3590 a13e
00000320: bc53 963e 54b6 0a3f c44a 13be e4b4 e63d
00000330: 9850 0b3d 0996 0ebc b56c 37be 3ad7 c5bd
00000340: 642a 4d3d a8f0 07bf efc0 153d 9444 babe
00000350: 61ad 503c 30e6 ce3c 0850 29be 4749 643c
00000360: 6a38 dfbf ffe8 a2bf 0c90 6abf c9f5 7ebe
00000370: 9237 a2bf 03b2 a6bf 18c5 f9bf e416 1d3f
00000380: e5d1 0e3f baf4 ad3f f519 3b3e b9a3 07bf
00000390: 336a cebf 9f71 a83e 8fce 0d3f 73c4 0a3e
000003a0: 5be9 ea3d 45b4 743e ca96 dabe bee8 3fbe
000003b0: 8dbc 17be 60c8 43be 6c42 48be d992 2bbe
000003c0: 232c 073e a85b 513a e54a a2bd d071 d2bf
000003d0: 51cf 953f 4924 1940 f2b8 6e40 51a4 39c0
000003e0: 2baf 023f 5e21 98bf dc21 91bf 29eb 873e
000003f0: d544 f8bd e8a5 e23e 7db8 0cc0 31b0 dd3e
0.2416647 -0.054878213 3.5507293 2.0611086 -1.5456741 0.05273324 0.7906864 -0.103874564
0.43877128 1.8547397 0.5847763 0.9677552 -0.97670734 -0.21989253 1.3682797 -0.06559477
0.5407406 0.24032816 0.25565144 0.12168523 -0.08371139 -0.04704185 0.19100133 -0.11933083
0.056434456 0.12504558 -0.05903866 1.3845426 -0.12602817 -0.86372817 1.8167869 1.7610062
0.2810265 -0.44089904 0.6317902 -0.388533 1.6229669 0.94472176 -0.28345013 0.1997655
0.084565066 0.15982899 0.056922857 -0.013884353 0.065986365 0.10977154 0.048799906 -0.046820372
-0.048554678 -0.027655588 0.39245012 0.08306657 0.021978732 0.060574677 -0.90369815 -1.0872567
-0.74442244 -0.45362186 -2.0933893 -0.36773652 -0.64772296 0.99477184 1.4067858 -0.12807289
1.0535816 -0.95187575 -1.1551131 -0.04908521 1.0024958 0.9352958 0.49265915 -0.25947064
0.35095647 0.52093554 0.17545177 0.028856935 0.49927267 0.040293593 -0.068218164 -0.01848858
-0.5005667 0.24249709 -0.2708602 -0.35145143 -2.976661 -1.3254814 1.2840269 -0.38334468
-1.4941728 0.7395951 1.77631 0.46773764 0.45990667 0.20385033 0.24983396 0.114053346
-0.3911725 -0.10802122 0.08664134 0.08472032 0.29020622 0.08490841 0.10723562 -0.050599217
-0.033315267 0.052324932 0.00759711 -0.012691246 -0.87166315 -0.8787887 -1.9517008 -1.1154222
-1.9483091 -1.0306115 -1.0773025 -1.514372 2.000092 -0.49651054 0.7247158 0.41347572
-1.3720285 1.1794053 1.0664737 -0.9600718 -1.0137694 -0.1119227 1.1682554 0.20957692
0.2822265 -0.020893108 0.42018893 0.396479 0.06703689 0.091544695 -0.5575395 -0.69758964
0.30090076 2.733172 3.054199 0.8754652 1.5774107 -0.56888086 -0.75475305 -0.21628468
-0.8124102 -0.8594533 0.998073 -0.8424931 0.33386272 0.19022393 0.17631584 0.28271863
0.43339708 0.22229818 0.09541963 0.047012016 0.10551461 0.084147975 -0.1080629 -0.09979772
-0.1302756 -0.03746729 -0.75706303 -0.5624918 0.062223494 -0.7140367 -0.1620422 0.5131874
-0.68198544 1.063207 0.42426583 0.06201696 0.6572124 0.1725769 -0.7876543 0.20548728
0.18670383 -0.0491104 -0.22535744 -0.05154299 -0.16422743 -0.10544332 0.3237525 -0.048840128
-0.022559043 -0.12086741 0.1014696 0.014751541 -0.21073492 0.38521722 0.7487714 -0.45077005
-2.6381435 -0.86264014 -0.2782034 -2.2855725 -0.77752084 -1.3964632 0.45825246 0.31555334
0.2936076 0.5418446 -0.1438399 0.11264971 0.034012407 -0.008702763 -0.17912562 -0.09660192
0.050089255 -0.5310159 0.03656095 -0.36380446 0.012736649 0.025256246 -0.16534436 0.013933486
-1.7439091 -1.2727355 -0.9162605 -0.24898447 -1.2673209 -1.3023075 -1.9513273 0.61363053
0.55789024 1.359031 0.1827162 -0.52984196 -1.612616 0.32899186 0.5539331 0.13551502
0.1147029 0.23896892 -0.42693168 -0.18741128 -0.1481802 -0.19119406 -0.19556588 -0.16755237
0.1320043 0.0007986375 -0.07924441 -1.6440983 1.1703893 2.3928397 3.7300382 -2.900654
0.51048535 -1.1885183 -1.1338458 0.265466 -0.12122504 0.442672 -2.1987603 0.43298486

bias f4 [256]
00000000: 3ee3 8abf 92c7 f0bd ef8a cdbf e149 6fbf
00000010: 852f b4bf 763c 6abf 39bc 38bf 0bbc ba3c
00000020: 8f59 92bf caf5 173d 0877 a6bf fcdb c8bf
00000030: 1fb8 873e 0a9e e9bf d24f 583e e629 cabf
00000040: aa28 4ebf b983 debf accc 73bf d53b 8b3e
00000050: 1912 80bf b58b a8bf f867 66bd eaab c3bf
00000060: b653 cdbf f358 a1bf 833b 80bf 2e40 9abf
00000070: 32b6 d2be 6850 cfbe 28e9 57bf 872b 90bf
00000080: 7b39 90bf 94f7 4fbf 761d 20bf 745f abbd
00000090: 6b6f 553f 2289 82bf cada 07c0 c865 ebbf
000000a0: e207 9cbf ad41 33bf aab1 43bf 1500 c4bf
000000b0: e088 f8bf 6f01 9bbf c5a8 abbf 32a8 f4bf
000000c0: 0a8c 1cbf dcea 57bf b638 6dbf 6e79 acbf
000000d0: 68b4 36be e4c9 20bf 911b 25c0 2b06 aabe
000000e0: ba78 d4bf b810 df3e a7e6 77be 1d4b bcbf
000000f0: b7f0 62bf a16b 98bf 7f8a f2bf 8096 babf
00000100: 9203 70bf e056 a7bf 6e8c 11c0 ae8d 80bf
00000110: 5d40 8ebf 57b4 e7bf c624 a33e a0ea 8fbf
00000120: 4c96 d9bf 2825 fbbe 17c6 633e 3ff1 8f3e
00000130: dc41 1fbf d94e fa3c bed1 40c0 a204 67bf
00000140: 4a3c a1bf 1806 41bf 5bab 4fbf 49ca 0cbe
00000150: 0694 a6bf 98ba 8ebf 1345 79bf f313 49bf
00000160: 9681 afbf 9925 06bf 20b7 ccbf 0b9a d4bf
00000170: 93dc b5bf 5cc5 08c0 b57e 1ebf 74f2 00bf
00000180: 8933 3bbf 0f8d 06c0 f64a b7bf a4e7 13bf
00000190: 91ec 64bf 962c 92bf 962c 3dbf 8faf debf
000001a0: 2f98 05bf 48f5 48bf b602 cdbd fbb5 a0bf
000001b0: 045b 8abf 935b 8bbf 6dd8 15bf ac70 03bf
000001c0: 771b 82bf e6ec eb3d 5ffb acbf 2848 dabf
000001d0: 15be 42bf 7ab0 c2bf 7da2 b5bf a665 02c0
000001e0: b1ca b7bf e4c9 6ebf 93ef 87bf 7b4e 70bf
000001f0: d18b aebf 5989 563d 02e7 bfbf b55a f3bf
00000200: cd5f 91be 6244 b3bf 0fba 8dbf 81c0 e3be
00000210: 6df4 d7bf 7246 a7bf 42fb 3b3f 4068 27bf
00000220: 67c5 f8bf 61fe 69be f826 85bf 7cb0 283e
00000230: c505 48be 1c26 7abf 31bf d0bf 2438 8abf
00000240: 29cc e3bf 65ce 0bbe e7a4 9bbf 4d98 68bf
00000250: 69d9 9abf 001f afbf 8ebb b5bf 1905 f3be
00000260: 0175 f43d 7244 00c0 8ea6 78bf bf6f a4bf
00000270: e4c5 dabf 52a5 71bf 5f47 88bf 731a aebf
00000280: e4e2 37bf 749e bebf ddfb fabf 8e5b 8ebf
00000290: 1647 d2be 201e 7cbf b73e 9abf 24ff b2bf
000002a0: 91a8 943d 8480 d5bf c2ad cbbf ee60 c0bf
000002b0: 162c 9bbf debf 2cbf 6987 bebf 7b9a b8bf
000002c0: f059 97bf b8ed a6bd 868a bcbf 4999 cdbf
000002d0: 8fa2 8fbf 9b64 afbf 8b9b d0bf 9656 fcbf
000002e0: 0fda a8bf cff4 783d 8bdd c8bf 62a9 20bf
000002f0: 57f7 b4bf be96 41bf 3300 4abf b6a1 b4bf
00000300: 7807 f4bf 1a7a 97bf 8316 c4bf ed45 cdbe
00000310: c5e5 4fbf fcb8 babf 702e a0bf 38ed b6bf
00000320: 2d7c afbf fbf7 82bf 8f07 173d 3a65 58be
00000330: 6b05 93bf 7b88 88bf d015 f7be 54e1 1dbf
00000340: 682b b1bf d5fa 08bf cef7 eabf 16f1 fcbe
00000350: 6122 dfbe e98f 843e f581 a9bf 799c a2bf
00000360: f304 81bf 61ab b0bf 093d d9bf c91c 9fbf
00000370: 3d13 9bbf e0d7 c7bf 3679 79bf a346 10be
00000380: a386 44bf c457 fcbf 4321 0cbf 7c6a bbbe
00000390: c190 cfbf 5bef 98bf 068c 26bf abe4 86bf
000003a0: 7bd5 6fbf 1aca 98bf 6540 94bf d92c 6cbf
000003b0: b170 bfbe bf91 d2bf 6877 b1bd 43aa 40bf
000003c0: d9bd b2bd d5c1 9bbf 0927 cebf a2ec 96bf
000003d0: 5b4b 05bf 1984 68bf cafb 8fbf a2ca babf
000003e0: 2fbe ddbf b4d5 52bf fe77 2fbf e5a1 ccbf
000003f0: 8f6c d9bf 92fa b8bf 2b0e b3bf 19f5 58bf
-1.0850599 -0.11756815 -1.6058024 -0.93472105 -1.4077002 -0.91498506 -0.72162205 0.022794744
-1.1433581 0.037099637 -1.3005075 -1.5692134 0.2650766 -1.8251355 0.21124199 -1.5794036
-0.805308 -1.7383949 -0.9523418 0.27194086 -1.0005523 -1.3167635 -0.056251496 -1.5286839
-1.6041172 -1.260527 -1.0018162 -1.2050836 -0.4115463 -0.40491033 -0.84340143 -1.1263283
-1.1267542 -0.8123715 -0.62544954 -0.083678156 0.83373135 -1.01981 -2.1227288 -1.8390436
-1.2189906 -0.7002209 -0.7644297 -1.5312525 -1.9416771 -1.2109812 -1.3410879 -1.9113829
-0.6115118 -0.8434274 -0.9266466 -1.3474557 -0.17842257 -0.6280806 -2.5798075 -0.3320783
-1.6599343 0.43567443 -0.2420908 -1.4710423 -0.8864855 -1.1907846 -1.8948516 -1.4577179
-0.9375545 -1.3073387 -2.2741961 -1.0043237 -1.1113392 -1.810191 0.31863993 -1.1243477
-1.6998992 -0.49051785 0.22243534 0.28113744 -0.6220987 0.030555176 -3.0128016 -0.90241444
-1.2596524 -0.75399923 -0.8112084 -0.1374904 -1.3013923 -1.1150694 -0.97371024 -0.78546065
-1.3711421 -0.5240112 -1.5993385 -1.660951 -1.4207939 -2.1370459 -0.6191209 -0.50369954
-0.7312551 -2.1023595 -1.4319751 -0.5777533 -0.8942347 -1.1419857 -0.7389616 -1.7397326
-0.5218534 -0.7849927 -0.10010283 -1.2555536 -1.0809026 -1.0887321 -0.58533365 -0.513438
-1.0164632 0.11519794 -1.3514212 -1.705327 -0.7607129 -1.5210106 -1.4190212 -2.0374541
-1.4358732 -0.9327681 -1.0619987 -0.9386975 -1.3636419 0.05237708 -1.4992373 -1.9012057
-0.28393403 -1.4005244 -1.1072406 -0.44482806 -1.6871468 -1.3068373 0.73430264 -0.6539345
-1.9435242 -0.22850944 -1.0402517 0.16473573 -0.19533451 -0.977144 -1.6308347 -1.0798383
-1.779668 -0.13652952 -1.2159699 -0.9085739 -1.2097598 -1.3681335 -1.4197862 -0.47464827
0.11936379 -2.0041776 -0.9712914 -1.2846602 -1.7091641 -0.94392884 -1.0646781 -1.3601822
-0.7183058 -1.4892106 -1.9608113 -1.112169 -0.4106986 -0.9848347 -1.2050389 -1.3984113
0.07258714 -1.6679845 -1.5912402 -1.502958 -1.2122829 -0.67480266 -1.4885074 -1.4422144
-1.1824322 -0.0815081 -1.4729774 -1.6062404 -1.1221484 -1.3702577 -1.6297468 -1.9713924
-1.3191546 0.060780343 -1.569261 -0.6275846 -1.4137982 -0.7562064 -0.78906554 -1.411185
-1.9064779 -1.1834137 -1.531937 -0.40092412 -0.81209975 -1.4587703 -1.2514172 -1.4291143
-1.370977 -1.0231928 0.036872443 -0.21132365 -1.1486028 -1.066665 -0.4825883 -0.6167195
-1.3841372 -0.5350774 -1.8356874 -0.49402684 -0.43580917 0.25891045 -1.3242785 -1.2704002
-1.0079635 -1.3802301 -1.6971751 -1.243066 -1.2115246 -1.5612755 -0.9745058 -0.14089446
-0.7676794 -1.9714284 -0.54738253 -0.3660468 -1.621605 -1.1948045 -0.6505741 -1.0538534
-0.9368512 -1.1936677 -1.1582152 -0.9225593 -0.37390664 -1.6450728 -0.08665353 -0.752598
-0.08727617 -1.2168528 -1.6105663 -1.1790965 -0.5206811 -0.90826565 -1.1248715 -1.4593089
-1.7323664 -0.82357335 -0.6854247 -1.5986906 -1.6986254 -1.4451468 -1.3988699 -0.8474899

weight f4 [256, 256]
00000000: ee5b afbd ad5e 92bd df1e d33b 70e1 dbbc
00000010: b8ba 093d 1680 fbbc cdf9 0c3d bf69 033a
00000020: 2417 29bd e51c 8cbc edfa a7bd fbdc 26bd
00000030: 4007 57bd 5fcb 0dbc 0d36 99bd 5205 653c
00000040: 4ff7 c5bd 22a4 2dbd 802a 91bc 4c37 00bd
00000050: ca7f 7bbd 5aad 183d 186f 39bc 5478 bebb
00000060: a223 ccbc 31f9 84bd 898f cdbc dfd3 6c3d
00000070: 26a1 9dbd 1d28 843c 3cea 503d ef35 1bbd
00000080: c82f 313d f147 09bd 54b4 5abd 661e 96bc
00000090: 0ce0 85bd 7712 81bd 0c7e 8fbd 6a8c 94bc
000000a0: 8073 3bbd 695d a6bd b592 dabd 09dc ca3c
000000b0: 846d 2ebd 9ee7 4a3c 87d4 9fbd e998 67bc
000000c0: 4c2f 0cbd e24b 02bd 7f02 953c 11e2 e23c
000000d0: e1e8 36bd d16a 1cbd 49df cabd 7d77 fcbc
000000e0: b40d 943c e2a9 d8bd d42d 9b3b 3e58 31bd
000000f0: 7c5f d73b bafd 67bc 1595 e9bc fbaa 67bc
00000100: 65e7 983c 6503 c63c 6746 993c d8b7 c9bd
00000110: 8882 013d 52fe 9fbd 6cc1 ef3a 2cd0 cb3c
00000120: 5e00 81bd 7dd7 fdbc 1cde 87bc 9ce8 15bd
00000130: 7e19 023d 918d a6bc 4e1c 71bd 6e0c b4bc
00000140: d03b 15bd 18a3 ecbd 8d67 c23c 6ad5 8abd
00000150: e93c f03c 6e2e 1f3d 8644 39bc d6d8 053d
00000160: 9ae3 d9bc 88ae 113c 5dee 1fbc e38e 79bd
00000170: 3efd 7cbd 212e 47bd 3ef9 013c 6df7 35ba
00000180: f3cb 29bd be2b 673c c296 063d d258 823c
00000190: dd94 143c 71a5 5a3c 337a 7cbc 2322 b7bd
000001a0: 79a1 e2bd 8ce4 9dbd 89a4 86bd 730a be3c
000001b0: b7dc 07bd 58a7 80bd cea5 18bc d4bb 90bc
000001c0: 0de6 3abd c246 93bd f653 0abd 5a63 a1bc
000001d0: 6033 fbbc 0939 47bd a849 49bd 46a7 19bc
000001e0: 87c9 9ebd 3e9d 7bbc ab09 91bc e6a6 7f3c
000001f0: d33f 41bc 11b8 1d3d fadb 6c3c d216 8abd
00000200: 59db db3c 1489 6bbd dcc5 86bc eff1 0d3d
00000210: e931 893a 93ae a23c 40ec 91bd 6bb2 303d
00000220: b6ba c1bd 1f8a 063d b9da c3bc 4b86 04bd
00000230: 1eba 023a bf35 6fbd 0bc2 743d 125b 5ebd
00000240: 6383 1e3d cced 5fbc d01e 15bd e641 bd3b
00000250: 21bb 303b dd16 2abd 33c9 92bc a58e cebd
00000260: 1220 72bd 5352 6bbd ad0d 42bd 2199 43bd
00000270: b050 07bd 00ca 87bd 70b9 dbbd 5136 36bc
00000280: 594c 5bba ef6b 00bd 2ee2 93bd 1f3b a33c
00000290: f42b 53bd 8752 d6bc b565 5dbd 5874 153d
000002a0: a580 14bd 65ee 1b3d 0818 74bb d267 31bd
000002b0: 4004 81bd 5964 72bd d0f4 a33c 2578 ca3c
000002c0: c8f8 243d e2b8 99bd de6b 67bd 5263 8cbd
000002d0: 3f89 babc 4c2a 13bc a638 3dbd 4df3 8abd
000002e0: 1a5e 15bb a1ea 0cbd b619 41bd 4b5d ccbc
000002f0: 59c7 25bc bba1 abbd 9792 33bb 5220 853c
00000300: c13d fcbb 9acb 0fbd 1c67 2c3c 3eb5 3d3c
00000310: e24e 3ebd 3e5c 71bd be10 4c3c 2d0d e5bd
00000320: a6ad b4bb d94c 80bd 836d 80bd 8787 eebc
00000330: 0e45 48bd fb3d 1f3d 97c1 88bc bbf9 d9bd
00000340: 5c8a bc3c e587 9abd 9a37 133d fd53 e0bb
00000350: 1732 9aba 683c 79bd 9df8 2d3d 62f1 86bc
00000360: c794 4ebd be3d a6bd ec13 36bb ae3f b5bd
00000370: 2788 9b3c 2e44 8ebc f535 f73c f6de 4f3d
00000380: ac31 1bbd 13e9 86bc 74d1 013c 5ff8 7b3c
00000390: b77e 153d 52fe 6bbd 1f69 4abd 0b13 92bc
000003a0: 0dec f13c e227 1dbd d18a d7bb 7306 8abd
000003b0: ff10 32bc 246a 463d f0a3 d1bd 188b f83b
000003c0: 63bd 85bd bf88 30bd 1b71 593d bf0b 45bd
000003d0: 0ba1 06be 18c2 0cbd beb4 203b 7c63 0abd
000003e0: 0b25 1ebd 0166 22bd aa8f 523c 478e 93bd
000003f0: f3f9 293b a3c1 d6bc b6db 673d e168 343c
-0.08562456 -0.07146964 0.006442889 -0.026840895 0.033625335 -0.030700725 0.034417916 0.0005013011
-0.041281834 -0.017103622 -0.08202157 -0.040738087 -0.05249715 -0.0086544445 -0.074810125 0.013978319
-0.09666311 -0.042392857 -0.01772046 -0.031302735 -0.061401166 0.037274696 -0.011317991 -0.005812684
-0.024919335 -0.06492842 -0.025092857 0.057819244 -0.07696752 0.016132409 0.051004633 -0.037893232
0.04325846 -0.033515874 -0.05339463 -0.018325042 -0.06536874 -0.0630235 -0.070064634 -0.01813336
-0.045764446 -0.08123285 -0.106725134 0.024763124 -0.04258491 0.012384323 -0.07804208 -0.014135578
-0.034224793 -0.03181065 0.018189667 0.027695687 -0.044655684 -0.038187806 -0.099058695 -0.030818695
0.01807294 -0.105792776 0.0047356877 -0.043297045 0.006572662 -0.014159614 -0.02851347 -0.014139886
0.018665025 0.02417154 0.018710328 -0.098495185 0.031618625 -0.078121796 0.0018291897 0.024879538
-0.06298898 -0.030986542 -0.016585402 -0.036598787 0.031762592 -0.020331176 -0.058864884 -0.021978583
-0.036433995 -0.11554545 0.023731017 -0.06778987 0.02932592 0.03886264 -0.011307841 0.032677494
-0.026597787 0.008891709 -0.00976142 -0.060927283 -0.061764948 -0.048627976 0.007932959 -0.00069414714
-0.041454267 0.01410955 0.032858618 0.015911493 0.009068695 0.013345108 -0.015409994 -0.08942058
-0.11065955 -0.077096075 -0.06574351 0.023198342 -0.033169474 -0.06281918 -0.009316875 -0.017667688
-0.04562955 -0.0719123 -0.033771478 -0.019700695 -0.030664146 -0.048638377 -0.04914251 -0.00937826
-0.07753282 -0.015357314 -0.017704805 0.0156037565 -0.011795002 0.038505618 0.014456743 -0.06742634
0.026837992 -0.057503775 -0.016451769 0.034654554 0.0010467145 0.019858634 -0.07125139 0.043138903
-0.094594404 0.032846566 -0.023908006 -0.032354634 0.000498684 -0.058400866 0.059755366 -0.05428607
0.03869952 -0.013667535 -0.03640634 0.005775678 0.0026967006 -0.04152571 -0.017918205 -0.10085801
-0.059112616 -0.057451557 -0.047376323 -0.047753457 -0.033035934 -0.06630325 -0.10728729 -0.0111213485
-0.00083655637 -0.031352933 -0.07220875 0.019925652 -0.05155559 -0.026162399 -0.054052074 0.036487907
-0.036255497 0.038069148 -0.003724577 -0.0433119 -0.06299639 -0.05917773 0.020014197 0.024715493
0.04027632 -0.07505967 -0.056499355 -0.06854881 -0.022770522 -0.008982252 -0.046196602 -0.06784687
-0.0022791685 -0.034403447 -0.04714366 -0.02494683 -0.010118329 -0.08380457 -0.0027400607 0.016250763
-0.0076977913 -0.03510628 0.01052263 0.011578856 -0.046461947 -0.05892586 0.0124551635 -0.11184154
-0.0055138646 -0.062646575 -0.06270888 -0.029117359 -0.04889398 0.03887747 -0.016693873 -0.106433354
0.023015194 -0.07545451 0.035941698 -0.0068459497 -0.0011764196 -0.060848624 0.042473424 -0.016472522
-0.050434854 -0.08117245 -0.002778287 -0.088500366 0.018985821 -0.017366495 0.030177096 0.05074974
-0.037889168 -0.01646856 0.007923473 0.0153790405 0.036497798 -0.057615586 -0.049416658 -0.017831346
0.029531503 -0.038368113 -0.0065778275 -0.06739511 -0.01086831 0.048441067 -0.10236347 0.0075849406
-0.06530263 -0.04309916 0.05308638 -0.048106905 -0.1314737 -0.03436479 0.0024521793 -0.033786282
-0.038609546 -0.03964806 0.012851635 -0.072048716 0.0025936335 -0.02621538 0.056606017 0.011011333

bias f4 [256]
00000000: d41f 69bd 2aca 2dbe 3873 ec3e 8a9d 51bf
00000010: fd91 f2be 15d4 54bf aef2 b2bf 0a77 00be
00000020: 0321 7fbd d75d e3bd ae01 0fc0 ac1d 23bf
00000030: 1062 d5bf 5d3b 06bf ec71 bdbf 7418 dfbf
00000040: f3df b8bd 1cc6 34be 047b 56be 6e68 253f
00000050: ed41 80bf 86a8 cdbc cc16 d43e 0845 8ebf
00000060: db85 e7bd 449d cabf 8cf1 70ba a715 7fbf
00000070: cec7 0bbf 6e19 9abf b215 8ebf 4dbb c2bd
00000080: eea0 db3f a5f3 423f b543 8cbf 3f2b 57bf
00000090: 48c2 a83f b795 ae3e 8e49 c8bf 045b 9fbd
000000a0: a5d9 06be 5355 bebe 1a0f 35be 8828 13bf
000000b0: f53a 56bd 1d73 88bf a259 243e 7a85 a2bd
000000c0: 010d 15bf 2904 14be 6993 e1bd aa6d 6f3e
000000d0: 084c aebd 3797 15c0 15e0 ad3f 7c10 3c3f
000000e0: 338d b3bd a0d8 04bf c9da c5bf 6578 2dbf
000000f0: ee31 d9bd 91d8 4ebe e400 a6bf 91a1 073f
00000100: 125b d1bf 1c21 ecbd 5f0e 283e 2d99 51bf
00000110: da3e 05be f377 a6be c864 75bd af4b 65bf
00000120: 91b3 87bf 2069 57be 4deb f4bd 668b 5d3e
00000130: 1053 9a3f 533f 94bf 479e adbe 9bda 033f
00000140: fe0f 963f 0920 e23e 7248 43bf 2225 f6bd
00000150: 229d b3be 80bb cabd f561 5a3e 78ae 213f
00000160: dd6a 4bbf 6290 dcbf 0195 01be cecf dfbd
00000170: 1032 d3bf e6ed 6abd 2c7e 5f3f 2e83 20be
00000180: 9429 c9bd 2c52 92be 9233 02bf 88c5 e6bd
00000190: b84a 14bf 6858 d3bd 5f23 b83e 7e98 efbe
000001a0: f16d 77be b462 debd 4f7e b2bd 3425 94bf
000001b0: 682a 0fbe 2ec0 56bd 7486 e0bd 440c 1a3f
000001c0: 6bf3 853e add8 6abd 30ad e9bd 82b0 03be
000001d0: 4773 7b3f 0696 cfbd 69a1 783f 162a 02be
000001e0: 6a23 fa3d 1ea3 8c3e 44c4 01bf e7c6 01be
000001f0: 30dd ddbf 1cbf afbc 81b3 a33e 2103 d1bf
00000200: 2d84 1b3e 3b83 e9bd a82f cc3e a8c2 ae3e
00000210: b960 14be 0e2a f9bf 011b a1bd 5a1b e0bd
00000220: 161b 60bf d084 d1bd fe49 9e3d d7fb d2bd
00000230: 7c62 473f 7ed3 27bf 1674 2fbf 8ed9 c33e
00000240: 0d65 87bf a001 32be 0e29 743e 5e9a efbd
00000250: e504 bfbf 0d87 b1bf a36e fabc 9f22 163b
00000260: dd36 b1bd de9d 1bbe 8739 d0bd 4303 02be
00000270: 639b 4a3e 7780 ef3e 2e51 4fbf 53c5 20be
00000280: 1ffe f3bd c4f3 f1be 062b af3e a050 a4bd
00000290: 74d2 2ebe 884a adbd 567c 09bf 71c0 4ebe
000002a0: e2e1 23be c779 823f 61e0 50bf 56d4 1cbe
000002b0: e3d2 86bd ae3c d0bc 6f0e 1dc0 b839 bdbf
000002c0: 888f 83bf 0b3a 28be 7694 11c0 0723 88bd
000002d0: 9861 1f3f bb94 61bf 93a9 f2bd 540a f9bd
000002e0: fdf8 cfbf 4737 e3bd 1141 b63e b1dd 9ebd
000002f0: b35b 02bf d28c 3bbf b245 f9bd 9bad 9abe
00000300: d7f6 50bc 964d f5bd 7330 96bd bffe dbbd
00000310: cc36 eabe 12f0 a0bd 1c17 6e3f 6165 25be
00000320: b3d2 81bd 4d40 81bd 87a6 f9bd 7c50 d6bd
00000330: fe0f abbd a58a 71bf d543 0abd aee2 fabe
00000340: 846e 25bf a780 82bd f4c6 9fbd e8e8 ce3d
00000350: bf26 08c0 0901 abbd 9086 b0bc 3228 2cbf
00000360: 97ed dc3e 9caa 33be 1112 44bd ac36 b4bd
00000370: 28ff b8bd a451 b23e 4a8a a2bd 1bea 70bf
00000380: 9ce2 583f 41a0 92bd 4de4 bebf 36a6 99bd
00000390: 5b66 99bd 847d 89bf e325 8e3e ce23 abbf
000003a0: cc6b c63e 26a3 3ebe aa32 163f fd85 843e
000003b0: b93c 91bf 8211 1fbf 0c2c babf 431f 00be
000003c0: 0f5e bcbd 4ee0 5abf e88f f2bd 1897 8fbf
000003d0: e55c 02c0 a102 933f f7ac 89bf 7e89 4bbf
000003e0: fba9 d8be 80bb 8dbf 2d28 27be 4a77 6f3c
000003f0: 4dd5 2cbe caa2 e5bd 9980 393f 6d8e 16bf
-0.05691512 -0.1697165 0.46181655 -0.8188101 -0.47377005 -0.8313611 -1.398031 -0.1254541
-0.06228734 -0.11101883 -2.2344775 -0.6371715 -1.6670551 -0.5243433 -1.4800391 -1.7429338
-0.0902709 -0.17653698 -0.20945364 0.6461247 -1.0020119 -0.025104772 0.41423643 -1.1114817
-0.11304828 -1.5829244 -0.0009191267 -0.99642414 -0.5460175 -1.203901 -1.1100371 -0.09508381
1.7158487 0.7615302 -1.0958163 -0.84050363 1.318429 0.34098598 -1.5647447 -0.07781032
-0.13168962 -0.37174472 -0.17681542 -0.5748372 -0.05230232 -1.066013 0.16049817 -0.07935615
-0.5822297 -0.14454712 -0.110144444 0.23381677 -0.085105956 -2.3373544 1.358401 0.73462653
-0.08767166 -0.51893044 -1.5457393 -0.6776183 -0.106052265 -0.20199801 -1.2969022 0.52980906
-1.6355917 -0.115297526 0.16411732 -0.8187435 -0.13012257 -0.3251339 -0.059910566 -0.8956861
-1.0601674 -0.21036196 -0.119589426 0.21635208 1.2056599 -1.1581825 -0.3390982 0.5150544
1.172363 0.44165066 -0.7628242 -0.12018801 -0.3508082 -0.09899044 0.2132643 0.63156843
-0.79459935 -1.7231562 -0.12654497 -0.109283075 -1.6499653 -0.057355784 0.873019 -0.15675041
-0.098223835 -0.28578317 -0.5085994 -0.11268145 -0.5792651 -0.103195965 0.35964486 -0.4679603
-0.24163033 -0.1085867 -0.08715498 -1.1573853 -0.1398102 -0.05242937 -0.10963145 0.60174966
0.26162276 -0.057335544 -0.11409986 -0.12860301 0.98222774 -0.101360366 0.9712129 -0.12711367
0.12213786 0.274682 -0.506901 -0.12673531 -1.7333126 -0.021453433 0.31972888 -1.632908
0.1518714 -0.11401983 0.3988011 0.34132886 -0.14490022 -1.9465959 -0.07866479 -0.10942717
-0.8754133 -0.1023041 0.07728957 -0.10301941 0.7788465 -0.65557086 -0.6853651 0.3825192
-1.0577713 -0.17383432 0.23843786 -0.11699365 -1.4923369 -1.3869339 -0.030570334 0.002290882
-0.086530425 -0.1519694 -0.101672225 -0.12696557 0.19785838 0.46777698 -0.80983245 -0.15700273
-0.11913704 -0.4725629 0.34212512 -0.080231905 -0.17072469 -0.08461481 -0.53705347 -0.20190598
-0.16004136 1.0193413 -0.81592375 -0.15315375 -0.06583192 -0.02541956 -2.454006 -1.4783239
-1.0278177 -0.16428392 -2.2746863 -0.06647306 0.6225829 -0.8811757 -0.1184875 -0.12160173
-1.624786 -0.11094528 0.35596517 -0.07757128 -0.5092117 -0.7326175 -0.121714965 -0.30210575
-0.012754164 -0.11977689 -0.0733346 -0.10741948 -0.45744932 -0.0785829 0.9300401 -0.16151954
-0.06339016 -0.063110925 -0.12189966 -0.1046457 -0.0835266 -0.9435218 -0.033756096 -0.49001068
-0.6462176 -0.06372195 -0.07801619 0.10103017 -2.1273649 -0.08349807 -0.02154854 -0.67248833
0.43150017 -0.17545551 -0.047868792 -0.0879949 -0.09033042 0.34827912 -0.07936533 -0.94107217
0.8472078 -0.07159472 -1.4913422 -0.07502405 -0.07490226 -1.0741429 0.2776328 -1.3370302
0.38754117 -0.18616924 0.5867106 0.25883475 -1.1346656 -0.6213609 -1.4544692 -0.12511925
-0.09197628 -0.8549851 -0.11843854 -1.1217985 -2.0369198 1.1485177 -1.075591 -0.7950667
-0.42317185 -1.1072845 -0.1632392 0.014615843 -0.16878243 -0.1121269 0.7246185 -0.58811074

weight f4 [8, 256]
00000000: 1462 a6bd 438f 3cbd c2ac d23d 60fe 2d3d
00000010: 8738 603c c16a 273e 190e 3abe 61e1 ca3a
00000020: 647a 09bd 0c44 76bd 1419 a3bd 8389 703e
00000030: 4b73 7a3d 7489 abbb 3a6b 3cbe 4f32 25bd
00000040: bea6 fe3c c788 213d 284a 95bb 1971 25bd
00000050: 4565 293e e3c4 97bb b0fe 86bc d863 d33e
00000060: 23e4 463c 94f1 85bc 7885 b73c 1844 4f3e
00000070: 91c9 02bd 8702 973c 922c 7c3e fb39 35bd
00000080: 994b b3be 069c 3b3d 2c14 83bc 2f14 90bd
00000090: 56f9 4c3e ffdc 793d a4a6 cbbd 0878 e63b
000000a0: 05f0 813d c05e 303d fc04 9cba fcc9 a83d
000000b0: 377a eb3c 77c7 913b 9a0a 13bd 9a7c 82bd
000000c0: 91f9 b43e 7203 2b3d 18d6 d33c c4ea 86bc
000000d0: 562c 673c 3174 ed3e 34b1 883d 9e9e 663d
000000e0: 0335 f2bc 29c6 73bd bff8 70be 92a6 0bbe
000000f0: 7794 93bc 7f2a 27bc b74d 523e 3caf 07be
00000100: 2440 0cbd b185 cd3c c8df 1b3c a6b5 633e
00000110: 7362 d2bb 6ce8 80bc 7159 173d 2389 a83e
00000120: 3771 43be 7f1c 823c 768e 2c3c 23a6 0abd
00000130: 7760 83bd bd4b dcbd d8fd 5b3d d76d bc3d
00000140: af69 e4bc 1236 86bc f336 e13d 9b4c 6b3d
00000150: 51a3 ea3d 3f7c bdbb 437e 69bc f645 77be
00000160: 7940 b43d 3d94 a5bd 07f3 03bd 64af 973d
00000170: 9149 603d 27a3 3c3d 1424 033e 5100 dcbc
00000180: de8a 00bb 2cdc 53bd 1f9a 3a3c 38dd 443b
00000190: 98b9 0fbd 8764 67bd 864e 6e3d 27ce eb3b
000001a0: ddf3 6e3c 649b 723a 6186 8c3d c0a7 3f3d
000001b0: 0789 40bd 0ce3 efbc a392 aabd 8e2f 893d
000001c0: 7534 43bc ea77 863d 596b e6bc b6e5 773d
000001d0: c1ce b23d a82d 2d3b 2211 073f 8a58 ff3b
000001e0: 1a8f 5d3c 132a 153b 73e2 12bd bd55 013d
000001f0: 4e27 593d 8f6b 73bb eaf9 8dbd c1f7 3a3d
00000200: 795f f53b c727 10bb a888 deb9 59ac 98bd
00000210: da77 edbb 25af 93bd f618 1e3c 3625 163d
00000220: 82e2 be3d b151 d43c 0713 623e 9db6 58bd
00000230: 772d 9a3b d79f 0dbe ca1a fc3c 63a1 0b3c
00000240: bb2d 8fbd b494 acbc ff4c 29bd 5ccd 1ebc
00000250: d252 9ebe 5408 74bd b4d2 69bd ab21 1bbd
00000260: 6794 443d c0d8 d7bc e993 24bd 0ef0 f4bc
00000270: a7fc 2fbd e972 a239 7c46 6dbd ce11 8cbc
00000280: 26aa 7bba 35fb 663d ae3d c1be 7df2 03bc
00000290: 98cb bc3c bfad 9cbc 1d96 413e 4bcb a83c
000002a0: fca7 87bc 0628 f6bc a6b3 893e d971 20bd
000002b0: cf04 19bd fe11 4f3b 7e44 cb3d 2294 c83c
000002c0: 1793 e8bc d3aa 613a 8ebc 623c f8de 453d
000002d0: 0676 06bd f4ee 953e deec 43bd 4ce4 293c
000002e0: bc53 54be f5c7 a23c 8e3c b7bc f589 4bbd
000002f0: 33b2 02bb 4ba4 cd3d d637 3a3d b1ae 103e
00000300: 53ae 533c 2856 203d 283c 9abc a612 9e3c
00000310: 0202 52bd 66c0 723c ca0f 93bd 5421 013c
00000320: 7aeb d83c 84a0 e0bc 0785 c7bd ec97 1d3c
00000330: c4a9 473e 37c9 19be a89b 1c3d d038 a7bd
00000340: 69c9 0bbe 346f d93b 8582 9abb 9c53 44bc
00000350: 14bb 3a3e f574 f73b 62df b13b e2d2 5dbe
00000360: 86a6 32bc 3795 46bd 89b4 483d 7301 daba
00000370: 6b80 383d 350f cfbc 27eb 9abc 71c1 e4bd
00000380: 58f8 b83d 6a3b 263c 7990 a33d 8ed0 9ebd
00000390: ba3b afbc 6037 82ba 4748 fa3d f30a 343e
000003a0: 6e30 5fbb b3ee d53d ee37 7a3c cee6 b6bd
000003b0: 8e1a b63d f0c4 663d 7ed0 02bb f676 61bd
000003c0: ea2c e8bb 3eeb 0e3e ef99 a53d 186b d6bd
000003d0: fa3f 6f3d d004 c3bd ed2d 10bd c824 d3bc
000003e0: cbd9 d8bb 3680 9b3e f33d 80bd 70ea 193c
000003f0: 7235 ab3d 898a 043c 5340 dabc 6fc5 01be
-0.08124176 -0.046035063 0.10286857 0.04247892 0.013685352 0.16349317 -0.1816944 0.0015478545
-0.033563986 -0.06012349 -0.07963768 0.23489957 0.06114511 -0.0052348915 -0.18400279 -0.04033118
0.031085368 0.03943708 -0.0045559593 -0.04039106 0.16542538 -0.004631625 -0.016478866 0.41287112
0.012139353 -0.016350545 0.02240251 0.2024082 -0.03193051 0.018433822 0.24626377 -0.044244748
-0.35018614 0.045803092 -0.01600083 -0.070351 0.20016989 0.061001774 -0.099438936 0.007033352
0.06344608 0.04305911 -0.0011903341 0.082416505 0.0287448 0.004448827 -0.035898782 -0.06371422
0.35346654 0.041751333 0.025858924 -0.016469367 0.014109692 0.4637771 0.06674424 0.056303613
-0.029566294 -0.059515152 -0.23532389 -0.1363776 -0.01801513 -0.010203003 0.20537458 -0.1325044
-0.034240857 0.025088163 0.009513803 0.22237262 -0.0064204275 -0.015735827 0.036950532 0.32917127
-0.19086157 0.015882729 0.010532012 -0.033849847 -0.064148836 -0.107566334 0.05370888 0.09200638
-0.027882425 -0.016383205 0.10996809 0.057446104 0.114569314 -0.0057826336 -0.014251295 -0.24147782
0.0880136 -0.08084915 -0.03221419 0.074065 0.05475766 0.04605403 0.12806731 -0.02685562
-0.0019614021 -0.051723644 0.011389284 0.0030039083 -0.035089105 -0.056492355 0.058180355 0.007196206
0.014584509 0.00092547224 0.06861568 0.04679084 -0.04700568 -0.02928307 -0.0832875 0.066985235
-0.011914362 0.065658405 -0.02812736 0.060521804 0.087308414 0.0026424918 0.5276052 0.007792537
0.013522888 0.0022760674 -0.03586049 0.031575907 0.053016 -0.0037142967 -0.06932433 0.045646433
0.007488188 -0.0021996365 -0.00042444956 -0.07454748 -0.0072469534 -0.072111405 0.009649506 0.03665658
0.09320547 0.02591786 0.22077571 -0.05290853 0.004705127 -0.13830505 0.030774493 0.008522364
-0.06991144 -0.021067 -0.041333195 -0.009692516 -0.30922562 -0.059578255 -0.057085708 -0.037873905
0.04799309 -0.026348472 -0.04018012 -0.029899623 -0.042965557 0.00030984663 -0.057928547 -0.017098334
-0.0009600244 0.056391913 -0.3774237 -0.008053419 0.0230463 -0.019125817 0.1890492 0.02060475
-0.016559593 -0.030048382 0.26894873 -0.039171074 -0.0373581 0.0031596418 0.09925173 0.024484698
-0.02839045 0.00086085236 0.0138389 0.048308343 -0.0328274 0.2928387 -0.047833316 0.010369372
-0.20735067 0.019870738 -0.022367742 -0.049692113 -0.001994264 0.10041102 0.045463406 0.1412914
0.01291998 0.039144665 -0.018827513 0.019296002 -0.051271446 0.014816379 -0.07180746 0.007881481
0.026479471 -0.02742029 -0.0974217 0.0096187405 0.19498354 -0.15018164 0.038234383 -0.08165133
-0.1365105 0.006635571 -0.004715266 -0.011982825 0.18235427 0.007551784 0.0054282406 -0.21662477
-0.01090396 -0.048482146 0.049000297 -0.0016632512 0.045044344 -0.025275806 -0.018910958 -0.111697085
0.09031743 0.010146001 0.0798654 -0.077546224 -0.021390785 -0.0009934716 0.12220817 0.17582302
-0.0034055966 0.10445919 0.015272124 -0.08930741 0.08891784 0.056340158 -0.0019960697 -0.05504509
-0.0070854323 0.13956925 0.08086001 -0.10469645 0.058410622 -0.09522402 -0.03520005 -0.025774375
-0.00661776 0.30371255 -0.06261816 0.009394273 0.08359803 0.00808967 -0.026642 -0.12672971

bias f4 [8]
00000000: d3c9 00bd b83d fcbb 4643 e13c d651 8a3d
00000010: 3e31 be3c 0fda 6f3e 01a4 4b3d 8103 7b3d
-0.031442475 -0.007697787 0.027497899 0.0675389 0.02321684 0.23423027 0.049716953 0.06128264

weight f4 [8, 256]
00000000: bbe3 203b ea8d 59bd 3aac 113e 546f 883d
00000010: fe62 7a3e 1c27 893d fd6e 39bd 8d97 8cbd
00000020: e4fa 1f3e c9ca ee3d 9b19 0f39 151d bf3d
00000030: d072 fe3c e0ed 8b3e 31af d23d 18fa 303d
00000040: 916f bfbc 9a4e e93b 840c 4c3c 6742 afbd
00000050: 1637 243e dc16 173b c229 b9bd 7ff2 883e
00000060: 3d10 2ebd 266c 483e 6a7c 8dbc ae5f 15bd
00000070: e2d7 763d 329c 1c3e 11df 2b3d 4bd8 a33d
00000080: deb6 633d 2fb9 4cbc 96b8 0c3d 8b90 c83c
00000090: 6292 7cbc dccb df3d 9513 573e 65da 8bbc
000000a0: e0ca ca3c fa88 d43d d835 183e 6eb2 b23e
000000b0: 5cd7 053d b423 6abc 5681 ac3c 45c3 123d
000000c0: 2ba7 ba3e a6c6 10bd 1ce3 173c 6f8c 8d3c
000000d0: a94a 74bd fbef b13e 446f 24bd 9172 4a3c
000000e0: 2106 bc3c b399 f03d 1161 683e 622a 083d
000000f0: 882b 063e 45f6 1d3c fdfd ef39 bdc4 01bf
00000100: 023c debb 7eed 183d 4683 01bc db68 893e
00000110: 297a 4bbd b846 773c 6f70 66bd 333f 123f
00000120: 102d b73d 3ff3 0d3d 41cf eb3c b0c5 abbc
00000130: 5270 21bc 59c0 7f3e 84d8 673e ba4e 273d
00000140: 4903 743d 1b39 863c 1e32 f13e e15d 0c3d
00000150: f429 2abb b48d 073d 8aab a43b 3645 a5bb
00000160: 0c68 023e ad7a a33e 57da a63c bb30 abbc
00000170: 161f d93d b6fd 5d3c 5071 243d 138a 2a3e
00000180: 1fa5 833c 6b0e 933d a6cf 66bc 7264 12bd
00000190: 10e2 d03c 9278 483d 1f21 a93d 09bb 3b3b
000001a0: 28f4 043e d4b7 57bd a52a f43b 7ed9 643c
000001b0: 2a4c 773d 3f96 32bc e2d9 4b3e e1be e43c
000001c0: 35b5 eebc fa0f f8bc a61b 923d 0ffb aa3c
000001d0: 4366 183d 4680 63bd 5767 aa3d af5d 07bc
000001e0: ebe9 a4b9 f133 26bd da8c 983e 8349 613b
000001f0: 9d64 a8bd 43bc 79bc fd4a 0bbb b580 8dbc
00000200: 2acb bb3a ceaa 19bd 2f2d ffbc b4b6 1a3d
00000210: b490 24bd 98e1 6ebc 8844 983d 18e1 16bd
00000220: 2ce2 fb3d cb7e 9b3d f1c7 0f3d d71b c0bc
00000230: 11e2 903c 6418 d63d d50c f2bc a2ef cbbc
00000240: 021c 273d 2eb5 8b3c d45b 413c 3f64 313b
00000250: f6b8 c83e 9f19 dd3c 7e0b 123d 6cea 5dbb
00000260: d485 a1bd 1608 263c 268f adbc b3ac c2bd
00000270: df5b bbbd 8282 5abc aa66 233e 81f3 a13d
00000280: 9aa3 ec3c 44e9 6ebd ae07 163e 00ee f33c
00000290: 26c3 5fbc 1ddf 72bc f0ff 393e ab09 e8bc
000002a0: c619 4e3c 5e43 81ba 0094 333e 29ed 09bd
000002b0: 3930 603d 0743 1abd 2bd2 24bd 11a1 b93c
000002c0: c510 b83d ea3c b83d b805 7f3d 8548 16bd
000002d0: 6ecd a63a 5c4c fe3e 8589 7d3d 2c74 3cbd
000002e0: 4ac3 7b3d 25d1 91bd c52d 273d 5270 0ebd
000002f0: f0be 3d3d f6a1 aabb 1b39 333c b852 ca3d
00000300: a188 e53c f7ce 58bc 87fe 533d 9409 adbc
00000310: b6ba 913c 8341 f1bc 0da4 333d b1fa 6d3d
00000320: de68 2d3d 308c cd3c da2a 5b3d b628 7bbd
00000330: 655a 083e 1d12 a83e dd30 1bbd bc21 993d
00000340: 2ff1 41bc c3e5 a7bc 4546 f63c e363 933c
00000350: 4246 193e 7d75 0b3e 9cd3 2a3d 79b6 5d3e
00000360: 864a f43c 3a14 4d3d d6ae 4d3d 913b 2bbd
00000370: 049c d63c d10a 03bb 10db e93d 81ce 713e
00000380: 2b1a 95bb b5da 253c 62a5 e23d 9bb2 0c3c
00000390: 91aa 64bc a3b2 21bc 005c fa3c c120 2d3e
000003a0: 58e3 97bd e82b 6b3d 8f38 143d 4de5 c03d
000003b0: 19a6 6ebc df24 6ebd 4ac4 14bb 3c9b e4bc
000003c0: 0622 53bc 4db5 893e 91c8 51bc f268 b03e
000003d0: 91a1 133c 66ab 49bd 88ac 26bc 9f19 703c
000003e0: 9fc6 af3d 29ad c33c 94e7 8bba 8aa6 1fbd
000003f0: a6c3 5fbc b20d 8b3c 6254 543c 5585 e9bc
0.00245498 -0.053113855 0.14225855 0.06661859 0.24451825 0.06696913 -0.045271862 -0.068648435
0.15623051 0.11659772 0.00013647082 0.09331719 0.031060606 0.27329922 0.10287321 0.043207258
-0.023368629 0.0071199657 0.012454156 -0.08557587 0.16036639 0.0023054397 -0.09041168 0.2674751
-0.042495955 0.19572505 -0.01727124 -0.0364682 0.060264476 0.15293959 0.04196078 0.08000239
0.055594318 -0.012495323 0.034355722 0.024482986 -0.01541576 0.10927555 0.21003564 -0.017071912
0.024754941 0.10377689 0.1486429 0.34901756 0.032676086 -0.014290739 0.021057766 0.035830755
0.36455664 -0.035345696 0.009270456 0.017278878 -0.059641514 0.34753403 -0.040145174 0.012356416
0.022952141 0.11748066 0.22693278 0.033243544 0.13102543 0.009641235 0.00045774868 -0.50690824
-0.006782056 0.037335865 -0.007904833 0.2683781 -0.049677048 0.015092544 -0.05625957 0.57127684
0.08944142 0.034655806 0.02878535 -0.020968288 -0.009853439 0.24975719 0.22641188 0.040846564
0.059573445 0.016384652 0.4710855 0.034269217 -0.0025964947 0.033094123 0.005025332 -0.005043651
0.12735003 0.31929532 0.020367784 -0.02089726 0.10601632 0.013549259 0.040147126 0.16654234
0.016069947 0.071804844 -0.014087593 -0.035740323 0.02549842 0.04894311 0.082582705 0.0028645417
0.12983763 -0.052665547 0.0074513727 0.01396787 0.06037537 -0.010900079 0.19907334 0.02792305
-0.02913914 -0.030281056 0.0713418 0.020871667 0.0372069 -0.055542253 0.08320492 -0.008262082
-0.000314548 -0.04057688 0.2979496 0.0034376092 -0.082223155 -0.015242639 -0.0021254413 -0.017273286
0.0014327515 -0.037516408 -0.031149475 0.037771896 -0.040177062 -0.014580153 0.07434946 -0.03683576
0.12298998 0.07592543 0.03510279 -0.023450775 0.017685922 0.10453871 -0.029547134 -0.02489454
0.040798195 0.017054167 0.011801679 0.0027067808 0.39203614 0.026989756 0.03565549 -0.003386165
-0.07886854 0.010133764 -0.021186423 -0.09505596 -0.091483824 -0.01333678 0.15957132 0.07907773
0.028886605 -0.05832793 0.14651367 0.029776573 -0.013657367 -0.014823702 0.18164039 -0.028324923
0.012579387 -0.0009861996 0.17536926 -0.03367344 0.05473349 -0.03766158 -0.040239494 0.02265981
0.089875735 0.089959934 0.062261313 -0.036690254 0.0012726018 0.49667633 0.061898727 -0.046009228
0.06146554 -0.07119969 0.040815134 -0.034775086 0.04632467 -0.0052072955 0.010938908 0.098790586
0.028019251 -0.013232938 0.051756408 -0.021122731 0.017789226 -0.029450184 0.043857623 0.058100406
0.042336337 0.02509126 0.053507663 -0.06131812 0.13315733 0.3282632 -0.037888397 0.074771374
-0.011837288 -0.020495301 0.030062804 0.017991966 0.14968207 0.13619037 0.041705713 0.21651639
0.029820692 0.050068118 0.050215565 -0.041804854 0.02619744 -0.001999546 0.11418736 0.23613931
-0.0045502386 0.010122945 0.110667005 0.008587505 -0.013956682 -0.0098692505 0.030561447 0.16907026
-0.07416409 0.05741492 0.03618675 0.09418736 -0.014565968 -0.05814063 -0.0022700005 -0.027906053
-0.01288653 0.26896134 -0.012804166 0.34455067 0.009010688 -0.049235724 -0.010172971 0.014654546
0.08582806 0.02388628 -0.0010673874 -0.038977183 -0.013657486 0.016974304 0.012959572 -0.02850596

bias f4 [8]
00000000: 439e 65bf b7c7 74bf b371 4cbf 56bb 84bf
00000010: f474 6bbf fc9a 86bf 624b 58bf be37 85bf
-0.89694613 -0.9561724 -0.7986099 -1.036967 -0.9197533 -1.0516047 -0.84490025 -1.0407636

weight f4 [256, 35]
00000000: a9d5 38c0 2ed7 eb3e 2f6f bcbe 25f4 8f40
00000010: 8d65 253f b8c2 303e b570 4b3f b513 ad3e
00000020: 5d20 053f 687a ff3f 1e6a e3be fd9a 47be
00000030: bcad 733d 683a 3d3d a568 29be 5480 cabe
00000040: e924 51bd dd9c 873e be42 49bd afcb a5bc
00000050: 2bbf 093d 8909 a73d 6e72 5a3d a730 da3e
00000060: b0ff e4bc db31 a8bd 77bd 74bc 46cb efbd
00000070: c08a f8bd f72d d3bc f0e2 15bd 80fd 3b3e
00000080: 9fd6 c53d 10af 833f 691e bdbd 2c24 50bf
00000090: 4201 f03d a86a ce40 19f3 b8c0 c533 5ebf
000000a0: 67f9 b5bc a401 dbbd c6d4 cebf 7b9d ca3d
000000b0: b54c ae3f 459c 893f eec0 fd3e e215 483e
000000c0: f45e d13e 1281 28bf c064 54bd 29f1 423e
000000d0: 76a7 75be eed4 82bd e927 9cbb 56e6 91bd
000000e0: 0ecc 7dbd 2816 efbd 97f0 423d fea4 8dbc
000000f0: 04a3 4bbd dcb3 e3bc 7ed8 16bb 39da a43d
00000100: f5bb ad3d 1494 f2bd 924c 30be 62f4 19be
00000110: d08a 96bd ce98 f63d fd30 b93e ff1d 5f3f
00000120: 9a96 ce40 e70e 8f40 700a 343f b38b c73f
00000130: 0cfe fcbf d794 473e 8378 8b3e ae9a 54be
00000140: 60a3 32bf d79a 00bf 5727 3fbe 391f d73d
00000150: 1e53 ca3c 30d9 56be 05f8 453e 98e9 a13e
00000160: 92a0 a33c 3972 2d3d ad87 8dbd d755 653c
00000170: 9d9a 4d3d 8ab1 2f3a 0be6 bebd 07fe febd
00000180: 2dc9 523c f9c3 2bbe 64fe aabd cf90 31bd
00000190: ae98 1f3d cc26 1f3d 3b39 2a3d e988 673e
000001a0: 9c7b 65be d325 843d 9cd6 753d e117 1d3e
000001b0: f906 febe b3cf 94bf 5b51 cebe d342 4a3d
000001c0: 5834 fabe d1de 5a3e 3ea4 d1be 0b7b 433f
000001d0: f175 21bf e2c4 54bd f80b f3bd 44cc 783f
000001e0: aa71 5cbe e4a9 2fbe 7ad5 d33d 786e 69be
000001f0: 04bd aabd e420 cabc dada 483e e827 013e
00000200: 8981 2fbe 6adc 87be 20ae 783e 9d39 e33d
00000210: 7633 2d3f 324c 2ebd fd82 ddbf 667a d43e
00000220: 5535 eb3d 247d 70bf 95a8 fa3e 990f bbbf
00000230: f08f 9bbf 35e9 dbbe 091e 43c0 769a e53f
00000240: 32c7 763f aa0d 4e3e 624d 5a3e 3501 e0bf
00000250: 4512 b43e 18c0 b33f 554d 033f 762c 0e3e
00000260: 5a8a f9be cf4d 25bf d880 a03f 57a3 52bd
00000270: 885c 94be 3d03 31be b56c c43d 3e38 993c
00000280: 85e1 803d 12b5 b4be b573 86bd 85cf 7b3d
00000290: 4b89 f5be d3e4 03be a16c e7bd 7e39 cdbe
000002a0: 16ec 1d3e a186 b93e 243a 62be a979 2dbf
000002b0: d220 993e 9b55 663e a0af 40bf ad91 fabe
000002c0: 688e 49bf 2b0f abbe e7f7 bc3e 51c1 dfbe
000002d0: acb8 4cbf 59b3 1abf 3a83 8a3f 3ee4 ccbe
000002e0: aa18 463f bc0c 0e3d d080 3c3f dfdb ba3e
000002f0: 7faf 11be 2f36 9cbe d617 38bf effa 7c3d
00000300: 9892 abbd 3504 fa3b f892 20be d3a0 51be
00000310: 679b b33e 3470 d3bd 3c48 b63d fa26 0a3e
00000320: 63a3 afbc 9507 913d 757d 603e 3af3 653f
00000330: 4f60 0ebf 1f9a ec3e c336 1a3f 529a 83be
00000340: 8be5 033f e3f6 863f 9fa9 a73f 997d f3be
00000350: c840 c0bf c31c 11c0 9551 793e a9aa 4c3d
00000360: cd32 ac3d d76e 843f a860 9abe 9e69 72bd
00000370: 3353 21bf fcf2 2e40 5335 84be ddcb 1dbe
00000380: d48f 6c3d 66ff 363e 8d03 68bc bf2b 0f3c
00000390: 6dc9 073d 7271 093d 454e 6fbc f57f 693e
000003a0: 930a 733d 050d 91bd 3561 3dbb 551a 0c3f
000003b0: 342b edbd 0e75 b83f 8735 66be 52db 153e
000003c0: d9d4 03bd 519a 0c3f c6a7 0d3e a27d a7bd
000003d0: b97f acbd f7ff 4640 23ec 173e e9a0 2fc0
000003e0: 5899 af3e 8cc6 7ebf 7d34 283d 3215 8c3f
000003f0: 86a8 28c0 83e9 0240 f7a3 8b3e 4d5f 3dbe
-2.8880408 0.46062607 -0.36803576 4.498553 0.6460808 0.1726178 0.7946885 0.33804098
0.5200251 1.995923 -0.44416898 -0.19492717 0.059491858 0.04619828 -0.16543825 -0.39551032
-0.05106059 0.26486865 -0.049135916 -0.020238725 0.033629578 0.081561156 0.053331785 0.42615244
-0.027953953 -0.08212634 -0.01493775 -0.11708693 -0.121358395 -0.025778754 -0.036593378 0.18358421
0.09660076 1.02878 -0.09234316 -0.81305194 0.1171899 6.4505196 -5.779675 -0.86797744
-0.02221365 -0.10693672 -1.6158683 0.09893318 1.3617159 1.0750815 0.49561256 0.19539598
0.40892756 -0.65821946 -0.051853895 0.19037308 -0.23989663 -0.06388269 -0.0047655 -0.07124011
-0.06196218 -0.11674148 0.047592726 -0.017290588 -0.04971601 -0.027795725 -0.0023017223 0.08049435
0.084831156 -0.1184465 -0.1721671 -0.15034631 -0.07350695 0.12040864 0.36170188 0.87155145
6.455884 4.470569 0.70328426 1.5589508 -1.9765029 0.19490372 0.2724038 -0.2076213
-0.6978054 -0.50236267 -0.1866735 0.10504002 0.024697836 -0.20981288 0.19332893 0.3162353
0.019974027 0.04234526 -0.06910644 0.013997517 0.05019628 0.00067021756 -0.09321221 -0.124507956
0.012865347 -0.16773976 -0.083493024 -0.04335099 0.038963966 0.03885536 0.041558485 0.22610821
-0.22410434 0.06452527 0.06001912 0.1534114 -0.49614695 -1.1625885 -0.40296444 0.049380135
-0.4886806 0.2137406 -0.4094562 0.76359624 -0.6307059 -0.051945575 -0.11867517 0.97186685
-0.21527734 -0.17154652 0.10343452 -0.22796047 -0.08336833 -0.024673887 0.19614735 0.1261288
-0.17139257 -0.2653535 0.24285173 0.11094973 0.6765665 -0.042553134 -1.73056 0.41499633
0.11484782 -0.9394095 0.48956743 -1.4614135 -1.2153301 -0.4295136 -3.0487082 1.7937763
0.963977 0.201224 0.21318582 -1.7500368 0.3517019 1.4042997 0.51289874 0.13884148
-0.48738366 -0.6457185 1.253932 -0.051425304 -0.28976846 -0.17286392 0.09591047 0.018703576
0.062930144 -0.35294396 -0.06565038 0.061477203 -0.4795631 -0.12880258 -0.11300016 -0.40082926
0.15422091 0.36235526 -0.22092491 -0.67763764 0.29907852 0.22493593 -0.7526798 -0.48939267
-0.7873292 -0.3341001 0.36907884 -0.43702176 -0.79969287 -0.6042991 1.0821297 -0.40017885
0.77381384 0.034680113 0.7363405 0.36495873 -0.14227103 -0.3051009 -0.7191137 0.061762746
-0.0837757 0.007629896 -0.15681064 -0.20471506 0.350795 -0.103241354 0.08900496 0.13491431
-0.021440214 0.07081524 0.21922858 0.8982426 -0.55615705 0.46211335 0.6023981 -0.25703675
0.5152213 1.0544094 1.3098639 -0.4755676 -1.501977 -2.2673805 0.24347527 0.04996744
0.08408127 1.0346326 -0.30151868 -0.059182756 -0.63017577 2.7335806 -0.25821933 -0.15409799
0.057754353 0.17870864 -0.014161003 0.008738457 0.03315108 0.033555456 -0.014606063 0.22802718
0.059336256 -0.070825614 -0.0028897051 0.5472768 -0.11580506 1.4410722 -0.22481357 0.14634445
-0.03218541 0.5492297 0.13833532 -0.081782594 -0.08422799 3.1093729 0.14836173 -2.7441962
0.3429668 -0.9952171 0.04106568 1.0943968 -2.6352859 2.0455024 0.27273533 -0.18493386

bias f4 [256]
00000000: bd7d 683e 54ad 76be 3850 f73e 4319 05c0
00000010: e7b1 57bd aeaf 61bf abd7 a3bf 9ada 4fbf
00000020: 6569 a13e b8a2 c3bf 5e88 92bf 386c c3be
00000030: a5d5 013f f2c0 97bf 4d7c aebf dfdd 803f
00000040: f2e5 75be 590f a1bf 8476 60bf 3006 a1bf
00000050: 10b1 5b3f 9f54 02c0 6f43 23c0 d3eb 2340
00000060: f305 febf a1c5 f7bf 1b57 b8bf 3677 04c0
00000070: 4192 1340 efa2 42be 9653 d8bf c9b6 1c3f
00000080: 5587 9ebf 8c5d 473e 2b9a 7abf 5448 84be
00000090: 4b71 d1bf b87a 22c0 3bcf a73f 3b89 1b3f
000000a0: 1ddd 033e dbaa 9cbf fae8 95be b95e 8dbf
000000b0: 09a1 663e a85b c6bf 2b5c 11bf 2008 f3bf
000000c0: 835b 7fbf 8a72 603f 5cc1 f5bf da0f b438
000000d0: ca0d a5bf 7a98 943f a311 f33f 9cc0 80bf
000000e0: 926c 743f 9069 d5be f68a 1cc0 3abb edbf
000000f0: 7c69 b73e 2bb8 b8bd 8363 22c0 3e3f 0fc0
00000100: 1f37 eebf 74f6 dabe 9857 84be e49d c23e
00000110: f42b 9ebf 42cd 98bf b0e2 2cc0 1f7e d53f
00000120: 5e5a 05c0 888a 343f c8ba 14bf 6027 64bf
00000130: 5974 b8bf acf9 56be e2f3 8d3f dd02 20be
00000140: dade 04c0 162a c33f 0d0c 4e3f 0185 dbbf
00000150: b9ce 0ebf bde6 62bf 461b 9e3f cb05 373f
00000160: f490 77be 24b6 80bf 7576 dcbf 5e73 e8be
00000170: 9f2d 1c3e 8534 883e 38a1 e9bf cf93 09bf
00000180: 3eb3 3c3e faf4 28c0 9370 c33e 51ac c9bf
00000190: b49a 1040 c86a 223e 9954 d9bf e840 12bf
000001a0: 05c4 5ebf 7f4e f0bf 6f1b 12bf 9b95 3dc0
000001b0: 8a64 943d e54c a8be 46a3 b33f 75b7 433f
000001c0: 943f 62bf 10c4 11bf 1956 153f 849b b4bf
000001d0: 8e97 69bf 127e 6b3f 0f6d 93bf 5aa1 ba3f
000001e0: 7fe7 9cbf a4a8 b2bf 52ab c73f d5e6 b23f
000001f0: 987a b9bf 261b 863f 3080 68be 2e6d 3dbf
00000200: 8dee b8bf 9fac 7b3e 4c48 753d 51c1 5abf
00000210: 6df9 9dbf 86e1 90bf d279 1240 2b9b 0dc0
00000220: 6af2 07c0 8daa b9bf bdb6 21bf 90eb fb3e
00000230: 33d4 9abf c3df c73f 4499 d53f 02c8 df3f
00000240: 966d ad3f 6a54 0e3d 5a00 2fbf 516b 80bf
00000250: d8f0 1440 81ba adbf 5de6 833d 9b8f 40bf
00000260: 7507 d6be 7b73 73bf c63f 80bf 316b c1bf
00000270: c500 813e 238a 83bf 809a 46be 600a 29bf
00000280: d122 18bf 693f 42bf c4bf 1dbf 9ad7 fc3f
00000290: 88e6 79bf 45f7 25be e4fa c1bf 4b27 eabc
000002a0: 5632 b2be 46d5 9fbf 8644 abbf e134 64bf
000002b0: d44b 2e3f 8d6d eebf c2b7 b6bf dff7 02bf
000002c0: 3a5d bbbf 97e7 bcbf f8cc 79bf 1154 8dbf
000002d0: 031d 1fbf ef13 d7be 6cbb c23e b8f2 f3be
000002e0: 6cde 1340 bc6a 0640 b29d ff3f c647 da3e
000002f0: 049c 53bf 72ac a83f fc9f 1bbe 8b4a babf
00000300: a0b2 a1bf 0542 9fbe 50c4 fe3f 434f 90bf
00000310: f93e cdbf 3dba 7bbf cca5 eabf c0ab ec3f
00000320: aa49 513f ffc8 78bf 12b0 f0bf 5b39 43bf
00000330: ac6f 81bf 94c2 77bf 8f3b f9bf 2d27 a4bf
00000340: 8a04 e13c 4a94 7c3f 4655 113f 0fbc fe3d
00000350: 0c95 0abf af78 ae3d 142f c6be 9ba4 d13f
00000360: 3d78 9dbf 8f21 6a3f 530b aa3e c859 f8bf
00000370: ebdf e1bf 4d69 2d3f 14b6 0e3e 1b68 963e
00000380: 7017 413f 06bf b4be 4b33 03c0 c82b 7abf
00000390: 0cd8 873d 963f 84be 5c0c 0cc0 94d5 893f
000003a0: 1f5c c6bf 7845 57bf f78b 8f3d d398 d5bf
000003b0: 0c46 c4bf ef49 263e 94d3 6e3f bb5d f3bf
000003c0: 0c50 3a3f c355 783f 9665 5dbf c2c1 99bf
000003d0: 7a3b 54bf 813e 0b40 2ce9 d9be 6d3a c4bf
000003e0: a401 efbe 335d a7bf 36c0 b93f f3c4 1bc0
000003f0: 127b 9cbf ab58 983e 0f4c 17c0 5afa 7fbf
0.22704215 -0.24089557 0.4830339 -2.0796669 -0.052659895 -0.8815869 -1.2800192 -0.81192935
0.31525722 -1.5284033 -1.1447866 -0.38168502 0.5071662 -1.1855757 -1.3631684 1.006771
-0.24013498 -1.2582809 -0.8768084 -1.2580013 0.8581705 -2.0364149 -2.5509908 2.5612686
-1.9845566 -1.9357187 -1.4401582 -2.069776 2.3058016 -0.19007467 -1.6900508 0.6121641
-1.238505 0.19469279 -0.9789149 -0.25836432 -1.6362699 -2.5387402 1.3110117 0.6075627
0.12877317 -1.2239641 -0.2927931 -1.1044532 0.22522368 -1.5496721 -0.5678126 -1.8986855
-0.9974901 0.8767477 -1.9199634 8.5860214e-05 -1.2894833 1.1609032 1.8989757 -1.005878
0.95478165 -0.416821 -2.4459815 -1.8572762 0.35822666 -0.09019502 -2.5373237 -2.238235
-1.8610572 -0.42766154 -0.2584808 0.38011086 -1.2357163 -1.193764 -2.701336 1.6679114
-2.0836406 0.7052388 -0.58097506 -0.8912258 -1.4410506 -0.2099368 1.1090052 -0.15626092
-2.0761018 1.5247219 0.8048714 -1.7149965 -0.55784184 -0.8863333 1.2352073 0.71493214
-0.24176389 -1.0055585 -1.722365 -0.45400518 0.15251778 0.2660257 -1.8252325 -0.53741163
0.1842775 -2.6399522 0.38171825 -1.5755712 2.2594423 0.15861046 -1.6978942 -0.5713029
-0.8701785 -1.8773955 -0.5707311 -2.9622562 0.07245739 -0.32871166 1.4034202 0.7645181
-0.8837826 -0.5693979 0.583345 -1.410996 -0.9124688 0.91989243 -1.1517657 1.458049
-1.2258147 -1.3957715 1.5599158 1.3976694 -1.4490538 1.0477035 -0.2270515 -0.7399472
-1.44478 0.24577568 0.0598834 -0.8545123 -1.2341744 -1.1318824 2.2886853 -2.2125957
-2.1241708 -1.4505173 -0.6316946 0.49203157 -1.2096008 1.5615162 1.6687398 1.7482913
1.3549068 0.034748472 -0.6835991 -1.003275 2.3272 -1.3572541 0.06440423 -0.75219125
-0.41802564 -0.95098084 -1.0019462 -1.5110837 0.251959 -1.0276531 -0.19394875 -0.66031456
-0.59428126 -0.75878006 -0.61620736 1.9753296 -0.9761739 -0.16207607 -1.5154691 -0.02858319
-0.34804028 -1.2486961 -1.3380287 -0.89143187 0.68084455 -1.8627182 -1.4274828 -0.5115947
-1.4637825 -1.4758176 -0.9757838 -1.104128 -0.62153643 -0.42007396 0.38033617 -0.47646117
2.3104506 2.1002645 1.997 0.42632884 -0.82659936 1.3177626 -0.15197748 -1.4553999
-1.2632637 -0.31105056 1.990366 -1.1274189 -1.6034843 -0.9833105 -1.8331847 1.8489914
0.8175303 -0.97181696 -1.8803732 -0.7625939 -1.0112205 -0.9678128 -1.9471301 -1.2824455
0.027467985 0.9866377 0.5677074 0.12438213 -0.5413368 0.08519112 -0.38707793 1.6378359
-1.2302319 0.91457456 0.33211765 -1.9402399 -1.7646459 0.677388 0.13936645 0.293763
0.7542639 -0.3530199 -2.0500057 -0.97723055 0.066330045 -0.25829762 -2.1882544 1.0768304
-1.5496863 -0.84090376 0.07009118 -1.6687263 -1.5333877 0.16239141 0.9329159 -1.9012979
0.7277839 0.9700586 -0.8648313 -1.2012255 -0.82903254 2.17569 -0.4256071 -1.533033
-0.4668094 -1.3075317 1.4511783 -2.4338958 -1.2225058 0.29755148 -2.3640172 -0.9999138
