primitives/ant_low_torque/up.pt (torch, 920169 bytes, 18 tensors)

weight f4 [256, 27]
00000000: 868e 5940 8d9a 3fbf a70f aebf 24c1 5cc0
00000010: 7f6d c5bf 9b54 923c 36d1 a9be 9b69 d2be
00000020: 24ad a73c b02d 713e c9cc b7be fb8d 2c3d
00000030: dd58 a7bd 81ee ec3c 23bc 763d de81 973d
00000040: 669c 24be 4250 22be 812b 22be 840c 9bbd
00000050: 4e69 34bd a0bc 8f3c b5f5 6fbd 6c88 573d
00000060: a2f7 9c3b c904 fdbd 2c18 fa3d b5fb b0bf
00000070: 0052 5dbf 29d5 da3f 9900 5abf 7be9 cf3e
00000080: 92a5 bd3f ab1e fabf a0d1 2a3f 19fa a83f
00000090: b3b8 32c0 d887 8c3f 14ce b4bf 650a 35bf
000000a0: b4d3 6dbf 801a 693f 8030 87be eb2b b3be
000000b0: 7f07 7ebe 658b 083f 7fb2 a7bd 92b8 02bd
000000c0: 4c44 f43d 0289 adbe 9f90 6f3d d365 253e
000000d0: c151 943e d3a2 51be eeb2 67bf cd0f 14bf
000000e0: 7103 993f 6939 0dbf d2d4 55bf 032f b23e
000000f0: 9ecc 87bf 7724 5ebe 474e 963e 8999 8b3e
00000100: ec7e d43f 3b94 c33e 2a8d 9ebf abb8 dbbe
00000110: 303c 69be 08a0 1a3e 538d f9bd 61d7 ccbc
00000120: 5b7a 023f 34c3 303e 0c17 553d 4641 5d3e
00000130: 1291 843e 6e64 0cbd ea06 5bbd c34b b5be
00000140: 1a2f c73d d363 55bf 3462 28bf d49b dabe
00000150: fd7d ae3f f755 ba3e 101a 73be 109e 82bf
00000160: 9cd1 053d ea0b dd3e 408e 583f 8918 713f
00000170: bdf9 c0be 4166 6bbf 8721 f6be 0c87 413e
00000180: 4b60 163f bbbb b7be 6def c73e 3dcd 26bf
00000190: 0d77 853c 6a22 823d 071b 97be bc8a 853d
000001a0: c3b2 54be defa e83d 1edd 6bbe b260 5e3e
000001b0: 2dfa a9bf 5869 81bf 17a0 3040 d373 a43f
000001c0: 948f 4f3f e0b8 113f 8eae af3e 78e7 99bf
000001d0: 4d86 193f 4a7b 04bf 811c b43f 4df8 fdbf
000001e0: e640 64bf 4c02 22bf 7cd3 253f 9d77 873e
000001f0: bfdb d8bb 38a5 023f b119 32bf 732c a5be
00000200: 25cd d83d 4b75 8cbe 5a6f ba3d 8851 64be
00000210: 099b e53c d20b 8cbe d04e ff3d 9e98 9dbf
00000220: 624c 88bf b5b3 83c0 6b96 91bf c455 313f
00000230: c1e7 d1be d239 4ebf 6fb0 e73f 9780 803f
00000240: 7e05 083d 7749 7dbf a486 59bf fc5f 84bf
00000250: 2f6a d1bf 40ac 13be 7593 31be 354f 41bf
00000260: 1784 a83d 5a6b 1a3d 2016 7e3e 5fa9 b03e
00000270: 40b4 13be d8a3 10bd 3a89 f23d a6c7 683e
00000280: 4263 23bd 6236 c63e 2ecb 9dbf 8767 7bbf
00000290: fd26 f1bd f365 2fbf dccb 08bf 950d 803f
000002a0: 5eab 6cbf 84e5 783f 7c52 c83f e647 1ebf
000002b0: 11d1 c43f 3078 043e 07a5 90bf 2c50 95bf
000002c0: 7840 183f 66fb 933d 413b 2cbf 74d0 0e3b
000002d0: c607 abbe 41c2 ddbd 5860 93bd 3b72 c3bd
000002e0: b79d c0be a556 bdbd b400 d23d 5df7 6d3e
000002f0: fb2a 7cbe f584 92bf 0b02 883f eefb 00c0
00000300: f565 d0bf 8de6 853d e46d e6bc 19d7 e9be
00000310: 36d4 23c0 b683 24bf 106a 3b3f 6949 163e
00000320: f559 5bbf 9a14 593b f95b 36be de12 28bc
00000330: 14e2 e4bd 9adc 54be d585 57bd 9344 793d
00000340: c749 8e3c 294e 2cbd 269d f8be 1e5c 4bbd
00000350: 4d2d 833c e3fb aa3c 49d6 4dbe 0729 78bd
00000360: 0cec 41bf 9a1f e3bd 4410 8c3f 235f c13e
00000370: ef44 30c0 e2f1 7e3e c43c 3e3f 1ceb 8bbf
00000380: f1b5 453f 7ae6 963f 7cf4 5dbf 470e dcbf
00000390: 9033 9dbf c360 0bbf ed62 ca3e 769d f23c
000003a0: 0d4c 31be 7f62 bdbc a535 173e 89e2 93bc
000003b0: 364d 253e b3f7 03be 711a e63d 4aed f43d
000003c0: 5a6e c5bd 8f94 d03d 75a9 4ebe 9d0d 43c0
000003d0: 3bc0 533f 9a86 143f 8e99 20bf 08b1 6dbd
000003e0: 9e0e 11bf c979 013f 01eb 5fbe e583 863f
000003f0: 5ae7 a43f 5912 e4be 3721 1cbe 021b 65bf
3.399324 -0.748452 -1.3598527 -3.4492884 -1.542404 0.017862609 -0.33167428 -0.41096196
0.020468302 0.23552585 -0.35898426 0.04212759 -0.08171246 0.028922321 0.060238015 0.07397817
-0.16075286 -0.15850928 -0.15836908 -0.075707465 -0.04404574 0.017545998 -0.058583934 0.052620336
0.0047902623 -0.12354428 0.12211642 -1.3826815 -0.8645325 1.7096301 -0.8515716 0.4060782
1.4816153 -1.9540609 0.6672611 1.3201324 -2.7925231 1.0978956 -1.412539 -0.70718986
-0.9290116 0.9105606 -0.2640419 -0.34994444 -0.24807547 0.533377 -0.08188342 -0.0319143
0.11927089 -0.3389359 0.05848753 0.16152124 0.28968623 -0.20472269 -0.905074 -0.5783661
1.1954175 -0.55165726 -0.83527863 0.34801492 -1.0609319 -0.21693598 0.29356596 0.27265576
1.6601233 0.38199028 -1.238683 -0.42914328 -0.22776866 0.1510011 -0.121851586 -0.025005044
0.5096795 0.17261964 0.052023932 0.21606931 0.2589193 -0.034275465 -0.05347339 -0.35409364
0.09725781 -0.83355445 -0.65774846 -0.42697012 1.3632199 0.3639371 -0.23740411 -1.0204487
0.032670602 0.43173152 0.84592056 0.9417806 -0.37690535 -0.919529 -0.48072454 0.18899173
0.5874068 -0.35885414 0.39049855 -0.6515692 0.01629212 0.0635422 -0.29512808 0.06520602
-0.20771317 0.11375974 -0.23033568 0.21716574 -1.3279473 -1.0110273 2.759771 1.2847847
0.8107846 0.5692272 0.34312862 -1.2023764 0.5997055 -0.51750624 1.4071199 -1.98414
-0.8916153 -0.63284755 0.64775825 0.26458445 -0.0066179927 0.51033354 -0.6957045 -0.32260475
0.10586003 -0.27433237 0.0910327 -0.22296727 0.028028028 -0.27352768 0.12466204 -1.23122
-1.064831 -4.115687 -1.1374029 0.6927149 -0.40997127 -0.80556977 1.8100718 1.0039243
0.033208363 -0.98940223 -0.8497107 -1.0341792 -1.636053 -0.14421177 -0.17341407 -0.75511485
0.08228319 0.037700035 0.24813128 0.3450422 -0.14424229 -0.035312504 0.1184258 0.2273241
-0.03988958 0.38713366 -1.232763 -0.98204845 -0.117750145 -0.6851494 -0.53436065 1.0004145
-0.92448986 0.97225213 1.5650172 -0.6182846 1.5376302 0.12936473 -1.1300362 -1.1665092
0.5947337 0.07225685 -0.67277914 0.0021791728 -0.33404368 -0.108280666 -0.071961105 -0.09543272
-0.37620327 -0.09245042 0.1025404 0.23238893 -0.24625771 -1.1446825 1.0625623 -2.0153766
-1.6281115 0.06538115 -0.028128572 -0.4567192 -2.5598273 -0.64263475 0.73208714 0.14676441
-0.8568414 0.0033123852 -0.17808522 -0.010258405 -0.111759335 -0.20787278 -0.052617867 0.060856413
0.017369164 -0.042066727 -0.48557395 -0.049648397 0.016012812 0.020872062 -0.20101275 -0.060586
-0.75750804 -0.11090012 1.0942464 0.37767896 -2.7542074 0.24896958 0.7431147 -1.0931125
0.77230746 1.1789086 -0.8670118 -1.7191857 -1.2281361 -0.5444452 0.395286 0.029616099
-0.17314167 -0.023118256 0.14766558 -0.018052356 0.16142735 -0.12887459 0.11235512 0.11959322
-0.096401885 0.10184585 -0.2018183 -3.047706 0.82715195 0.58017886 -0.62734306 -0.05803016
-0.5666293 0.50576454 -0.2186699 1.0509001 1.2883103 -0.44545248 -0.15247045 -0.89494336

bias f4 [256]
00000000: 07b7 f3bf d688 d3bf e7a5 99bf cef6 8dbf
00000010: 4327 aebf 9d1c 8abf 28c2 a4bf 251a 3abe
00000020: f574 8dbf 8d25 183f 094f 36bf 4def a4bf
00000030: 9133 7cbf ee99 91bf 5c70 35bf b43e a2be
00000040: 058c 89be 5778 43bf cd3c 91bf aabc 67bf
00000050: 9c81 1abf ceaf 60bf f6df d1bf 3b4a 343d
00000060: d9af a9bf d993 06bf d7a3 c2bf 4e97 9cbf
00000070: f77e e1bf ea86 b9bf 0320 aebf 0f7a bebe
00000080: 614b 40bf fb50 173f a396 80bf b99e a4bf
00000090: 01b5 7b3f 5ca6 f5bf d24f c2bf be9d c8bf
000000a0: e398 53bf 3091 aabf ce23 7fbf a4e6 14c0
000000b0: 2509 a1bf 2ec4 62bf 7e48 07bf 11ff cebf
000000c0: ebea 7ebf fb87 f3bf 6fbe 9abf 7ad6 44bf
000000d0: dc67 64bf 32bc bebf 0e31 43bf 44a0 7dbe
000000e0: 42ac d2bf 826b cd3d ec61 3fbe df24 d3bf
000000f0: dcd1 aa3e c4f4 d9bf 80a8 0fbf 98b4 7fbf
00000100: 89c0 8abf 8f0c 77bf 5d7c dbbe 554f a7bf
00000110: a358 78bf 2c0d a7bf 7442 4bbe e63e 52bf
00000120: e86b 7dbf 915f 82bf 4f3d 90bf 0179 5abd
00000130: 4443 26bf e5fc a4bf 6b86 7e3f 01e7 9abe
00000140: 301a 93bf f536 42bf 5704 78bf 1c18 f2be
00000150: 3d3f aabf 6e6f e7bf 9b53 3cbf 7ee8 5ebf
00000160: bd77 30bf 41e4 8dbf 9b8b c2bf e2e6 d6bf
00000170: 2794 40bf eee4 89bf 4dbe 56bf 507c 5cbf
00000180: 6826 44bf 698c dbbf 2c13 d8be 4e8d 503e
00000190: 45d6 b9bf c535 533e 103b 3cbe 5b81 94bf
000001a0: f776 9dbf 55d2 c0bf 9d4f debe d08b abbf
000001b0: 49ca 5bbe bd89 c8bf 28db 2fbf 04c1 9ebf
000001c0: f142 eebf 607d 10bd d7a5 9abf 057c 3abf
000001d0: 64ef aebf ab9e 1ec0 cea8 c6bf 6dce 4ebf
000001e0: d11e 7ebe 085a 9fbf c076 0ac0 0e45 b2bf
000001f0: ef75 6a3f 2dc7 c6bf 06f8 98bf b728 d3bf
00000200: a446 1abe 2b3d 9abf ca94 29bf 6c7a a8bf
00000210: 485e 8bbe 5a26 6abf cb87 8dbe b5bd 00bf
00000220: 2b00 44bf 9f0d 45be 48ce 38bf 2e3d 88bf
00000230: 5797 7bbf 2a17 bfbe 3001 25bf 9213 7fbf
00000240: 89a1 68bf 61c3 82bf f8e4 533d 7d9b bdbf
00000250: 8dae 12bf d441 a2bf 18dc 91bf 9b84 91bf
00000260: 8fee c0bf a808 d9bf 547f cdbe 7206 f7bf
00000270: f6c2 e0bf 9318 0bbf 7b6a 4dbf 05ea 7fbf
00000280: 25ae 85bf b57b 83bf d8c1 dcbf c83e acbf
00000290: c223 63bf b220 83bf 5202 fbbf 9b94 a8bf
000002a0: 7228 25bf f6b7 89bf 747d afbf 1204 0ec0
000002b0: 2c24 0dbf 7526 84bf 0952 9dbf 718f c0bf
000002c0: 4a96 ddbf a0f3 83bf 3551 d3bf 7a50 39bf
000002d0: 36c5 98bf 8c0c 30bf c13f 6bbf eca8 ddbf
000002e0: 4844 01c0 c1c5 94bf 780c b7bf b027 b7bf
000002f0: e7b7 0e3d 0922 cebf e4ca c7bf 27a4 3ebf
00000300: 839b 38bf d2f5 bcbf 92ca 8fbf 7d00 8dbe
00000310: 9049 86bf af58 8ebf af8d 6bbf 811e dfbe
00000320: 17b4 9abf 3a93 6abf 6454 bfbe 6d5a d5bf
00000330: c1a0 49bf 1c15 c0bc 80da 4c3d 6bb2 a4bf
00000340: a6ea a0bf 18a1 92bf a248 88be c376 35bf
00000350: ca6b 2ebf d5ec 96bf 2529 c5bf 91b3 643f
00000360: 7eca 84bf 6f1d b5bf 0728 80bf 0e86 6dbf
00000370: 9ea8 afbf 0281 9cbf be4f c9bf 9609 ccbe
00000380: 98da 9cbf 6a38 c7bf a465 a43d 83bc 4c3d
00000390: 2a60 93bf 4198 65be 401a acbd 7a41 75be
000003a0: 18c4 03bf 27a3 aabf df03 ebbe 0b5f e3bf
000003b0: 8334 d3bf a0a9 c2bf b8fd b8be 7aef d93e
000003c0: c005 71bf afc4 f5bf 7af4 94be 72ca 66bf
000003d0: 3cc2 98be 401a efbf ccad 15bf 01c6 27bf
000003e0: befb a4bf b540 b73e a827 b1bf 5b17 babf
000003f0: d9dc babf 4366 03c0 7f2f bbbf 057a 81be
-1.904023 -1.6526134 -1.2003754 -1.1090944 -1.3605732 -1.0789982 -1.2871752 -0.18174036
-1.1051317 0.594323 -0.7121435 -1.2885529 -0.98516184 -1.1375101 -0.7087457 -0.31688464
-0.2686464 -0.763555 -1.134668 -0.90522254 -0.6035402 -0.87768257 -1.6396472 0.044016104
-1.325679 -0.5256935 -1.520625 -1.2233675 -1.7616872 -1.4494298 -1.3603519 -0.37202498
-0.7511502 0.5910794 -1.0045971 -1.2860938 0.98323065 -1.9191394 -1.5180609 -1.5673139
-0.8265516 -1.3325558 -0.9966401 -2.3265772 -1.2580916 -0.88580596 -0.5284499 -1.617159
-0.99577206 -1.9025873 -1.2089366 -0.76889765 -0.89220977 -1.4901183 -0.76246727 -0.24768168
-1.6458819 0.10030271 -0.18689698 -1.6495627 0.33363235 -1.7027822 -0.56116486 -0.9988494
-1.0840007 -0.9650354 -0.4286832 -1.3071085 -0.9701025 -1.3050895 -0.19849569 -0.82127225
-0.98992777 -1.0185415 -1.126871 -0.053338055 -0.6494639 -1.2889677 0.99423856 -0.30254367
-1.1492367 -0.7586511 -0.9688162 -0.4728402 -1.3300549 -1.8080881 -0.7356507 -0.87073505
-0.68932706 -1.1085283 -1.5198854 -1.678921 -0.7522606 -1.0772989 -0.83884126 -0.86127186
-0.76621103 -1.7152225 -0.42202127 0.20366403 -1.4518515 0.2062598 -0.18381906 -1.1601976
-1.230193 -1.5064188 -0.43420115 -1.3402042 -0.21463884 -1.5667034 -0.6869378 -1.2402654
-1.8614179 -0.035275817 -1.208186 -0.7284549 -1.3666806 -2.4784343 -1.5520265 -0.8078373
-0.24816443 -1.244935 -2.163498 -1.3927324 0.915862 -1.5529534 -1.1950691 -1.64968
-0.1506601 -1.2049917 -0.6624266 -1.316236 -0.27220368 -0.9146477 -0.27642664 -0.5028947
-0.76562756 -0.19243477 -0.7218976 -1.064367 -0.982778 -0.3732236 -0.64454937 -0.99639237
-0.90871483 -1.0215875 0.051732033 -1.4813076 -0.57297593 -1.2676339 -1.1395292 -1.1368593
-1.5072802 -1.6955767 -0.40136206 -1.9298842 -1.7559497 -0.5433437 -0.802406 -0.9996646
-1.044377 -1.0272127 -1.7246656 -1.3456659 -0.8872644 -1.0244353 -1.9610083 -1.3170351
-0.6451484 -1.0759265 -1.371016 -2.2189984 -0.5513332 -1.0324236 -1.229066 -1.5043775
-1.731149 -1.0308723 -1.6509157 -0.7238842 -1.1935184 -0.68769145 -0.91894156 -1.7317176
-2.0197926 -1.162285 -1.430068 -1.4308987 0.03484335 -1.6104137 -1.5608792 -0.74469227
-0.7211229 -1.4762518 -1.1233695 -0.27539435 -1.04912 -1.1120814 -0.92013067 -0.4357796
-1.2086209 -0.916309 -0.37369072 -1.6668221 -0.78760916 -0.023447566 0.050013065 -1.2866949
-1.2571609 -1.1455412 -0.26617914 -0.7088434 -0.68133223 -1.1791025 -1.5403181 0.89336497
-1.0374296 -1.4149607 -1.0012215 -0.92782676 -1.3723333 -1.222687 -1.572746 -0.39851063
-1.225421 -1.5564091 0.08027199 0.049984466 -1.1513722 -0.22421362 -0.08403444 -0.23950759
-0.5147109 -1.333104 -0.4590139 -1.776338 -1.65004 -1.5208015 -0.36131072 0.4256552
-0.941494 -1.9200648 -0.2909277 -0.9015266 -0.2983569 -1.8679886 -0.5846832 -0.65536505
-1.2889326 0.35791555 -1.3840227 -1.4538378 -1.4598647 -2.0531166 -1.462387 -0.25288406

weight f4 [256, 256]
00000000: b6b8 98bd 3caa 023d 9691 c93c bb90 b8bc
00000010: c14b b43c 4b6f a5bd 12ba 36bc 5908 033d
00000020: 5ab8 25bd b9a6 5d3d fdf6 cdbd 8422 0abd
00000030: e9f7 ebbd 6e82 93bd d96a b6bd cf7f ad3c
00000040: b295 83bd 6d27 a8bd d85e 51bd ce9b 16bd
00000050: a233 a4bd 0e90 233c 7a36 5bbd aa93 bb3c
00000060: 60d8 dcbc f0fc c5bc 7e06 173d 882b 963c
00000070: 0559 7cbd 6220 283c 056f b73c afa3 65bb
00000080: f517 fd3c 8690 7cbd 11a9 91bd 1ba5 8a3b
00000090: 22af f3bc 45fd 1abd d97b c8bc 8fb5 2fbd
000000a0: 523d c0bc 3d88 89bd 9f31 64bd 33b0 7c3b
000000b0: 07bc 0fbd 40cb ccbc 7b75 fbbd b76c 60bd
000000c0: 4f30 d2bd b877 4dbd 899c df3b c30e 29bc
000000d0: f9aa cebb 571f 68bd d598 36bd a0bb f0bd
000000e0: bb8b 3cbc ef74 bcbd d813 f83b 6e86 7bbd
000000f0: 29a9 cd3b 482c 3fbd 5bf3 81bd 5bc1 4d3d
00000100: 2977 0a3b 246f 8ebb ab6a 763c 7959 f5bd
00000110: de14 f8bc bdda cfbd e70e 83bc 7386 0b3d
00000120: e5c0 58bc aa6a d73c 2953 78bd a497 34bd
00000130: ff8d 0bbd fb83 c2bc 3d84 87bd c881 51bd
00000140: a61f 21bd e81c a8bd d2c7 483c c60f 0abe
00000150: b3c5 0dbc bb97 cdbc a9f3 843b f2e6 573d
00000160: 5939 0ebd 6ec0 073c 7916 603b cb21 dabd
00000170: 89e0 83bd ebe8 c8bc 8103 a73c 0ebf 0fbd
00000180: 41c5 8bbd 41e2 adbc d072 013c c6f9 96bc
00000190: e576 003c 75c4 5cbd 9a69 d4bc 0cbf c7bd
000001a0: 8d24 ccbd 1a7b 3bbd b571 14bd 2e88 e53c
000001b0: 7a9f 3abd f043 e9bd 97d5 87bd ac68 2dbd
000001c0: 3d42 94bd e724 a2bd 6362 60bd db9a 13bc
000001d0: 8d79 bebd 70cc abbd 9b66 a6bd 77e2 593d
000001e0: 7c33 96bd 653c 57bd 6b2b cabd 695c 29bc
000001f0: 202d 4abd fe24 c33c 2342 96bc 269e 7cbd
00000200: fbf1 a2bc b3a3 bebb 3f83 7d3d de5c 7d3b
00000210: db0c 08bd 06c0 91bc 35c1 e7bd fe8f 843b
00000220: eb24 fcbc 1978 3d3d 6fbc b3bc cc92 313b
00000230: c829 02bd ce6e 8ebd 91e3 59bb c567 63bd
00000240: 880a a0bc 478f 4abd e1eb 26bd 98ec 483d
00000250: a650 7abd 73e8 33bd 3fe8 55bd ba14 adbd
00000260: 5c3c d5bd 787c d3bd 754e 3dbc 345b e9bc
00000270: 0324 3dbc 4141 80bd 3c10 c4bd 0fb9 95bc
00000280: bbf5 5bbd 3339 7a3d 840f 2cbd 5526 da3a
00000290: b978 b4bd aa66 3d3c 5cb7 dfbd 2aee ec3c
000002a0: d479 71bd 00ef b8bc 6a7d 39bd ece6 ab3b
000002b0: 6bbd 1bbd f8ce 6dbd 7504 8dbb 6444 c8bc
000002c0: 6960 4a3d 4dc0 d13b 6171 8bbd a7f3 43bd
000002d0: 040f f3bc f779 a2bc 12c8 bbbc 813c 42bd
000002e0: 6af4 90bc f079 46bd 7889 f8bd 5315 9fbd
000002f0: 21b1 72bd a13b b4bd 7e5b 54bd feef 03bd
00000300: bb91 51bc f5e1 9dbd 5a3a 163c 00bc fabc
00000310: 2233 7bbc 5a97 86bd 57ed 9abc b650 49bd
00000320: e60f b8bc c8d7 abbd 7396 0dbd 9b88 99bc
00000330: 8ee4 89bd ce2f b6bc 3488 79bd 6d2b debd
00000340: 650f 9a3c de59 99bd f56c 40bb 4139 a33a
00000350: 5ff4 56bc 2174 f4bd 4343 483d 2a78 43bd
00000360: b508 a2bd f027 b1bd 8cdd b3ba aa45 e4bd
00000370: b15d c23d 10ba 94bc 47a4 f2bc e93e 82bc
00000380: 3941 51bd 3eba 43bd 2430 71bc 72ae cfbc
00000390: 6fcf 8f3d 9ee2 11be a3f8 93bc a417 89bd
000003a0: fb5b 05bd acd4 a1bd eb7b e4b9 7604 20bd
000003b0: d859 8f3c 3360 93bc 4788 09be 546b dfbb
000003c0: ae32 febc ae6b 8d3c b418 a23d 1f50 22bd
000003d0: 51e8 b1bd 1a4a d2bd d760 523d 48b5 2fbd
000003e0: ab60 40bc e431 cc3c d00d 9cbb 328d 85bc
000003f0: 64ba 4ebd 3308 55bd d408 26bc fb22 2cbd
-0.07457106 0.03190063 0.024605554 -0.02252995 0.022008779 -0.08077868 -0.011152761 0.031990383
-0.040459014 0.054114077 -0.10056875 -0.033724323 -0.115218945 -0.07202612 -0.08907098 0.021179108
-0.064250365 -0.08210645 -0.05111584 -0.03676968 -0.08017661 0.009983076 -0.05351875 0.02289756
-0.026958644 -0.024168462 0.036871426 0.018331304 -0.061608333 0.010261627 0.022391805 -0.003504019
0.030895213 -0.061661266 -0.07112325 0.004231108 -0.029746596 -0.037839193 -0.024473118 -0.042897757
-0.02346674 -0.067154385 -0.055711385 0.0038557171 -0.035091426 -0.02499926 -0.12278267 -0.05479118
-0.102631204 -0.050163 0.0068240804 -0.010318461 -0.0063070026 -0.056670513 -0.044579346 -0.11754537
-0.011507924 -0.09201991 0.007570725 -0.0614075 0.006276269 -0.04667309 -0.063452445 0.050233226
0.0021128154 -0.004346745 0.01504008 -0.11979956 -0.030283388 -0.10149143 -0.015998317 0.034063768
-0.013229583 0.026295979 -0.060626183 -0.04408993 -0.034070965 -0.023744574 -0.06617019 -0.05114916
-0.039336823 -0.082086384 0.012254672 -0.1348258 -0.008653092 -0.025096765 0.004057367 0.05271048
-0.03472266 0.008285625 0.0034193082 -0.10650977 -0.06439311 -0.024525126 0.020387413 -0.035094313
-0.068247326 -0.02122605 0.007900909 -0.018429648 0.007840847 -0.053898294 -0.025929261 -0.09753236
-0.09967909 -0.045771696 -0.036241252 0.028019037 -0.045562245 -0.11389911 -0.06632536 -0.04233615
-0.072391964 -0.07917195 -0.05478133 -0.009009088 -0.09300528 -0.08388603 -0.08125039 0.05319449
-0.073340386 -0.05254783 -0.098715626 -0.010336974 -0.04935944 0.02382135 -0.018342083 -0.06167426
-0.019890776 -0.0058178543 0.061892744 0.003866009 -0.033215385 -0.01779176 -0.11316148 0.0040454855
-0.030779323 0.046257112 -0.021940438 0.0027095554 -0.031778127 -0.06954728 -0.0033247212 -0.055518884
-0.019536272 -0.049453046 -0.040752295 0.04905376 -0.06111207 -0.043922853 -0.05222344 -0.08451219
-0.10411903 -0.10326475 -0.01155435 -0.028485872 -0.01154423 -0.06262446 -0.09573409 -0.01827672
-0.053701144 0.061089706 -0.042006984 0.0016643504 -0.088120885 0.011560122 -0.10923645 0.02892216
-0.058954075 -0.022574902 -0.04528562 0.005246034 -0.03802244 -0.05805871 -0.00430351 -0.024446674
0.04940835 0.006401098 -0.06808735 -0.047839787 -0.029670246 -0.019833548 -0.02292255 -0.047420982
-0.01769467 -0.048456132 -0.12135595 -0.07767739 -0.059250955 -0.08800436 -0.051845066 -0.032211296
-0.0127910925 -0.077091135 0.0091691855 -0.030607224 -0.015332015 -0.06571837 -0.018912 -0.049149238
-0.022468518 -0.083907664 -0.034567308 -0.018741896 -0.067330465 -0.022239592 -0.06092091 -0.108481266
0.018806169 -0.07487844 -0.0029361818 0.0012452976 -0.013119786 -0.11936212 0.04889227 -0.04772202
-0.07911817 -0.086501956 -0.0013722642 -0.111461 0.094905265 -0.018155128 -0.02961935 -0.015899139
-0.05108759 -0.047785036 -0.01472095 -0.025351737 0.07021987 -0.14246604 -0.018062895 -0.06693962
-0.032558423 -0.07901892 -0.00043579875 -0.039066754 0.017498896 -0.017990207 -0.13430892 -0.0068182144
-0.031030025 0.01726326 0.07914868 -0.03962719 -0.08686889 -0.1026804 0.051361885 -0.042897493
-0.011741797 0.024926133 -0.0047623888 -0.016302679 -0.050470725 -0.052009773 -0.010133941 -0.042025547

bias f4 [256]
00000000: daa1 82bd dbd8 fcbd e040 213e deaf 5bbf
00000010: a488 2c3f f26d 07c0 df1a 113e a06a 5bbf
00000020: 5ace c43e 52c1 10be c3e0 27be fb74 f6bc
00000030: 3788 cfbd 96fb c3bf 8de6 843d 5b8d 053f
00000040: e334 ccbd a8c8 943e 4735 4cbf f434 3cbf
00000050: 142a 1d3f 4a63 26be 8ef4 cbbd 6c27 bfbf
00000060: a963 dfbd cf77 963e 2c25 3fbf 7932 61bf
00000070: 68db 57bd 8522 96bd fa03 e0bf 68a8 0cbe
00000080: 1f6f dfbe 8427 e63e 59e2 11bf 0fef e9bd
00000090: 54be b73e 1f7c babf a124 23c0 7dc6 1abf
000000a0: c794 cebd cf88 e93e ce95 b1be 18e7 283f
000000b0: fce2 28bf 709b 98bf a834 e43e 4003 55bf
000000c0: eabe 8cbf 526c f4bd 444e 32be 0f5f 7a3f
000000d0: 4c59 30bf 33e3 37bd d0ae 1fbf de6b 1fbd
000000e0: dc82 49bd 542f babf ff6a d9bd fde5 f7bd
000000f0: 50b1 a8bd cf4b 06be de1b 4bbf 89ed acbd
00000100: 4bc7 08be d970 a7bf 0c3d 50be a8cf 6fbf
00000110: e8c2 9ebd bde4 0abe 754e d9bd 0d2c 1a3f
00000120: 310f c2bf 74e9 2dbf b35d 00bf f677 133f
00000130: 2842 05be 7235 c9bf efbd d73e 579f 513f
00000140: d506 bebf 82d8 47be f990 03be 8826 a2bf
00000150: 3bdc b8bf fde2 d3bd 116b 3e3e 58e0 753f
00000160: 7fe9 d0bf 5967 bdbf c416 0fbe 4e5e 903f
00000170: 115c 413e e15e 90bf e82b 9cbf 2bb5 8ebf
00000180: 3a0c 49bf ca8c 21bf 9a46 bebf 137b b0bf
00000190: 46a3 4f3f 32b5 0dbe 34b3 26bf 2230 a1bd
000001a0: 570a 4fbf f17e 27be c757 a9bd 4492 93be
000001b0: 1203 6c3f eb91 34bf b8f7 65bf 77dd 07be
000001c0: 75d0 79bf 95b7 aebd 4007 73bf 45eb e7be
000001d0: 6613 a7bf 2185 7cbf 33dc 4a3e 3ce7 20bf
000001e0: ce17 adbd 24aa 7cbe ecf4 923b abf7 34bf
000001f0: 7075 1cbf f8bb c2bf ce3b b3bf 7efa d3be
00000200: 1457 9ebd 48da 84bd dec6 21bd bc8f c0bd
00000210: 5606 bebd 2f99 adbd 5398 5e3f 73c1 9fbd
00000220: 360d e53e e98c 20bf f543 afbf a655 8ebf
00000230: bb6a 13be e2d3 61bd 3a99 03bd 9d82 92bf
00000240: aed3 54bf e4ed 72bf f0a2 cdbd 84e1 e1bd
00000250: 37b3 22bf 983d 86bf 07f6 3cbd d2f5 a43e
00000260: 937f 00c0 b96d 3bbf 9697 11be f0d2 79bf
00000270: 9415 0abe d270 edbd f82e c7bd 96c3 4abf
00000280: ba4b 69bd 7a34 bf3e eac0 86bd 7a7d b7bf
00000290: be8d 2dbe caf1 b9bd b3a6 12be 9247 8abf
000002a0: 978d 95bd d634 05be bb27 ba3e f5c0 c3bd
000002b0: 066a 5bbf 62f5 9bbd 99d8 60bf fed1 a63f
000002c0: 44bf b03f 2b6d 29c0 dfc1 9c3d d4d3 4ebf
000002d0: d499 59be b8bb 93bf ad39 e2bd 1870 f93e
000002e0: 2880 113f 8137 5abf 9ace b6bf 63e2 83bd
000002f0: 0fc8 23c0 b9ed cdbd f197 49bf 264d 7ebf
00000300: 453e 43bd 5376 09be a965 693d ac76 eabf
00000310: 2cfd 143e 3c57 8e3e 71da 82bd c4c7 d03e
00000320: f142 4fbd 05be 0ebf cd80 08be 5830 b9be
00000330: c500 59bf 0c10 68bf 71c7 cbbe ed42 503e
00000340: c2a5 113f fe26 c8bf 3140 41bf a747 b0bd
00000350: c7c1 f6bd 54ba ddbd d1e0 c3bf 83e6 69bd
00000360: d8a7 06bf e489 21bf f567 d7be 2659 103f
00000370: 21ce 1ebf 1028 1c3f d73a 84bd fd13 1bbf
00000380: 60cb d1bd ae82 23be adab 44bf 8ed1 abbf
00000390: 3d06 92bf 87ca 38bf 6111 86bf 71bb 123f
000003a0: 9e06 d0bd 44f1 14bf 50d5 40bf 28f6 b0bd
000003b0: 4f32 23be 9a26 d9bd 61c1 d4bd b309 0e3d
000003c0: 3569 28be 6281 39bd b130 12be 38fc a9bd
000003d0: ed94 003f 6f47 8bbe 0efe b5bf dbb0 98bf
000003e0: 9f13 08bf 8dcb a6be a51e 08bf c9dc fabf
000003f0: 6a24 9abf e9db d0bf 8da4 4e3f 8fee 91be
-0.06378527 -0.123460494 0.15747404 -0.8581523 0.67396 -2.1160855 0.14170407 -0.8570957
0.38438684 -0.14136246 -0.16394334 -0.030085078 -0.10133403 -1.5311153 0.064892866 0.52168816
-0.09971025 0.2905934 -0.79768795 -0.735183 0.6139233 -0.16248813 -0.099587545 -1.4933906
-0.109076805 0.29388282 -0.74666095 -0.8796764 -0.052699476 -0.07330803 -1.7501214 -0.13736117
-0.43639466 0.44952023 -0.56986004 -0.1142255 0.35887396 -1.4569129 -2.5491107 -0.6045912
-0.10086971 0.4561219 -0.34684604 0.6597762 -0.6597135 -1.1922436 0.44571424 -0.83208084
-1.0995762 -0.11934723 -0.17412668 0.978013 -0.68886256 -0.04489441 -0.6237612 -0.03892123
-0.049197063 -1.4545693 -0.10616111 -0.12104414 -0.08236945 -0.13114856 -0.79339397 -0.08443744
-0.13357274 -1.3081313 -0.20335788 -0.93676233 -0.07752019 -0.13563819 -0.106106676 0.60223466
-1.5160886 -0.67934346 -0.50142974 0.5760492 -0.13013518 -1.5719435 0.42137095 0.8188376
-1.4845835 -0.19516185 -0.12848271 -1.2668009 -1.4442209 -0.10346029 0.1859553 0.96045446
-1.6321257 -1.4797164 -0.13973528 1.127878 0.18882777 -1.1278955 -1.2200899 -1.1149038
-0.7853428 -0.6310545 -1.4865296 -1.3787559 0.8110851 -0.13838652 -0.6511719 -0.07870509
-0.8087515 -0.16357018 -0.08268695 -0.2882253 0.92192185 -0.70535153 -0.89831114 -0.13268076
-0.97583705 -0.08531109 -0.9493294 -0.45296684 -1.3052795 -0.9864064 0.19810562 -0.62852836
-0.08451806 -0.24674278 0.0044847634 -0.7069041 -0.61116695 -1.5213614 -1.4002626 -0.41402048
-0.077314526 -0.06486946 -0.039496295 -0.09402415 -0.09278552 -0.08476483 0.8695118 -0.078005694
0.44736642 -0.6271501 -1.3692614 -1.1119888 -0.14396183 -0.055133708 -0.03212855 -1.144611
-0.831355 -0.9489424 -0.100408435 -0.11029342 -0.6355471 -1.0487547 -0.046133067 0.32218796
-2.0077865 -0.732143 -0.14217982 -0.9758749 -0.13484794 -0.115937844 -0.097257555 -0.7920469
-0.056956984 0.37344724 -0.06579764 -1.4335167 -0.16948602 -0.09079321 -0.14321403 -1.0803092
-0.07302397 -0.13008437 0.36358437 -0.09558288 -0.85708654 -0.076151624 -0.878305 1.3032835
1.380837 -2.647288 0.076541655 -0.80791974 -0.21250087 -1.1541662 -0.11046157 0.48718333
0.56836176 -0.8524094 -1.42818 -0.06439664 -2.5590856 -0.100551076 -0.7874747 -0.9933647
-0.047666807 -0.13424043 0.056981716 -1.8317466 0.14549702 0.2780093 -0.06389321 0.4077741
-0.05060095 -0.55758697 -0.13330384 -0.36169696 -0.847668 -0.90649486 -0.398006 0.2033803
0.5689355 -1.56369 -0.75488573 -0.086074166 -0.12048679 -0.10826555 -1.5302984 -0.0571046
-0.5259986 -0.6310103 -0.420715 0.5638603 -0.6203328 0.6099863 -0.06456535 -0.60577375
-0.10243869 -0.15967819 -0.76824456 -1.3423326 -1.1408154 -0.7218403 -1.0474054 0.5731726
-0.10157512 -0.5818064 -0.7532549 -0.086407006 -0.1593716 -0.10603066 -0.103884466 0.03467722
-0.16446383 -0.045289405 -0.14276387 -0.0830006 0.5022724 -0.27202937 -1.4218156 -1.1928972
-0.5315494 -0.32577172 -0.5317176 -1.9598628 -1.2042363 -1.6317111 0.80719835 -0.28502318

weight f4 [8, 256]
00000000: 81e1 5fbc ba55 2dbd bd13 9abc aa01 123e
00000010: 6769 743d 64db 0bbe 7229 473e eb20 4abe
00000020: 5c99 d5bd 82ed 3dbd 8cb3 b73c f71b 823d
00000030: 1186 763d 1e34 1abe 01b1 12be 10de 47be
00000040: 4cef 1a3d 375a ec3d 99e6 b8bd 76ed ae3d
00000050: c904 10bb 8354 03bc d656 193d f27f b8bd
00000060: fdc7 153d 9193 66be da99 fcbc b726 3dbd
00000070: d5f1 373d dec0 d5bd f1f5 bebc 1471 ae3c
00000080: e5f1 6cbd 502c 083d 1aad 7f3d ce25 03bc
00000090: c40b 2b3c 78db c0bd e49a abbe 319a 7d3d
000000a0: 573c c3bd 8de0 313e 301b 413e 0af2 be3c
000000b0: d70e 91bd a5d3 0cbe c783 80bd f49f 32bc
000000c0: 81e6 f93d dda4 153d e13f 673d 085e 9c3d
000000d0: 97ff cd3e 55dc 9c3a dba0 65bd be06 3c3d
000000e0: 60a8 663d 356d 273e 5ba2 1d3d 4dcc db3c
000000f0: 9f0e 803d 56be d13d f8b8 843d 77f9 123c
00000100: df2a 50bd 9f13 40be 5f63 f4bc 9eaa 0ebe
00000110: 7dec a63c 1c16 9cbc 0061 e23c 5716 e53d
00000120: 9729 8b3e 3b07 933d aee3 073e c825 1bbc
00000130: adb0 47bd c714 42bd 81aa bf3c 954e d43d
00000140: 3bca aebd e64d 053e 8376 923c d3a7 4dbd
00000150: c4d4 fbbc c1b5 b2bd 194c bbbd ca1c 41be
00000160: a9f3 6ebd bfd5 c73e 4b2f 1fbb eca2 353d
00000170: 73d0 1cbe 6ec9 e7bc dc1e ad3c 8fa6 243e
00000180: dfb0 cb3c 20fa b63d 7726 183d 2585 59bc
00000190: f8b8 d93c 400b d1bc 8c48 1bba 9ac5 8b3d
000001a0: 240b d83e e9e3 803e d87b 76bd f76d bebc
000001b0: 7b9d 893d 0f8c a4bd 9de1 39be 49c9 c0bc
000001c0: 605f 48bd 8b3f 583c 04dd aabd c402 98bb
000001d0: 66a1 0bbe b90e 713e 60c2 0f3d e25f 02be
000001e0: 5232 de3d 6128 83bd 78b9 9f3d ebd3 f5bc
000001f0: a9c0 edbb aa2a 43be a302 1fbd a486 7c3b
00000200: df10 15bd cc03 123c 8389 063e 6983 573d
00000210: 9663 d63c 35e7 4d3d 16cf 863e 3c6b d83b
00000220: b63c 9f3e c2e0 033e c8ed 00be a7fb 15bd
00000230: 6135 4b3d 24ed 203d 0bb7 593d 978c 6ebd
00000240: 3b32 09be cad4 043e 1073 98bb 4a82 40bd
00000250: 81f1 a3be 39b0 2ebd a313 ba3d 1bbe b23c
00000260: 8631 d9bd 8781 843d 2759 ebbd 5a49 e53c
00000270: 42c3 9fbd 1916 1b3c ba00 b0bd 2577 16bd
00000280: ee0a b5b8 d787 2fbd c3ad debb 5749 35bd
00000290: 9532 263e e510 283d a1f4 9dbb 2e5b 8dbd
000002a0: a8c3 15bc edf1 afbd ecdf 9fbc 104a 453d
000002b0: 4faa 74bc f5d4 5cbd a452 b9bd f911 22be
000002c0: 959e eabe a711 1a3d c68e 023c 8223 52bd
000002d0: a668 863c 2488 a1bc beb2 7ebd 85e3 b5bb
000002e0: 51d2 88bc 4ec7 54be a913 753b e6b7 a23a
000002f0: 9af7 ef3d 7deb fbbc 737d a8bd a574 debd
00000300: d678 c93c 54b7 ecbb 165a bc3c 9a77 47be
00000310: abcd 553c 2824 803e e91c f13c 4ddb a1bc
00000320: d59f 593d 1f4e ebbb 30db d9bb 72fc 81bd
00000330: ce74 8a3d 1a53 533e 1b1c 873c b957 bbbe
00000340: 6902 0c3c c78b 353d 293e cd3b 134d 283c
00000350: 705c ce3d b117 5a3d 39a4 5fbc 6906 913c
00000360: 841b 0c3c b1df 15bd 9e54 15bd 9f4b b73d
00000370: 864e 3c3e 0951 0b3e f014 683b fe08 4abb
00000380: 6f03 053d 7154 603d 6c68 32ba 1472 a2bd
00000390: 3506 73bc ab7c 553e 5595 94bd 1ca2 0a3e
000003a0: 2186 14bd 0a47 ee3d f714 93bb 0e1c 963d
000003b0: 37ff 3c3d a361 843d 77e1 31be f64d 94bc
000003c0: f591 e0bd 4218 af3c 5c0c 2cbc 3a1d 22bd
000003d0: b959 e6bc 3f2f e03d 6350 3b3e 4e3f 4a3d
000003e0: 1a4e 2a3b 9661 c63c 5ad7 783d 0f50 be3d
000003f0: a2da b83e dc4f dfbd ee1e 57bc f7c5 b3bc
-0.013664604 -0.042318083 -0.01880824 0.14258447 0.059670832 -0.1365791 0.19449404 -0.1973912
-0.104296416 -0.046369083 0.022424482 0.0635299 0.06018645 -0.15058944 -0.14325334 -0.19518304
0.037825868 0.115406446 -0.09028358 0.08541386 -0.0021975508 -0.008015755 0.03743633 -0.09008779
0.036567677 -0.2251723 -0.03083508 -0.0461795 0.044908363 -0.10437177 -0.023310633 0.021294154
-0.057847876 0.033245385 0.062420942 -0.008004619 0.010439817 -0.0941686 -0.3351661 0.061914627
-0.09532993 0.17370816 0.18858027 0.023308773 -0.070829086 -0.13752611 -0.062751345 -0.010902394
0.12202168 0.03653418 0.056457404 0.076351225 0.40234062 0.001196752 -0.056061607 0.045904867
0.05631292 0.16350253 0.038484912 0.026830817 0.06252789 0.10241382 0.064805925 0.00897061
-0.050822135 -0.18757485 -0.02983254 -0.13932273 0.020376438 -0.019053511 0.027634144 0.111859016
0.27180168 0.071791135 0.13270447 -0.009469457 -0.048752476 -0.047383096 0.023396732 0.10366551
-0.08534666 0.13017997 0.017878776 -0.050208878 -0.030741103 -0.08726073 -0.09145374 -0.18858638
-0.05833784 0.39030263 -0.0024289663 0.044344828 -0.15313892 -0.028294291 0.021132879 0.16079162
0.024864612 0.08934426 0.037146058 -0.013276373 0.026577458 -0.02551806 -0.0005923591 0.06824799
0.42196 0.25173882 -0.0601767 -0.023245795 0.0671949 -0.080345266 -0.18152471 -0.02353348
-0.04891908 0.013198744 -0.08342937 -0.0046390016 -0.13635787 0.23540772 0.03509748 -0.12731889
0.108494416 -0.06404186 0.07799047 -0.030008277 -0.007255633 -0.19059244 -0.038820874 0.00385324
-0.036393043 0.008912038 0.13138394 0.052615557 0.026170533 0.050269324 0.2632987 0.00660458
0.31101006 0.12878707 -0.12590706 -0.036616948 0.049611453 0.039288655 0.05315308 -0.058239546
-0.13398068 0.12971798 -0.0046523884 -0.046999253 -0.3202019 -0.042648528 0.09085777 0.021819165
-0.10605149 0.06470018 -0.11491614 0.027989078 -0.07800914 0.009465718 -0.085938886 -0.03673472
-8.6327884e-05 -0.042854156 -0.0067956164 -0.044259395 0.16230233 0.041031737 -0.004820422 -0.06902157
-0.009140886 -0.085910656 -0.019515954 0.048166335 -0.014933183 -0.05391403 -0.090489656 -0.15827169
-0.45824113 0.03761449 0.00796861 -0.051303394 0.016407322 -0.019718237 -0.06218218 -0.005550804
-0.01670185 -0.20779154 0.0037395752 0.0012414425 0.11717148 -0.030751938 -0.082270525 -0.10862092
0.024593752 -0.007224003 0.022992175 -0.19479218 0.013049523 0.25027585 0.02943273 -0.019757891
0.053130943 -0.0071809436 -0.0066484436 -0.06346978 0.0676056 0.2063717 0.016492894 -0.36590365
0.0085454965 0.044322755 0.0062635136 0.010272282 0.10076225 0.05324525 -0.013649994 0.017703252
0.008551482 -0.036590282 -0.03645765 0.089499705 0.1838933 0.13605131 0.003541287 -0.0030828114
0.032473978 0.05476803 -0.0006805721 -0.07931915 -0.014833023 0.20848338 -0.07255045 0.13538402
-0.036260728 0.116346434 -0.004488583 0.0732957 0.04614183 0.06463935 -0.17371164 -0.01810358
-0.10965339 0.021373872 -0.010500994 -0.039578654 -0.028118955 0.109465115 0.18292384 0.04937678
0.0025986494 0.024216454 0.06075225 0.09292614 0.36104304 -0.10903904 -0.013129933 -0.021944983

bias f4 [8]
00000000: 20db b5bc bc5f 0cbe 009c 9b3d f8c9 4f3c
00000010: 3a8c 85bd 3ccb 5a3e 0b00 de3c b29f 653e
-0.022199214 -0.13708395 0.07598114 0.01268243 -0.06520887 0.2136659 0.02709963 0.224242

weight f4 [8, 256]
00000000: eba8 c83d 6896 ff3a f979 5cbd 0fd8 bb3c
00000010: e5de dd3c 4a2d 6f3c ee10 ea3c 24bb aa3e
00000020: addd 053e c597 ee3d 076f 5a3b 7a44 023d
00000030: b3fc a13c 8ccd 81bc 95e8 bf3b 7b03 913d
00000040: 6c9a debb ebc4 003c 8864 5d3d a33c 8d3d
00000050: a93b 24bc f838 bd3c d425 033d aff3 2e3d
00000060: ae23 32bd 3aaa 183d a2a0 a83e c06a da3d
00000070: 2bc4 263d 1a0e 5c3c fa49 123e 51c3 663c
00000080: 64ea d03b 9b67 2d3b cda1 4e3d 06e5 ab3c
00000090: c4a5 b13a 6f76 7f3c 311a d73d 60a3 ed3c
000000a0: 78d9 493d 69f1 cdbd e046 353e 5f1f 9d3c
000000b0: 8801 013e 516b 2e3e 70ab 3ab9 fe35 1b3e
000000c0: 5209 493e a288 0ebd cc04 d7bd 72b5 0fbd
000000d0: 3a4c b53e c3b3 09bd d7e2 62bd adb4 f1bc
000000e0: db81 ecbb 139e 533e 66a3 5e3d d10f 723d
000000f0: ba83 8c3d 2143 9e3c 301a 943e 5864 9b3d
00000100: dd5b ad3d 5309 ec3d c55b 773d acdc fa3c
00000110: 4d95 22bd 1402 d23d 90b6 b53b b32f 46bd
00000120: 3dac 533d 9248 813e 56e1 7d3e 2a13 5f3b
00000130: a29f de3b d85a 7cbc 50e1 e6bc f709 9c3d
00000140: 5bf1 a6bc d19c 023e 60e9 803c 2c17 233d
00000150: 1f44 fa3c 1f70 b7bd 284d c03d 3bb7 9b3c
00000160: e5ef f53e 543a f43e 1afe 57bd e682 f93b
00000170: 1b2b 1e3e 4707 ae3e 8da2 a4ba be79 9d3e
00000180: 0cd3 0c3d b7e6 b23d 9228 d73d dc34 203d
00000190: dfd0 efbc b22d 203d 7a54 013a 0478 ab3d
000001a0: 6f94 863e 20f2 653d 54c8 d4bc 853c 013d
000001b0: bb0f 973b 0691 643e 87e1 213e b2eb c9bd
000001c0: ae03 9c3e c54f 313d a4fe 6e3e 7dd4 363a
000001d0: 191c 263e 8e0c d43e 5034 a73d 59c6 64bd
000001e0: 8029 9b3d 6bc1 053e 4120 be3d bff7 cd3d
000001f0: 11c0 be3c abc3 483d f584 c03d 38b5 3d3d
00000200: ab15 8b3d 30e8 9b3c 401f 843c 94a4 9b3d
00000210: 7b82 00bd d176 59ba db26 fcbd d0ce fdbc
00000220: 3788 6c3e 375d 433e 08ac bf3d 375b 473d
00000230: a0cc a23d 50d2 31bc 4aff ac3c 92cf 00bb
00000240: 58df 073f a73c 5e3c 6300 063d 4b8a 273d
00000250: f261 a53e 73f1 29bd 4181 983c 5f8a 513d
00000260: a5b5 5b3d fcbe 7a3e 588d 46bd b7b8 e53b
00000270: 9ac7 433d 9ed8 1e3d 46c7 d23d 922d b23d
00000280: 055c 0a3c f334 b2ba cad7 6b3d f8b1 9a3d
00000290: c592 5a3e 1b94 9fbc 9a66 2bbd 2186 4d3e
000002a0: dc1d a1bc 01d3 4e3d ce17 513d 7dc5 23bb
000002b0: b554 6c3e 2f0b 0f3d ec04 013a 0b50 613d
000002c0: f88a 59bd 461b 443d 26cd 893c af21 9b3e
000002d0: 6e0c 93bb bf39 733c 78e7 063e 5d4d 6abc
000002e0: 0aba 5cbd f84d 983e 5a81 0a3d 589d b93b
000002f0: 842e 603d 7b4b 44bd d427 703e 183b fb3e
00000300: 468f a53d 92c6 b93c b9ae be3d e37f 0e3c
00000310: 9c53 80bd 81d1 96be 1f8f a1bc d3fc 283c
00000320: edb4 283e b3a3 cb3d 5466 3a3d 1bef 103e
00000330: ef62 d33d 1bd4 bd3d 49c8 0d3d 6cbb 813e
00000340: 9226 983c 42aa fb3d b978 e93a 4ae8 283c
00000350: dc04 383e b57d 01bd 609f 1739 fe19 823d
00000360: 9a02 83bc 11b2 c23d 3269 a2b8 2634 9b3d
00000370: 77ca b73d a3f0 bc3c 5744 7aba f885 bc3c
00000380: f135 6dbd 1af8 643d 2457 29ba d3a0 7d3d
00000390: 39cc 313d 2064 a53e 2085 bebd 87ae debb
000003a0: 4a6e 5d3d 5bc8 35bd 6464 f03c 1971 7b3d
000003b0: def3 a13d 773a c23c a7c9 703d a4f9 2d3c
000003c0: 58e7 5c3c d5b7 c53c 3e6f 093e e09b ddbb
000003d0: 9024 103c 5f27 3c3e a833 df3e c4ed 593d
000003e0: 6f9d a839 9470 05bd 1156 f43d df3d 5d3e
000003f0: 27a8 9f3e 7609 943c d027 8fbd 166a 20bd
0.097978435 0.0019499781 -0.05382726 0.022930173 0.027083823 0.0145982 0.028572526 0.33345902
0.13072844 0.116500415 0.0033330338 0.031803586 0.019773817 -0.015845083 0.0058565834 0.07080742
-0.006793311 0.007859449 0.054050952 0.06896331 -0.01002399 0.023098454 0.032018498 0.042712864
-0.043491058 0.037271716 0.32935053 0.10664892 0.040714424 0.013431096 0.14286032 0.014084653
0.006375598 0.0026459459 0.050447274 0.02098323 0.001355343 0.015592202 0.105030425 0.029008567
0.04927966 -0.10055811 0.17702818 0.019179998 0.1259824 0.17033125 -0.00017802208 0.15157315
0.19632462 -0.034798272 -0.10498962 -0.03508515 0.3540972 -0.0336187 -0.055392113 -0.029505098
-0.0072176284 0.2066577 0.054355048 0.059097115 0.06861062 0.019319119 0.2892623 0.075874984
0.08464787 0.11525216 0.060390253 0.030622803 -0.039693166 0.102543026 0.005545445 -0.048385333
0.05167793 0.2525068 0.2479299 0.0034038522 0.006793932 -0.015402518 -0.02818361 0.07619088
-0.02037876 0.12755133 0.015736282 0.03981702 0.03055006 -0.08956932 0.093897164 0.01900827
0.48034588 0.4770075 -0.052732565 0.0076144813 0.15446131 0.33989927 -0.0012560651 0.30756944
0.034380957 0.087354116 0.10505785 0.03911291 -0.029274402 0.03910608 0.00049335475 0.083725005
0.2628512 0.05613911 -0.02597443 0.031551857 0.0046100295 0.22320947 0.15808688 -0.098594084
0.30471557 0.043288965 0.23339325 0.0006974412 0.16221656 0.41415828 0.08164275 -0.05585322
0.07576275 0.13062064 0.09283496 0.100570194 0.023284944 0.04901473 0.094003595 0.0463154
0.06791242 0.019031614 0.016128182 0.0759975 -0.031374436 -0.0008295598 -0.123120986 -0.030982405
0.23098837 0.19078527 0.09358984 0.048670974 0.07949185 -0.010853365 0.021117825 -0.0019654972
0.5307517 0.013564265 0.032715213 0.04090337 0.3230129 -0.04149003 0.01861632 0.05115735
0.053640027 0.24486917 -0.04847464 0.007010545 0.047797777 0.0387808 0.10291915 0.08700098
0.008444791 -0.0013596102 0.05757884 0.07553476 0.2134505 -0.019479802 -0.041845895 0.20070697
-0.019667558 0.050494198 0.051048093 -0.0024989538 0.23079188 0.034922775 0.0004921693 0.055007976
-0.053111047 0.047877572 0.016821455 0.30299136 -0.0044875657 0.014845311 0.13174236 -0.014300671
-0.05388836 0.29746985 0.033814766 0.005664509 0.05473186 -0.047923546 0.23452693 0.49068522
0.08083968 0.022677694 0.093106695 0.008697483 -0.06265947 -0.29456714 -0.019721566 0.010314184
0.16475268 0.099433325 0.045507744 0.14153711 0.103216045 0.092689715 0.034614835 0.25338304
0.01857308 0.122883335 0.0017812467 0.010309288 0.17970604 -0.031614024 0.00014459854 0.06352614
-0.015992451 0.0950662 -7.744356e-05 0.07578306 0.08974164 0.023063963 -0.00095469266 0.0230131
-0.05791277 0.05590067 -0.00064598233 0.061920952 0.043407653 0.32302952 -0.09302735 -0.0067957076
0.054060258 -0.044380527 0.029344745 0.061387155 0.07907842 0.023709519 0.05878606 0.010618601
0.013482891 0.02413551 0.13421342 -0.0067629665 0.00879778 0.18374394 0.43594098 0.053205267
0.00032160754 -0.032578066 0.11930478 0.21605633 0.31182978 0.018070918 -0.069900155 -0.03916367

bias f4 [8]
00000000: b2a7 7cbf 9911 8ebf 0f77 55bf e2dc 82bf
00000010: 76c8 60bf efdd 88bf 68e1 7dbf ee52 94bf
-0.9869338 -1.109912 -0.83384794 -1.0223658 -0.8780588 -1.0692729 -0.9917207 -1.1587808

weight f4 [256, 35]
00000000: 1bd9 b0be 5871 3d3e 756b 0a3f d0ca 193f
00000010: cbb0 e3be 15e8 643f 1d62 1b3f e786 3bbe
00000020: 5bc8 3c3f 03d9 a4bd f2e8 d9bf 2fe1 d4be
00000030: fb55 e2bf a040 1dbf fe2f 283e b236 a1be
00000040: 13d5 b6bd 946e 213d 72d1 4a3e 8bc4 6dbe
00000050: 1517 f13d 5e27 ec3e 814d ac3c d02b e23d
00000060: 177c 16bf 77aa 13be 7c6b 12be a642 94be
00000070: 7e10 053d 6a99 1cbf 3b17 493d 7e1f 673f
00000080: 1d61 b6bc 5ac7 053e a422 54bf 0e61 66bf
00000090: 5033 8abe 11da bcc0 14c6 8240 c30c eebf
000000a0: 7565 42c0 730f be3f 8156 2b3f 2646 1f3f
000000b0: 6127 873f 7a2e d6bd 99b4 56bf 7bdf 53be
000000c0: ca33 3dbe 2c4d 323e 732a a1bd 354a 84be
000000d0: 5fd5 533e 883c c1be baf5 80be 83ff 4b3e
000000e0: a2f0 18bd f1eb cc3d 12d5 92bd 8731 a5bc
000000f0: 6fff ee3b e307 ebbd 4381 8b3d 4639 75be
00000100: c74b 7abe 708f 523e b9be ae3c acc1 813e
00000110: b513 aebe ebc3 ecbd 7bc5 8cbf 6982 9a3d
00000120: b9a0 90c0 e46f 04c0 36da 6dbf d7c7 e0bd
00000130: b8cd 923e 94c1 08c0 df24 90bf c1ab a73e
00000140: 7c59 873e bd71 a73d 08e9 0e3e 90ed e03d
00000150: cacc 983d eb30 d0be c722 8abe 3c79 83bd
00000160: 88b3 1abe a0b6 77bb 4ed4 8cbd a708 1bbf
00000170: 9ef9 f6bd 3d39 9abc 7f81 d53d f428 dabd
00000180: 0bf3 583d d896 a2be 2c4e c23d 6fb8 a8bc
00000190: 952b 54be 35bc b2bf 6296 5dbd 33b7 1b3d
000001a0: 2c80 973d cf69 f13e df14 66be fb52 4540
000001b0: 8f47 653f 27f5 2fbf 0b37 8cbf aaef c0be
000001c0: 7ed0 09bf 13c9 8bbe 98f7 6abf 735e 8cbd
000001d0: 03c8 753e a4cd 373e 52fb 49bf dabf a5bf
000001e0: c09d 5abc e3dd c3be 3568 6cbf d0ba ebbe
000001f0: 6f4d 9a3b 644a 983d bd2a f7bd 5e5f 5e3d
00000200: 675d 903e 4878 84be 1620 a0bd 5dcf 893c
00000210: c72e 8dbb a1e5 b63e da84 5fbe e5fc 39be
00000220: 5b5e 843b 9440 f93d 94e2 df3e cd4e 0bbe
00000230: 3fc1 e33f 990b 95be 5aa8 4dbf 31c8 19c0
00000240: 34db 48bf 2d69 573e 2e51 2cbf 6c31 aabf
00000250: 30c3 8fbf 6846 8d3e 4179 0e3f 66d3 21bf
00000260: b350 05be fb4d c0be c834 b6be df1a 293f
00000270: 6c33 b3bd 26f9 5ebe fb15 eebd 5b6d 86bd
00000280: c5d4 0fbd 9cc0 98bd b8e1 563e 908e e5bc
00000290: 4826 943d c12a 24be 33c0 59be 9211 bebe
000002a0: e04e 23bf 7194 713d f491 4abe 2b1e d93d
000002b0: 289b 553f 33c7 14be d722 0ebd cb9a 59bf
000002c0: 4ba1 0abf be42 88bf 77af 3e40 296b babf
000002d0: c9cf bebf bd82 7abf 4f73 dc3c f232 64bf
000002e0: 92a3 1e3f 33dc 9b3e 60d1 a8bf 12bd 77bf
000002f0: 0b7a c7bf 938c e53e 260f 55bf 9285 803e
00000300: eb19 2f3f 1399 0b3f 12f0 433e 3b89 ddbd
00000310: 5c17 a63e 61ae d7bd 9226 f7bd 2dfc a23c
00000320: 3474 4c3d 8cd9 d53c 8429 8bbe 55ed 8f3f
00000330: 295d 22bf 6140 26be 6ac2 443f 9987 b73e
00000340: b525 93bf 557b eabd c492 9bbe 2231 39be
00000350: 67c2 53c0 0493 39bf 743f e5be dacc 5ebd
00000360: 171a fc3d d638 1640 178a f5be 18f3 593d
00000370: dd77 de3d f2a6 4d40 0b03 1b3e b487 643e
00000380: c259 7e3e ff91 5abe 85e4 77bc e7bb 69bc
00000390: 0b42 ebbd 1934 5fbc 20e5 ccbc b7ec cb3e
000003a0: 0a29 773d e618 7fbc 31e9 043b e7b5 023f
000003b0: 1cd9 233c 7bdb 9c3f 849c 3a3c 8da8 92bc
000003c0: cd4a b6bd 8832 873f 84bd ad3d 3589 163d
000003d0: df81 31bc 7874 0ac0 f396 413f b390 3f40
000003e0: 69cf dcbf b50e ce3f bc12 b5be 4ea7 d03d
000003f0: 1e41 52be 41d4 2cbe 0552 453f bfd4 053f
-0.34540638 0.18500268 0.54070216 0.6007509 -0.4447082 0.8941663 0.60696584 -0.1831318
0.7374322 -0.08049204 -1.7024214 -0.4157805 -1.7682489 -0.61426735 0.16424558 -0.31487042
-0.089273594 0.039412096 0.1980646 -0.23219506 0.11771981 0.46123785 0.02103305 0.11043513
-0.58783096 -0.14420496 -0.14298815 -0.289571 0.03248643 -0.6117159 0.04909442 0.9028243
-0.022263104 0.13064328 -0.8286536 -0.89991844 -0.26992273 -5.9016194 4.0866795 -1.8597645
-3.0374424 1.4848465 0.6692887 0.62216413 1.0558892 -0.104580835 -0.8386932 -0.2069072
-0.18476787 0.17412251 -0.07869425 -0.25837865 0.20686863 -0.37741494 -0.25187474 0.19921689
-0.03733886 0.1000594 -0.07169546 -0.020165218 0.0072936337 -0.11476114 0.06811764 -0.2394763
-0.2444297 0.2056253 0.021331178 0.25343072 -0.3399941 -0.11560806 -1.0997766 0.07544405
-4.5196195 -2.0693293 -0.9291109 -0.109756164 0.28672576 -2.136815 -1.1261252 0.32748225
0.2643546 0.08175991 0.13956082 0.109828115 0.074609354 -0.4066232 -0.26979658 -0.06419608
-0.15107548 -0.0037798062 -0.068764314 -0.6056008 -0.120593295 -0.018826121 0.1042509 -0.106523424
0.05296616 -0.3175571 0.09487566 -0.020595757 -0.2071975 -1.3963686 -0.054098494 0.03801651
0.07397494 0.47151038 -0.22468899 3.0831897 0.89562315 -0.6873345 -1.0954298 -0.3768285
-0.5383376 -0.27301845 -0.9178405 -0.06853952 0.2400208 0.1794954 -0.7889911 -1.2949173
-0.013343275 -0.38255224 -0.9234651 -0.46040964 0.004708938 0.07436064 -0.120686986 0.054290168
0.2819626 -0.25873017 -0.0781862 0.016822511 -0.004308555 0.35722068 -0.21828023 -0.18162878
0.0040395684 0.121705204 0.43727553 -0.13604279 1.7793349 -0.2911041 -0.8033501 -2.4028437
-0.7845948 0.21036215 -0.6731137 -1.3296332 -1.1231441 0.27592778 0.5565377 -0.63213193
-0.13019066 -0.37559494 -0.35587144 0.6605663 -0.08750042 -0.2177473 -0.11625286 -0.06563827
-0.035115022 -0.07458612 0.20984542 -0.02802208 0.07233864 -0.16031934 -0.21264724 -0.3712278
-0.6379223 0.058979455 -0.19782239 0.10601457 0.83439875 -0.14529113 -0.034701195 -0.8500182
-0.54152364 -1.0645368 2.9794595 -1.4563953 -1.4907161 -0.9785574 0.026910452 -0.89140236
0.6196834 0.30441436 -1.3188896 -0.96772873 -1.558412 0.44833812 -0.8322624 0.25101906
0.6839892 0.5453045 0.19134548 -0.1081719 0.32439697 -0.10531307 -0.120679036 0.019895637
0.049915507 0.026104711 -0.2718011 1.1244303 -0.634234 -0.16235496 0.7685915 0.3584564
-1.1495882 -0.11449305 -0.3038541 -0.18085149 -3.3087404 -0.72489953 -0.44774973 -0.05439458
0.12309664 2.347219 -0.47956917 0.053210348 0.10862706 3.2133145 0.1513788 0.22317392
0.24838927 -0.21344756 -0.015130167 -0.014265991 -0.11487206 -0.013623261 -0.025011599 0.39829037
0.060341872 -0.015569901 0.0020280594 0.5105881 0.010000493 1.225448 0.011389855 -0.017902637
-0.08900986 1.0562296 0.08483413 0.036751945 -0.010834186 -2.1633587 0.75620955 2.9932067
-1.7250797 1.6098238 -0.35365856 0.10188161 -0.20532653 -0.16877843 0.77078277 0.5227775

bias f4 [256]
00000000: 8856 99bf bc08 c2bf 90ff 7dbf 1f26 efbf
00000010: 8aa8 86bf 0024 71bf 2391 75bf 4adb 9d3f
00000020: 698c 9cbe c42a c3bf 4780 a4bf 15c3 933e
00000030: fd61 51bf 714b 873c 608b a4bf 881e a63f
00000040: 35bb 783f 38ce b0bf b348 23bf 0882 a8bf
00000050: ccad 9e3f dffc 84bf 249d f1bf e631 153f
00000060: 179d 5f3f 50a1 b2bf 05af 0ac0 adda b5bf
00000070: fc7d b63d 39d4 613f 33bb ddbf 2bd1 323f
00000080: b732 dd3e 1d6f 0140 93ec e5bc 358c b6bf
00000090: d3ff 6abf 4d9c a0bf 1de8 083f 271a 14bf
000000a0: 3fb5 77bf fa52 4ebf ad56 5fbf 4d96 85be
000000b0: 4acd 51bf 19bc abbf 18ce be3e 8d4e e3bf
000000c0: 3831 92bf 6619 bf3b 3d3a 47bf b536 c4be
000000d0: 4a1d bfbf 3c14 b53e 82df 0640 0444 31c0
000000e0: b702 4b3f d20d a7bf 7cb8 01c0 1e67 073f
000000f0: 1b66 84bd 79a7 823f 09f5 83bf 7a2b 41be
00000100: 298e 64bf fb75 9abf c363 90bf 7814 0bbf
00000110: 10e1 0cbd 1db1 7d3e 7d56 c6bf 730c f4be
00000120: d673 b3bf d69b 2e3e c5b9 503f 13fd eabf
00000130: 118f a0bf 1cd0 253e 61ab 2f3f f549 08c0
00000140: 9e9e c23e 574d 613e 1d9d f93f 32ab 30c0
00000150: 925b 883e 1d16 dabf 63d2 adbf 0375 603f
00000160: c0b4 a7bf 5ac0 fd3d 741e 01c0 224b d53f
00000170: 9b8a e8bf bb75 cf3e 26b2 563f d20c 34be
00000180: 055d 353f e3a6 dbbf 8f29 1fbf ba7c b63d
00000190: a79c 0740 0c38 c8bf c40c a9bf 109c e0bf
000001a0: 95d1 43bf adf4 d7bf d67d 7e3f 7ff5 8cbf
000001b0: 167e d3bf eb35 dbbf 9b2f a83e 147a e9be
000001c0: a394 6fbf a48d a7bf bdbe e4be f7da dfbf
000001d0: f821 e6bf 0e1b 023f 9b16 01c0 4fed 20c0
000001e0: 7a6e 233f 9a7b 08c0 d86f 2cbf e2e0 cd3f
000001f0: 30e5 7ebf a950 8e3f fa60 9b3e f0ff 433f
00000200: 519f 35bf 602a 1640 6ae4 a5be cbe9 893f
00000210: 51b8 dabf 7d2f 00bf f096 e83e a66d 91bf
00000220: aada 203e f052 e8bf cefa aabf ab9b 9bbf
00000230: 1200 8fbe 6d45 c33f 4793 abbf 2127 a93f
00000240: 3d10 fe3f fe06 8f3e e3b8 abbf c517 47bf
00000250: 38ad f93f 6e45 f6be c438 f93f fdb2 4bbf
00000260: edbf bcbd 82b8 19bf b636 40bf be9a e0be
00000270: 6da9 863f c5e0 d8bf aefc 5dbf f7a2 88bf
00000280: bed6 9fbf 7b9f da3f 3c91 fbbf 348d 1440
00000290: 0c77 1abd 92c5 5dbf 420b a03f 11a7 503f
000002a0: e3e5 703e a612 5dbf 7340 6abf 3fa8 af3f
000002b0: d089 cdbe 3500 00be 1d91 d1be 505d 83bf
000002c0: 84b8 c1bf f391 85bf f16b 50bd 718b a8bf
000002d0: a87b 9ebf 72b8 7ebf 9b21 983f 39e3 cdbf
000002e0: 8592 1140 733d d53f 94cd ed3f fbc1 f13e
000002f0: 9573 1fbd 2941 e2be 29fd 46bf a310 debe
00000300: 434d f1bf 2442 c8bf c7d9 4a3f 7692 18c0
00000310: 9fce a0bf 3bc5 debf d5e6 56bf dac7 8fbf
00000320: 16bf 913f f13a c6bf 1a3d d33e 84e1 15bf
00000330: 873d 48bf 17a0 b6bf 9cd9 14bd 6e03 cd3f
00000340: 6a07 e0be 943a 94bf cd40 8a3d 05b4 dbbf
00000350: cf7f 783f b932 0cc0 a0a7 5bbf 25ba 0bbf
00000360: 6117 ccbf 8e9c adbf 12a1 79be f1c2 053e
00000370: bce2 f2be 2871 1040 fe61 debf a763 a23e
00000380: 2aae 04bf 3b59 d5bf 08b6 0ec0 c722 c2bf
00000390: d4b4 9f3f 919c 4d3e 3f45 b0bf 7fc1 2dbf
000003a0: 07ec 05bf 22c2 81be 5375 45bf 967e 07c0
000003b0: ac86 323f e50a 0b40 f9ee 88be 7e8d 29c0
000003c0: f51d ae3f 6ac2 f63d 3802 333f 793a 51bf
000003d0: 8554 47bf caec 29bf 4ce5 6bbf 0453 6bbf
000003e0: cb5b 95bf 0d68 9bbf 94a9 22bf 0e22 22bf
000003f0: 8476 b2be 652a e0be 8ec1 8abf 3758 70bf
-1.1979532 -1.5158916 -0.9921808 -1.8683509 -1.0520184 -0.94195557 -0.95924586 1.2332547
-0.30575874 -1.5247426 -1.2851647 0.28859773 -0.81790143 0.016515465 -1.2855034 1.2978067
0.97160655 -1.3812933 -0.63782805 -1.3164682 1.2396789 -1.038967 -1.887608 0.58279264
0.87349075 -1.3955479 -2.1669323 -1.420736 0.08910748 0.8821445 -1.7322754 0.69850415
0.43202755 2.0224068 -0.028066909 -1.4261538 -0.91796607 -1.2547699 0.53479177 -0.57852405
-0.96760935 -0.8059536 -0.8724163 -0.26091233 -0.8195387 -1.3416778 0.37266612 -1.7758347
-1.142127 0.005831885 -0.7782324 -0.38322988 -1.4930813 0.35367 2.1073918 -2.7697763
0.7930102 -1.3051093 -2.026885 0.5289172 -0.064647876 1.0207359 -1.0309154 -0.18864241
-0.8927942 -1.2067255 -1.1280445 -0.5432811 -0.034394324 0.24774595 -1.5495144 -0.47665748
-1.4019725 0.17051634 0.8153346 -1.8358482 -1.254366 0.16192669 0.6862088 -2.129514
0.3801164 0.22002159 1.9501072 -2.760449 0.26632363 -1.7037998 -1.357983 0.87678546
-1.3102036 0.12390204 -2.0174837 1.6663554 -1.8167299 0.4051951 0.8386558 -0.17583016
0.7084506 -1.7160305 -0.6217279 0.089105085 2.1189363 -1.5642104 -1.3207021 -1.7547626
-0.7649167 -1.6871544 0.9941076 -1.101242 -1.6522853 -1.712583 0.3284882 -0.4560095
-0.93586177 -1.30901 -0.44676772 -1.7488698 -1.7979116 0.5082253 -2.0170047 -2.5144842
0.6384045 -2.132544 -0.6735816 1.6084254 -0.9956846 1.1118366 0.30347425 0.76562405
-0.7094622 2.3463364 -0.3240083 1.0774473 -1.7087499 -0.5007246 0.45427656 -1.1361587
0.15708414 -1.815031 -1.335779 -1.2156881 -0.2792974 1.5255562 -1.340432 1.3215066
1.9848706 0.27935022 -1.3415798 -0.77770644 1.9505987 -0.48099846 1.9470448 -0.7956999
-0.092162944 -0.6004716 -0.7508348 -0.4386806 1.0520455 -1.6943594 -0.86713684 -1.0674733
-1.2487409 1.707992 -1.9653697 2.3211184 -0.03771119 -0.86629593 1.2503436 0.81504923
0.23525195 -0.8635658 -0.9150459 1.372322 -0.40144205 -0.12500079 -0.40931025 -1.0262852
-1.5134435 -1.0435165 -0.05088419 -1.3167554 -1.2381487 -0.9950019 1.1885256 -1.6084968
2.2745678 1.6659378 1.8578362 0.47218308 -0.038928587 -0.44190338 -0.7773004 -0.43372068
-1.8851703 -1.5645185 0.7923855 -2.3839393 -1.2563056 -1.740394 -0.8394597 -1.1232865
1.138644 -1.5486737 0.41257554 -0.58547235 -0.78218883 -1.4267606 -0.03634034 1.6016672
-0.43755656 -1.1580377 0.06750641 -1.7164313 0.9707002 -2.1905959 -0.8580265 -0.5458091
-1.5944635 -1.3563402 -0.2437785 0.13062645 -0.4743861 2.2569065 -1.7373655 0.31716654
-0.51828253 -1.6667856 -2.2298603 -1.5166863 1.2477059 0.20079257 -1.3771132 -0.67873377
-0.52313274 -0.25343424 -0.7713215 -2.1171012 0.6973674 2.17254 -0.26744822 -2.649261
1.3602892 0.120488 0.6992526 -0.8172985 -0.7786334 -0.66376936 -0.92146754 -0.91923547
-1.1668638 -1.2141129 -0.63540006 -0.63333213 -0.34856045 -0.43782344 -1.0840318 -0.93884605
